…
dataset_name = /Messidor2_PNG_AUG_256.hdf5, batch_size = 64, num_classes = 5, epochs = 500, MCDO_amount_of_predictions = 500, MCDO_batch_size = 250, test_img_idx = 1377, train_test_split = 0.8, to_shuffle = True, augmentation = False, label_count = [1261, 1416, 1397, 1455, 1463], label_normalizer = True, save_augmentation_to_hdf5 = True, learn rate = 0.0001
x_train shape: (5593, 256, 256, 3)
5593 train samples
1399 test samples
block1_pool
3
block2_pool
7
block3_pool
12
block4_pool
17
block5_pool
22
_________________________________________________________________
Layer (type)                 Output Shape              Param #   
=================================================================
input_1 (InputLayer)         (None, 256, 256, 3)       0         
_________________________________________________________________
block1_conv1 (Conv2D)        (None, 256, 256, 64)      1792      
_________________________________________________________________
block1_conv2 (Conv2D)        (None, 256, 256, 64)      36928     
_________________________________________________________________
block1_pool (MaxPooling2D)   (None, 128, 128, 64)      0         
_________________________________________________________________
dropout (Dropout)            (None, 128, 128, 64)      0         
_________________________________________________________________
block2_conv1 (Conv2D)        (None, 128, 128, 128)     73856     
_________________________________________________________________
block2_conv2 (Conv2D)        (None, 128, 128, 128)     147584    
_________________________________________________________________
block2_pool (MaxPooling2D)   (None, 64, 64, 128)       0         
_________________________________________________________________
dropout_1 (Dropout)          (None, 64, 64, 128)       0         
_________________________________________________________________
block3_conv1 (Conv2D)        (None, 64, 64, 256)       295168    
_________________________________________________________________
block3_conv2 (Conv2D)        (None, 64, 64, 256)       590080    
_________________________________________________________________
block3_conv3 (Conv2D)        (None, 64, 64, 256)       590080    
_________________________________________________________________
block3_pool (MaxPooling2D)   (None, 32, 32, 256)       0         
_________________________________________________________________
dropout_2 (Dropout)          (None, 32, 32, 256)       0         
_________________________________________________________________
block4_conv1 (Conv2D)        (None, 32, 32, 512)       1180160   
_________________________________________________________________
block4_conv2 (Conv2D)        (None, 32, 32, 512)       2359808   
_________________________________________________________________
block4_conv3 (Conv2D)        (None, 32, 32, 512)       2359808   
_________________________________________________________________
block4_pool (MaxPooling2D)   (None, 16, 16, 512)       0         
_________________________________________________________________
dropout_3 (Dropout)          (None, 16, 16, 512)       0         
_________________________________________________________________
block5_conv1 (Conv2D)        (None, 16, 16, 512)       2359808   
_________________________________________________________________
block5_conv2 (Conv2D)        (None, 16, 16, 512)       2359808   
_________________________________________________________________
block5_conv3 (Conv2D)        (None, 16, 16, 512)       2359808   
_________________________________________________________________
block5_pool (MaxPooling2D)   (None, 8, 8, 512)         0         
_________________________________________________________________
dropout_4 (Dropout)          (None, 8, 8, 512)         0         
_________________________________________________________________
flatten (Flatten)            (None, 32768)             0         
_________________________________________________________________
dense (Dense)                (None, 5)                 163845    
=================================================================
Total params: 14,878,533
Trainable params: 14,878,533
Non-trainable params: 0
_________________________________________________________________
Start fitting monte carlo dropout model
Train on 5593 samples, validate on 1399 samples
Epoch 1/500
 - 54s - loss: 1.6251 - acc: 0.1994 - val_loss: 1.6095 - val_acc: 0.2009
Epoch 2/500
 - 43s - loss: 1.6092 - acc: 0.2036 - val_loss: 1.6088 - val_acc: 0.2066
…
