…
        train_test_split = 0.8, to_shuffle = True, augmentation = False, label_count = [1261, 1416, 1397, 1455, 1463],
        label_normalizer = True, save_augmentation_to_hdf5 = True, learn rate = 1e-05,
        add_dropout_inside = True, train_all_layers = True, weights_to_use = None,
        mcdo = True, es_patience = 30, train_val_split = 0.9
x_train shape: (5593, 256, 256, 3)
5593 train samples
1399 test samples
_________________________________________________________________
Layer (type)                 Output Shape              Param #   
=================================================================
input_1 (InputLayer)         (None, 256, 256, 3)       0         
_________________________________________________________________
block1_conv1 (Conv2D)        (None, 256, 256, 64)      1792      
_________________________________________________________________
block1_conv2 (Conv2D)        (None, 256, 256, 64)      36928     
_________________________________________________________________
block1_pool (MaxPooling2D)   (None, 128, 128, 64)      0         
_________________________________________________________________
MCDropout_1 (MCDropout)      (None, 128, 128, 64)      0         
_________________________________________________________________
block2_conv1 (Conv2D)        (None, 128, 128, 128)     73856     
_________________________________________________________________
block2_conv2 (Conv2D)        (None, 128, 128, 128)     147584    
_________________________________________________________________
block2_pool (MaxPooling2D)   (None, 64, 64, 128)       0         
_________________________________________________________________
MCDropout_2 (MCDropout)      (None, 64, 64, 128)       0         
_________________________________________________________________
block3_conv1 (Conv2D)        (None, 64, 64, 256)       295168    
_________________________________________________________________
block3_conv2 (Conv2D)        (None, 64, 64, 256)       590080    
_________________________________________________________________
block3_conv3 (Conv2D)        (None, 64, 64, 256)       590080    
_________________________________________________________________
block3_pool (MaxPooling2D)   (None, 32, 32, 256)       0         
_________________________________________________________________
MCDropout_3 (MCDropout)      (None, 32, 32, 256)       0         
_________________________________________________________________
block4_conv1 (Conv2D)        (None, 32, 32, 512)       1180160   
_________________________________________________________________
block4_conv2 (Conv2D)        (None, 32, 32, 512)       2359808   
_________________________________________________________________
block4_conv3 (Conv2D)        (None, 32, 32, 512)       2359808   
_________________________________________________________________
block4_pool (MaxPooling2D)   (None, 16, 16, 512)       0         
_________________________________________________________________
MCDropout_4 (MCDropout)      (None, 16, 16, 512)       0         
_________________________________________________________________
block5_conv1 (Conv2D)        (None, 16, 16, 512)       2359808   
_________________________________________________________________
block5_conv2 (Conv2D)        (None, 16, 16, 512)       2359808   
_________________________________________________________________
block5_conv3 (Conv2D)        (None, 16, 16, 512)       2359808   
_________________________________________________________________
block5_pool (MaxPooling2D)   (None, 8, 8, 512)         0         
_________________________________________________________________
MCDropout_5 (MCDropout)      (None, 8, 8, 512)         0         
_________________________________________________________________
flatten (Flatten)            (None, 32768)             0         
_________________________________________________________________
fc1 (Dense)                  (None, 4096)              134221824 
_________________________________________________________________
MCDropout_6 (MCDropout)      (None, 4096)              0         
_________________________________________________________________
fc2 (Dense)                  (None, 4096)              16781312  
_________________________________________________________________
MCDropout_7 (MCDropout)      (None, 4096)              0         
_________________________________________________________________
predictions (Dense)          (None, 5)                 20485     
=================================================================
Total params: 165,738,309
Trainable params: 165,738,309
Non-trainable params: 0
_________________________________________________________________
Start fitting monte carlo dropout model
Epoch 1/500
 - 50s - loss: 1.6075 - acc: 0.2065 - val_loss: 1.6025 - val_acc: 0.2411
Epoch 2/500
 - 40s - loss: 1.6040 - acc: 0.2088 - val_loss: 1.5917 - val_acc: 0.2393
…
