…
        add_mcbn_inside = True, train_all_layers = True, weights_to_use = None,
        mcbn = True, es_patience = 30, train_val_split = 0.9
x_train shape: (5593, 256, 256, 3)
5593 train samples
1399 test samples
block1_conv1
1
block1_conv2
3
block2_conv1
6
block2_conv2
8
block3_conv1
11
block3_conv2
13
block3_conv3
15
block4_conv1
18
block4_conv2
20
block4_conv3
22
block5_conv1
25
block5_conv2
27
block5_conv3
29
_________________________________________________________________
Layer (type)                 Output Shape              Param #   
=================================================================
input_1 (InputLayer)         (None, 256, 256, 3)       0         
_________________________________________________________________
block1_conv1 (Conv2D)        (None, 256, 256, 64)      1792      
_________________________________________________________________
MCBatchNorm_1 (MCBatchNorm)  (None, 256, 256, 64)      0         
_________________________________________________________________
block1_conv2 (Conv2D)        (None, 256, 256, 64)      36928     
_________________________________________________________________
MCBatchNorm_2 (MCBatchNorm)  (None, 256, 256, 64)      0         
_________________________________________________________________
block1_pool (MaxPooling2D)   (None, 128, 128, 64)      0         
_________________________________________________________________
block2_conv1 (Conv2D)        (None, 128, 128, 128)     73856     
_________________________________________________________________
MCBatchNorm_3 (MCBatchNorm)  (None, 128, 128, 128)     0         
_________________________________________________________________
block2_conv2 (Conv2D)        (None, 128, 128, 128)     147584    
_________________________________________________________________
MCBatchNorm_4 (MCBatchNorm)  (None, 128, 128, 128)     0         
_________________________________________________________________
block2_pool (MaxPooling2D)   (None, 64, 64, 128)       0         
_________________________________________________________________
block3_conv1 (Conv2D)        (None, 64, 64, 256)       295168    
_________________________________________________________________
MCBatchNorm_5 (MCBatchNorm)  (None, 64, 64, 256)       0         
_________________________________________________________________
block3_conv2 (Conv2D)        (None, 64, 64, 256)       590080    
_________________________________________________________________
MCBatchNorm_6 (MCBatchNorm)  (None, 64, 64, 256)       0         
_________________________________________________________________
block3_conv3 (Conv2D)        (None, 64, 64, 256)       590080    
_________________________________________________________________
MCBatchNorm_7 (MCBatchNorm)  (None, 64, 64, 256)       0         
_________________________________________________________________
block3_pool (MaxPooling2D)   (None, 32, 32, 256)       0         
_________________________________________________________________
block4_conv1 (Conv2D)        (None, 32, 32, 512)       1180160   
_________________________________________________________________
MCBatchNorm_8 (MCBatchNorm)  (None, 32, 32, 512)       0         
_________________________________________________________________
block4_conv2 (Conv2D)        (None, 32, 32, 512)       2359808   
_________________________________________________________________
MCBatchNorm_9 (MCBatchNorm)  (None, 32, 32, 512)       0         
_________________________________________________________________
block4_conv3 (Conv2D)        (None, 32, 32, 512)       2359808   
_________________________________________________________________
MCBatchNorm_10 (MCBatchNorm) (None, 32, 32, 512)       0         
_________________________________________________________________
block4_pool (MaxPooling2D)   (None, 16, 16, 512)       0         
_________________________________________________________________
block5_conv1 (Conv2D)        (None, 16, 16, 512)       2359808   
_________________________________________________________________
MCBatchNorm_11 (MCBatchNorm) (None, 16, 16, 512)       0         
_________________________________________________________________
block5_conv2 (Conv2D)        (None, 16, 16, 512)       2359808   
_________________________________________________________________
MCBatchNorm_12 (MCBatchNorm) (None, 16, 16, 512)       0         
_________________________________________________________________
block5_conv3 (Conv2D)        (None, 16, 16, 512)       2359808   
_________________________________________________________________
MCBatchNorm_13 (MCBatchNorm) (None, 16, 16, 512)       0         
_________________________________________________________________
block5_pool (MaxPooling2D)   (None, 8, 8, 512)         0         
_________________________________________________________________
flatten (Flatten)            (None, 32768)             0         
_________________________________________________________________
fc1 (Dense)                  (None, 4096)              134221824 
_________________________________________________________________
MCBatchNorm_14 (MCBatchNorm) (None, 4096)              0         
_________________________________________________________________
fc2 (Dense)                  (None, 4096)              16781312  
_________________________________________________________________
MCBatchNorm_15 (MCBatchNorm) (None, 4096)              0         
_________________________________________________________________
predictions (Dense)          (None, 5)                 20485     
=================================================================
Total params: 165,738,309
Trainable params: 165,738,309
Non-trainable params: 0
_________________________________________________________________
Start fitting monte carlo mcbn model
Epoch 1/500
 - 90s - loss: 1.7726 - acc: 0.3813 - val_loss: 1.6093 - val_acc: 0.2036
Epoch 2/500
 - 78s - loss: 1.5282 - acc: 0.4431 - val_loss: 1.6093 - val_acc: 0.2036
…
