…
e = 0.001, add_batch_normalization_inside = True, train_all_layers = True, weights_to_use = None
x_train shape: (5593, 256, 256, 3)
5593 train samples
1399 test samples
block1_conv1
1
block1_conv2
3
block2_conv1
6
block2_conv2
8
block3_conv1
11
block3_conv2
13
block3_conv3
15
block4_conv1
18
block4_conv2
20
block4_conv3
22
block5_conv1
25
block5_conv2
27
block5_conv3
29
_________________________________________________________________
Layer (type)                 Output Shape              Param #   
=================================================================
input_1 (InputLayer)         (None, 256, 256, 3)       0         
_________________________________________________________________
block1_conv1 (Conv2D)        (None, 256, 256, 64)      1792      
_________________________________________________________________
batch_normalization (BatchNo (None, 256, 256, 64)      256       
_________________________________________________________________
block1_conv2 (Conv2D)        (None, 256, 256, 64)      36928     
_________________________________________________________________
batch_normalization_1 (Batch (None, 256, 256, 64)      256       
_________________________________________________________________
block1_pool (MaxPooling2D)   (None, 128, 128, 64)      0         
_________________________________________________________________
block2_conv1 (Conv2D)        (None, 128, 128, 128)     73856     
_________________________________________________________________
batch_normalization_2 (Batch (None, 128, 128, 128)     512       
_________________________________________________________________
block2_conv2 (Conv2D)        (None, 128, 128, 128)     147584    
_________________________________________________________________
batch_normalization_3 (Batch (None, 128, 128, 128)     512       
_________________________________________________________________
block2_pool (MaxPooling2D)   (None, 64, 64, 128)       0         
_________________________________________________________________
block3_conv1 (Conv2D)        (None, 64, 64, 256)       295168    
_________________________________________________________________
batch_normalization_4 (Batch (None, 64, 64, 256)       1024      
_________________________________________________________________
block3_conv2 (Conv2D)        (None, 64, 64, 256)       590080    
_________________________________________________________________
batch_normalization_5 (Batch (None, 64, 64, 256)       1024      
_________________________________________________________________
block3_conv3 (Conv2D)        (None, 64, 64, 256)       590080    
_________________________________________________________________
batch_normalization_6 (Batch (None, 64, 64, 256)       1024      
_________________________________________________________________
block3_pool (MaxPooling2D)   (None, 32, 32, 256)       0         
_________________________________________________________________
block4_conv1 (Conv2D)        (None, 32, 32, 512)       1180160   
_________________________________________________________________
batch_normalization_7 (Batch (None, 32, 32, 512)       2048      
_________________________________________________________________
block4_conv2 (Conv2D)        (None, 32, 32, 512)       2359808   
_________________________________________________________________
batch_normalization_8 (Batch (None, 32, 32, 512)       2048      
_________________________________________________________________
block4_conv3 (Conv2D)        (None, 32, 32, 512)       2359808   
_________________________________________________________________
batch_normalization_9 (Batch (None, 32, 32, 512)       2048      
_________________________________________________________________
block4_pool (MaxPooling2D)   (None, 16, 16, 512)       0         
_________________________________________________________________
block5_conv1 (Conv2D)        (None, 16, 16, 512)       2359808   
_________________________________________________________________
batch_normalization_10 (Batc (None, 16, 16, 512)       2048      
_________________________________________________________________
block5_conv2 (Conv2D)        (None, 16, 16, 512)       2359808   
_________________________________________________________________
batch_normalization_11 (Batc (None, 16, 16, 512)       2048      
_________________________________________________________________
block5_conv3 (Conv2D)        (None, 16, 16, 512)       2359808   
_________________________________________________________________
batch_normalization_12 (Batc (None, 16, 16, 512)       2048      
_________________________________________________________________
block5_pool (MaxPooling2D)   (None, 8, 8, 512)         0         
_________________________________________________________________
flatten (Flatten)            (None, 32768)             0         
_________________________________________________________________
fc1 (Dense)                  (None, 4096)              134221824 
_________________________________________________________________
batch_normalization_13 (Batc (None, 4096)              16384     
_________________________________________________________________
fc2 (Dense)                  (None, 4096)              16781312  
_________________________________________________________________
batch_normalization_14 (Batc (None, 4096)              16384     
_________________________________________________________________
predictions (Dense)          (None, 5)                 20485     
=================================================================
Total params: 165,787,973
Trainable params: 165,763,141
Non-trainable params: 24,832
_________________________________________________________________
Start fitting monte carlo batch_normalization model
Train on 5593 samples, validate on 1399 samples
Epoch 1/100
 - 192s - loss: 2.7025 - acc: 0.2793 - val_loss: 2.2172 - val_acc: 0.2580
…
