…
        label_normalizer = True, save_augmentation_to_hdf5 = True, learn rate = 1e-05,
        add_mcbn_inside = True, train_all_layers = True, weights_to_use = None,
        mcbn = True, es_patience = 30, train_val_split = 0.9
x_train shape: (5593, 256, 256, 3)
5593 train samples
1399 test samples
Model: "vgg16"
_________________________________________________________________
Layer (type)                 Output Shape              Param #   
=================================================================
input_1 (InputLayer)         [(None, 256, 256, 3)]     0         
_________________________________________________________________
block1_conv1 (Conv2D)        (None, 256, 256, 64)      1792      
_________________________________________________________________
MCBatchNorm_1 (MCBatchNorm)  (None, 256, 256, 64)      256       
_________________________________________________________________
block1_conv2 (Conv2D)        (None, 256, 256, 64)      36928     
_________________________________________________________________
MCBatchNorm_2 (MCBatchNorm)  (None, 256, 256, 64)      256       
_________________________________________________________________
block1_pool (MaxPooling2D)   (None, 128, 128, 64)      0         
_________________________________________________________________
block2_conv1 (Conv2D)        (None, 128, 128, 128)     73856     
_________________________________________________________________
MCBatchNorm_3 (MCBatchNorm)  (None, 128, 128, 128)     512       
_________________________________________________________________
block2_conv2 (Conv2D)        (None, 128, 128, 128)     147584    
_________________________________________________________________
MCBatchNorm_4 (MCBatchNorm)  (None, 128, 128, 128)     512       
_________________________________________________________________
block2_pool (MaxPooling2D)   (None, 64, 64, 128)       0         
_________________________________________________________________
block3_conv1 (Conv2D)        (None, 64, 64, 256)       295168    
_________________________________________________________________
MCBatchNorm_5 (MCBatchNorm)  (None, 64, 64, 256)       1024      
_________________________________________________________________
block3_conv2 (Conv2D)        (None, 64, 64, 256)       590080    
_________________________________________________________________
MCBatchNorm_6 (MCBatchNorm)  (None, 64, 64, 256)       1024      
_________________________________________________________________
block3_conv3 (Conv2D)        (None, 64, 64, 256)       590080    
_________________________________________________________________
MCBatchNorm_7 (MCBatchNorm)  (None, 64, 64, 256)       1024      
_________________________________________________________________
block3_pool (MaxPooling2D)   (None, 32, 32, 256)       0         
_________________________________________________________________
block4_conv1 (Conv2D)        (None, 32, 32, 512)       1180160   
_________________________________________________________________
MCBatchNorm_8 (MCBatchNorm)  (None, 32, 32, 512)       2048      
_________________________________________________________________
block4_conv2 (Conv2D)        (None, 32, 32, 512)       2359808   
_________________________________________________________________
MCBatchNorm_9 (MCBatchNorm)  (None, 32, 32, 512)       2048      
_________________________________________________________________
block4_conv3 (Conv2D)        (None, 32, 32, 512)       2359808   
_________________________________________________________________
MCBatchNorm_10 (MCBatchNorm) (None, 32, 32, 512)       2048      
_________________________________________________________________
block4_pool (MaxPooling2D)   (None, 16, 16, 512)       0         
_________________________________________________________________
block5_conv1 (Conv2D)        (None, 16, 16, 512)       2359808   
_________________________________________________________________
MCBatchNorm_11 (MCBatchNorm) (None, 16, 16, 512)       2048      
_________________________________________________________________
block5_conv2 (Conv2D)        (None, 16, 16, 512)       2359808   
_________________________________________________________________
MCBatchNorm_12 (MCBatchNorm) (None, 16, 16, 512)       2048      
_________________________________________________________________
block5_conv3 (Conv2D)        (None, 16, 16, 512)       2359808   
_________________________________________________________________
MCBatchNorm_13 (MCBatchNorm) (None, 16, 16, 512)       2048      
_________________________________________________________________
block5_pool (MaxPooling2D)   (None, 8, 8, 512)         0         
_________________________________________________________________
flatten (Flatten)            (None, 32768)             0         
_________________________________________________________________
fc1 (Dense)                  (None, 4096)              134221824 
_________________________________________________________________
MCBatchNorm_14 (MCBatchNorm) (None, 4096)              16384     
_________________________________________________________________
fc2 (Dense)                  (None, 4096)              16781312  
_________________________________________________________________
MCBatchNorm_15 (MCBatchNorm) (None, 4096)              16384     
_________________________________________________________________
predictions (Dense)          (None, 5)                 20485     
=================================================================
Total params: 165,787,973
Trainable params: 165,763,141
Non-trainable params: 24,832
_________________________________________________________________
Start fitting monte carlo mcbn model
Train for 158 steps, validate for 18 steps
Epoch 1/5
158/158 - 90s - loss: 1.7763 - accuracy: 0.3785 - val_loss: 1.6099 - val_accuracy: 0.1625
…
