…
<tensorflow.python.keras.layers.core.Dense object at 0x7fbb34341bd0> True
<tensorflow.python.keras.layers.normalization_v2.BatchNormalization object at 0x7fbb3435c390> True
<tensorflow.python.keras.layers.core.Dense object at 0x7fbb3432ba50> True
Model: "model_13"
_________________________________________________________________
Layer (type)                 Output Shape              Param #   
=================================================================
input_1 (InputLayer)         [(None, 256, 256, 3)]     0         
_________________________________________________________________
block1_conv1 (Conv2D)        (None, 256, 256, 64)      1792      
_________________________________________________________________
batch_normalization (BatchNo (None, 256, 256, 64)      256       
_________________________________________________________________
block1_conv2 (Conv2D)        (None, 256, 256, 64)      36928     
_________________________________________________________________
batch_normalization_1 (Batch (None, 256, 256, 64)      256       
_________________________________________________________________
block1_pool (MaxPooling2D)   (None, 128, 128, 64)      0         
_________________________________________________________________
block2_conv1 (Conv2D)        (None, 128, 128, 128)     73856     
_________________________________________________________________
batch_normalization_2 (Batch (None, 128, 128, 128)     512       
_________________________________________________________________
block2_conv2 (Conv2D)        (None, 128, 128, 128)     147584    
_________________________________________________________________
batch_normalization_3 (Batch (None, 128, 128, 128)     512       
_________________________________________________________________
block2_pool (MaxPooling2D)   (None, 64, 64, 128)       0         
_________________________________________________________________
block3_conv1 (Conv2D)        (None, 64, 64, 256)       295168    
_________________________________________________________________
batch_normalization_4 (Batch (None, 64, 64, 256)       1024      
_________________________________________________________________
block3_conv2 (Conv2D)        (None, 64, 64, 256)       590080    
_________________________________________________________________
batch_normalization_5 (Batch (None, 64, 64, 256)       1024      
_________________________________________________________________
block3_conv3 (Conv2D)        (None, 64, 64, 256)       590080    
_________________________________________________________________
batch_normalization_6 (Batch (None, 64, 64, 256)       1024      
_________________________________________________________________
block3_pool (MaxPooling2D)   (None, 32, 32, 256)       0         
_________________________________________________________________
block4_conv1 (Conv2D)        (None, 32, 32, 512)       1180160   
_________________________________________________________________
batch_normalization_7 (Batch (None, 32, 32, 512)       2048      
_________________________________________________________________
block4_conv2 (Conv2D)        (None, 32, 32, 512)       2359808   
_________________________________________________________________
batch_normalization_8 (Batch (None, 32, 32, 512)       2048      
_________________________________________________________________
block4_conv3 (Conv2D)        (None, 32, 32, 512)       2359808   
_________________________________________________________________
batch_normalization_9 (Batch (None, 32, 32, 512)       2048      
_________________________________________________________________
block4_pool (MaxPooling2D)   (None, 16, 16, 512)       0         
_________________________________________________________________
block5_conv1 (Conv2D)        (None, 16, 16, 512)       2359808   
_________________________________________________________________
batch_normalization_10 (Batc (None, 16, 16, 512)       2048      
_________________________________________________________________
block5_conv2 (Conv2D)        (None, 16, 16, 512)       2359808   
_________________________________________________________________
batch_normalization_11 (Batc (None, 16, 16, 512)       2048      
_________________________________________________________________
block5_conv3 (Conv2D)        (None, 16, 16, 512)       2359808   
_________________________________________________________________
batch_normalization_12 (Batc (None, 16, 16, 512)       2048      
_________________________________________________________________
block5_pool (MaxPooling2D)   (None, 8, 8, 512)         0         
_________________________________________________________________
flatten (Flatten)            (None, 32768)             0         
_________________________________________________________________
fc1 (Dense)                  (None, 4096)              134221824 
_________________________________________________________________
batch_normalization_13 (Batc (None, 4096)              16384     
_________________________________________________________________
fc2 (Dense)                  (None, 4096)              16781312  
_________________________________________________________________
batch_normalization_14 (Batc (None, 4096)              16384     
_________________________________________________________________
predictions (Dense)          (None, 5)                 20485     
=================================================================
Total params: 165,787,973
Trainable params: 165,763,141
Non-trainable params: 24,832
_________________________________________________________________
Start fitting monte carlo batch_normalization model
Train for 24 steps, validate for 1 steps
Epoch 1/500
24/24 - 57s - loss: 1.3714 - accuracy: 0.5309 - val_loss: 1.5163 - val_accuracy: 0.0559
…
