…
<tensorflow.python.keras.layers.core.Dense object at 0x7fe44019e610> True
<tensorflow.python.keras.layers.normalization_v2.BatchNormalization object at 0x7fe37eb8ef10> True
<tensorflow.python.keras.layers.core.Dense object at 0x7fe440127cd0> True
Model: "model_16"
_________________________________________________________________
Layer (type)                 Output Shape              Param #   
=================================================================
input_1 (InputLayer)         [(None, 32, 32, 3)]       0         
_________________________________________________________________
block1_conv1 (Conv2D)        (None, 32, 32, 64)        1792      
_________________________________________________________________
batch_normalization (BatchNo (None, 32, 32, 64)        256       
_________________________________________________________________
block1_conv2 (Conv2D)        (None, 32, 32, 64)        36928     
_________________________________________________________________
batch_normalization_1 (Batch (None, 32, 32, 64)        256       
_________________________________________________________________
block1_pool (MaxPooling2D)   (None, 16, 16, 64)        0         
_________________________________________________________________
block2_conv1 (Conv2D)        (None, 16, 16, 128)       73856     
_________________________________________________________________
batch_normalization_2 (Batch (None, 16, 16, 128)       512       
_________________________________________________________________
block2_conv2 (Conv2D)        (None, 16, 16, 128)       147584    
_________________________________________________________________
batch_normalization_3 (Batch (None, 16, 16, 128)       512       
_________________________________________________________________
block2_pool (MaxPooling2D)   (None, 8, 8, 128)         0         
_________________________________________________________________
block3_conv1 (Conv2D)        (None, 8, 8, 256)         295168    
_________________________________________________________________
batch_normalization_4 (Batch (None, 8, 8, 256)         1024      
_________________________________________________________________
block3_conv2 (Conv2D)        (None, 8, 8, 256)         590080    
_________________________________________________________________
batch_normalization_5 (Batch (None, 8, 8, 256)         1024      
_________________________________________________________________
block3_conv3 (Conv2D)        (None, 8, 8, 256)         590080    
_________________________________________________________________
batch_normalization_6 (Batch (None, 8, 8, 256)         1024      
_________________________________________________________________
block3_pool (MaxPooling2D)   (None, 4, 4, 256)         0         
_________________________________________________________________
block4_conv1 (Conv2D)        (None, 4, 4, 512)         1180160   
_________________________________________________________________
batch_normalization_7 (Batch (None, 4, 4, 512)         2048      
_________________________________________________________________
block4_conv2 (Conv2D)        (None, 4, 4, 512)         2359808   
_________________________________________________________________
batch_normalization_8 (Batch (None, 4, 4, 512)         2048      
_________________________________________________________________
block4_conv3 (Conv2D)        (None, 4, 4, 512)         2359808   
_________________________________________________________________
batch_normalization_9 (Batch (None, 4, 4, 512)         2048      
_________________________________________________________________
block4_pool (MaxPooling2D)   (None, 2, 2, 512)         0         
_________________________________________________________________
block5_conv1 (Conv2D)        (None, 2, 2, 512)         2359808   
_________________________________________________________________
batch_normalization_10 (Batc (None, 2, 2, 512)         2048      
_________________________________________________________________
block5_conv2 (Conv2D)        (None, 2, 2, 512)         2359808   
_________________________________________________________________
batch_normalization_11 (Batc (None, 2, 2, 512)         2048      
_________________________________________________________________
block5_conv3 (Conv2D)        (None, 2, 2, 512)         2359808   
_________________________________________________________________
batch_normalization_12 (Batc (None, 2, 2, 512)         2048      
_________________________________________________________________
block5_pool (MaxPooling2D)   (None, 1, 1, 512)         0         
_________________________________________________________________
flatten (Flatten)            (None, 512)               0         
_________________________________________________________________
fc1 (Dense)                  (None, 4096)              2101248   
_________________________________________________________________
batch_normalization_13 (Batc (None, 4096)              16384     
_________________________________________________________________
fc2 (Dense)                  (None, 4096)              16781312  
_________________________________________________________________
batch_normalization_14 (Batc (None, 4096)              16384     
_________________________________________________________________
predictions (Dense)          (None, 10)                40970     
=================================================================
Total params: 33,687,882
Trainable params: 33,663,050
Non-trainable params: 24,832
_________________________________________________________________
Start fitting monte carlo batch_normalization model
Train for 1407 steps, validate for 157 steps
Epoch 1/50
1407/1407 - 30s - loss: 1.1619 - accuracy: 0.6561 - val_loss: 0.7206 - val_accuracy: 0.7704
…
