…
        es_patience_1 = 20, es_patience_2 = 25, train_val_split = 0.875
x_train shape: (4193, 256, 256, 3)
4193 train samples
346 test samples
Total labels in train set:  [840, 840, 839, 838, 836]
Labels in validation set:  [119, 22, 28, 7, 3]
Labels in test set:  [202, 58, 70, 10, 6]
Model: "model"
__________________________________________________________________________________________________
Layer (type)                    Output Shape         Param #     Connected to                     
==================================================================================================
input_1 (InputLayer)            [(None, 256, 256, 3) 0                                            
__________________________________________________________________________________________________
block1_conv1 (Conv2D)           (None, 256, 256, 64) 1792        input_1[0][0]                    
__________________________________________________________________________________________________
block1_conv2 (Conv2D)           (None, 256, 256, 64) 36928       block1_conv1[1][0]               
__________________________________________________________________________________________________
block1_pool (MaxPooling2D)      (None, 128, 128, 64) 0           block1_conv2[1][0]               
__________________________________________________________________________________________________
block2_conv1 (Conv2D)           (None, 128, 128, 128 73856       block1_pool[1][0]                
__________________________________________________________________________________________________
block2_conv2 (Conv2D)           (None, 128, 128, 128 147584      block2_conv1[1][0]               
__________________________________________________________________________________________________
block2_pool (MaxPooling2D)      (None, 64, 64, 128)  0           block2_conv2[1][0]               
__________________________________________________________________________________________________
block3_conv1 (Conv2D)           (None, 64, 64, 256)  295168      block2_pool[1][0]                
__________________________________________________________________________________________________
block3_conv2 (Conv2D)           (None, 64, 64, 256)  590080      block3_conv1[1][0]               
__________________________________________________________________________________________________
block3_conv3 (Conv2D)           (None, 64, 64, 256)  590080      block3_conv2[1][0]               
__________________________________________________________________________________________________
block3_pool (MaxPooling2D)      (None, 32, 32, 256)  0           block3_conv3[1][0]               
__________________________________________________________________________________________________
block4_conv1 (Conv2D)           (None, 32, 32, 512)  1180160     block3_pool[1][0]                
__________________________________________________________________________________________________
block4_conv2 (Conv2D)           (None, 32, 32, 512)  2359808     block4_conv1[1][0]               
__________________________________________________________________________________________________
block4_conv3 (Conv2D)           (None, 32, 32, 512)  2359808     block4_conv2[1][0]               
__________________________________________________________________________________________________
block4_pool (MaxPooling2D)      (None, 16, 16, 512)  0           block4_conv3[1][0]               
__________________________________________________________________________________________________
block5_conv1 (Conv2D)           (None, 16, 16, 512)  2359808     block4_pool[1][0]                
__________________________________________________________________________________________________
block5_conv2 (Conv2D)           (None, 16, 16, 512)  2359808     block5_conv1[1][0]               
__________________________________________________________________________________________________
block5_conv3 (Conv2D)           (None, 16, 16, 512)  2359808     block5_conv2[1][0]               
__________________________________________________________________________________________________
block5_pool (MaxPooling2D)      (None, 8, 8, 512)    0           block5_conv3[1][0]               
__________________________________________________________________________________________________
flatten (Flatten)               (None, 32768)        0           block5_pool[1][0]                
__________________________________________________________________________________________________
fc1 (Dense)                     (None, 4096)         134221824   flatten[0][0]                    
__________________________________________________________________________________________________
fc2 (Dense)                     (None, 4096)         16781312    fc1[0][0]                        
__________________________________________________________________________________________________
dense (Dense)                   (None, 5)            20485       fc2[0][0]                        
__________________________________________________________________________________________________
dense_1 (Dense)                 (None, 5)            20485       fc2[0][0]                        
__________________________________________________________________________________________________
concatenate (Concatenate)       (None, 10)           0           dense[0][0]                      
                                                                 dense_1[0][0]                    
==================================================================================================
Total params: 165,758,794
Trainable params: 165,758,794
Non-trainable params: 0
__________________________________________________________________________________________________
…
