…
2020-04-30 15:42:47.037109: I tensorflow/stream_executor/platform/default/dso_loader.cc:44] Successfully opened dynamic library libcublas.so.10
2020-04-30 15:42:47.337113: I tensorflow/stream_executor/platform/default/dso_loader.cc:44] Successfully opened dynamic library libcudnn.so.7
Model: "model"
_________________________________________________________________
Layer (type)                 Output Shape              Param #   
=================================================================
input_1 (InputLayer)         [(None, 32, 32, 3)]       0         
_________________________________________________________________
block1_conv1 (Conv2D)        (None, 32, 32, 64)        1792      
_________________________________________________________________
block1_conv2 (Conv2D)        (None, 32, 32, 64)        36928     
_________________________________________________________________
block1_pool (MaxPooling2D)   (None, 16, 16, 64)        0         
_________________________________________________________________
block2_conv1 (Conv2D)        (None, 16, 16, 128)       73856     
_________________________________________________________________
block2_conv2 (Conv2D)        (None, 16, 16, 128)       147584    
_________________________________________________________________
block2_pool (MaxPooling2D)   (None, 8, 8, 128)         0         
_________________________________________________________________
block3_conv1 (Conv2D)        (None, 8, 8, 256)         295168    
_________________________________________________________________
block3_conv2 (Conv2D)        (None, 8, 8, 256)         590080    
_________________________________________________________________
block3_conv3 (Conv2D)        (None, 8, 8, 256)         590080    
_________________________________________________________________
block3_pool (MaxPooling2D)   (None, 4, 4, 256)         0         
_________________________________________________________________
block4_conv1 (Conv2D)        (None, 4, 4, 512)         1180160   
_________________________________________________________________
block4_conv2 (Conv2D)        (None, 4, 4, 512)         2359808   
_________________________________________________________________
block4_conv3 (Conv2D)        (None, 4, 4, 512)         2359808   
_________________________________________________________________
block4_pool (MaxPooling2D)   (None, 2, 2, 512)         0         
_________________________________________________________________
block5_conv1 (Conv2D)        (None, 2, 2, 512)         2359808   
_________________________________________________________________
block5_conv2 (Conv2D)        (None, 2, 2, 512)         2359808   
_________________________________________________________________
block5_conv3 (Conv2D)        (None, 2, 2, 512)         2359808   
_________________________________________________________________
block5_pool (MaxPooling2D)   (None, 1, 1, 512)         0         
_________________________________________________________________
flatten (Flatten)            (None, 512)               0         
_________________________________________________________________
fc1 (Dense)                  (None, 4096)              2101248   
_________________________________________________________________
fc2 (Dense)                  (None, 4096)              16781312  
_________________________________________________________________
dense (Dense)                (None, 10)                40970     
=================================================================
Total params: 33,638,218
Trainable params: 33,638,218
Non-trainable params: 0
_________________________________________________________________
Model: "model_1"
__________________________________________________________________________________________________
Layer (type)                    Output Shape         Param #     Connected to                     
==================================================================================================
input_1 (InputLayer)            [(None, 32, 32, 3)]  0                                            
__________________________________________________________________________________________________
block1_conv1 (Conv2D)           (None, 32, 32, 64)   1792        input_1[0][0]                    
__________________________________________________________________________________________________
block1_conv2 (Conv2D)           (None, 32, 32, 64)   36928       block1_conv1[1][0]               
__________________________________________________________________________________________________
block1_pool (MaxPooling2D)      (None, 16, 16, 64)   0           block1_conv2[1][0]               
__________________________________________________________________________________________________
block2_conv1 (Conv2D)           (None, 16, 16, 128)  73856       block1_pool[1][0]                
__________________________________________________________________________________________________
block2_conv2 (Conv2D)           (None, 16, 16, 128)  147584      block2_conv1[1][0]               
__________________________________________________________________________________________________
block2_pool (MaxPooling2D)      (None, 8, 8, 128)    0           block2_conv2[1][0]               
__________________________________________________________________________________________________
block3_conv1 (Conv2D)           (None, 8, 8, 256)    295168      block2_pool[1][0]                
__________________________________________________________________________________________________
block3_conv2 (Conv2D)           (None, 8, 8, 256)    590080      block3_conv1[1][0]               
__________________________________________________________________________________________________
block3_conv3 (Conv2D)           (None, 8, 8, 256)    590080      block3_conv2[1][0]               
__________________________________________________________________________________________________
block3_pool (MaxPooling2D)      (None, 4, 4, 256)    0           block3_conv3[1][0]               
__________________________________________________________________________________________________
block4_conv1 (Conv2D)           (None, 4, 4, 512)    1180160     block3_pool[1][0]                
__________________________________________________________________________________________________
block4_conv2 (Conv2D)           (None, 4, 4, 512)    2359808     block4_conv1[1][0]               
__________________________________________________________________________________________________
block4_conv3 (Conv2D)           (None, 4, 4, 512)    2359808     block4_conv2[1][0]               
__________________________________________________________________________________________________
block4_pool (MaxPooling2D)      (None, 2, 2, 512)    0           block4_conv3[1][0]               
__________________________________________________________________________________________________
block5_conv1 (Conv2D)           (None, 2, 2, 512)    2359808     block4_pool[1][0]                
__________________________________________________________________________________________________
block5_conv2 (Conv2D)           (None, 2, 2, 512)    2359808     block5_conv1[1][0]               
__________________________________________________________________________________________________
block5_conv3 (Conv2D)           (None, 2, 2, 512)    2359808     block5_conv2[1][0]               
__________________________________________________________________________________________________
block5_pool (MaxPooling2D)      (None, 1, 1, 512)    0           block5_conv3[1][0]               
__________________________________________________________________________________________________
flatten (Flatten)               (None, 512)          0           block5_pool[1][0]                
__________________________________________________________________________________________________
fc1 (Dense)                     (None, 4096)         2101248     flatten[1][0]                    
__________________________________________________________________________________________________
fc2 (Dense)                     (None, 4096)         16781312    fc1[1][0]                        
__________________________________________________________________________________________________
dense_1 (Dense)                 (None, 10)           40970       fc2[1][0]                        
__________________________________________________________________________________________________
dense_2 (Dense)                 (None, 10)           40970       fc2[1][0]                        
__________________________________________________________________________________________________
concatenate (Concatenate)       (None, 20)           0           dense_1[0][0]                    
                                                                 dense_2[0][0]                    
==================================================================================================
Total params: 33,679,188
Trainable params: 33,679,188
Non-trainable params: 0
__________________________________________________________________________________________________
…
