…
x_train shape: (60000, 28, 28, 1)
60000 train samples
10000 test samples
Model: "model"
__________________________________________________________________________________________________
Layer (type)                    Output Shape         Param #     Connected to                     
==================================================================================================
input_1 (InputLayer)            [(None, 28, 28, 1)]  0                                            
__________________________________________________________________________________________________
conv2d (Conv2D)                 (None, 26, 26, 32)   320         input_1[0][0]                    
__________________________________________________________________________________________________
conv2d_1 (Conv2D)               (None, 24, 24, 64)   18496       conv2d[0][0]                     
__________________________________________________________________________________________________
max_pooling2d (MaxPooling2D)    (None, 12, 12, 64)   0           conv2d_1[0][0]                   
__________________________________________________________________________________________________
dropout (Dropout)               (None, 12, 12, 64)   0           max_pooling2d[0][0]              
__________________________________________________________________________________________________
flatten (Flatten)               (None, 9216)         0           dropout[0][0]                    
__________________________________________________________________________________________________
dense (Dense)                   (None, 128)          1179776     flatten[0][0]                    
__________________________________________________________________________________________________
dropout_1 (Dropout)             (None, 128)          0           dense[0][0]                      
__________________________________________________________________________________________________
dense_1 (Dense)                 (None, 10)           1290        dropout_1[0][0]                  
__________________________________________________________________________________________________
dense_2 (Dense)                 (None, 10)           1290        dropout_1[0][0]                  
__________________________________________________________________________________________________
concatenate (Concatenate)       (None, 20)           0           dense_1[0][0]                    
                                                                 dense_2[0][0]                    
==================================================================================================
Total params: 1,201,172
Trainable params: 1,201,172
Non-trainable params: 0
__________________________________________________________________________________________________
…
