…
Labels in test set:  [861, 885, 878, 895, 882, 878, 873, 871, 869, 858]
Xception
Model: "model"
__________________________________________________________________________________________________
Layer (type)                    Output Shape         Param #     Connected to                     
==================================================================================================
input_1 (InputLayer)            [(None, 75, 75, 3)]  0                                            
__________________________________________________________________________________________________
block1_conv1 (Conv2D)           (None, 37, 37, 32)   864         input_1[0][0]                    
__________________________________________________________________________________________________
block1_conv1_bn (BatchNormaliza (None, 37, 37, 32)   128         block1_conv1[0][0]               
__________________________________________________________________________________________________
block1_conv1_act (Activation)   (None, 37, 37, 32)   0           block1_conv1_bn[0][0]            
__________________________________________________________________________________________________
block1_conv2 (Conv2D)           (None, 35, 35, 64)   18432       block1_conv1_act[0][0]           
__________________________________________________________________________________________________
block1_conv2_bn (BatchNormaliza (None, 35, 35, 64)   256         block1_conv2[0][0]               
__________________________________________________________________________________________________
block1_conv2_act (Activation)   (None, 35, 35, 64)   0           block1_conv2_bn[0][0]            
__________________________________________________________________________________________________
block2_sepconv1 (SeparableConv2 (None, 35, 35, 128)  8768        block1_conv2_act[0][0]           
__________________________________________________________________________________________________
block2_sepconv1_bn (BatchNormal (None, 35, 35, 128)  512         block2_sepconv1[0][0]            
__________________________________________________________________________________________________
block2_sepconv2_act (Activation (None, 35, 35, 128)  0           block2_sepconv1_bn[0][0]         
__________________________________________________________________________________________________
block2_sepconv2 (SeparableConv2 (None, 35, 35, 128)  17536       block2_sepconv2_act[0][0]        
__________________________________________________________________________________________________
block2_sepconv2_bn (BatchNormal (None, 35, 35, 128)  512         block2_sepconv2[0][0]            
__________________________________________________________________________________________________
conv2d (Conv2D)                 (None, 18, 18, 128)  8192        block1_conv2_act[0][0]           
__________________________________________________________________________________________________
block2_pool (MaxPooling2D)      (None, 18, 18, 128)  0           block2_sepconv2_bn[0][0]         
__________________________________________________________________________________________________
batch_normalization (BatchNorma (None, 18, 18, 128)  512         conv2d[0][0]                     
__________________________________________________________________________________________________
add (Add)                       (None, 18, 18, 128)  0           block2_pool[0][0]                
                                                                 batch_normalization[0][0]        
__________________________________________________________________________________________________
block3_sepconv1_act (Activation (None, 18, 18, 128)  0           add[0][0]                        
__________________________________________________________________________________________________
block3_sepconv1 (SeparableConv2 (None, 18, 18, 256)  33920       block3_sepconv1_act[0][0]        
__________________________________________________________________________________________________
block3_sepconv1_bn (BatchNormal (None, 18, 18, 256)  1024        block3_sepconv1[0][0]            
__________________________________________________________________________________________________
block3_sepconv2_act (Activation (None, 18, 18, 256)  0           block3_sepconv1_bn[0][0]         
__________________________________________________________________________________________________
block3_sepconv2 (SeparableConv2 (None, 18, 18, 256)  67840       block3_sepconv2_act[0][0]        
__________________________________________________________________________________________________
block3_sepconv2_bn (BatchNormal (None, 18, 18, 256)  1024        block3_sepconv2[0][0]            
__________________________________________________________________________________________________
conv2d_1 (Conv2D)               (None, 9, 9, 256)    32768       add[0][0]                        
__________________________________________________________________________________________________
block3_pool (MaxPooling2D)      (None, 9, 9, 256)    0           block3_sepconv2_bn[0][0]         
__________________________________________________________________________________________________
batch_normalization_1 (BatchNor (None, 9, 9, 256)    1024        conv2d_1[0][0]                   
__________________________________________________________________________________________________
add_1 (Add)                     (None, 9, 9, 256)    0           block3_pool[0][0]                
                                                                 batch_normalization_1[0][0]      
__________________________________________________________________________________________________
block4_sepconv1_act (Activation (None, 9, 9, 256)    0           add_1[0][0]                      
__________________________________________________________________________________________________
block4_sepconv1 (SeparableConv2 (None, 9, 9, 728)    188672      block4_sepconv1_act[0][0]        
__________________________________________________________________________________________________
block4_sepconv1_bn (BatchNormal (None, 9, 9, 728)    2912        block4_sepconv1[0][0]            
__________________________________________________________________________________________________
block4_sepconv2_act (Activation (None, 9, 9, 728)    0           block4_sepconv1_bn[0][0]         
__________________________________________________________________________________________________
block4_sepconv2 (SeparableConv2 (None, 9, 9, 728)    536536      block4_sepconv2_act[0][0]        
__________________________________________________________________________________________________
block4_sepconv2_bn (BatchNormal (None, 9, 9, 728)    2912        block4_sepconv2[0][0]            
__________________________________________________________________________________________________
conv2d_2 (Conv2D)               (None, 5, 5, 728)    186368      add_1[0][0]                      
__________________________________________________________________________________________________
block4_pool (MaxPooling2D)      (None, 5, 5, 728)    0           block4_sepconv2_bn[0][0]         
__________________________________________________________________________________________________
batch_normalization_2 (BatchNor (None, 5, 5, 728)    2912        conv2d_2[0][0]                   
__________________________________________________________________________________________________
add_2 (Add)                     (None, 5, 5, 728)    0           block4_pool[0][0]                
                                                                 batch_normalization_2[0][0]      
__________________________________________________________________________________________________
block5_sepconv1_act (Activation (None, 5, 5, 728)    0           add_2[0][0]                      
__________________________________________________________________________________________________
block5_sepconv1 (SeparableConv2 (None, 5, 5, 728)    536536      block5_sepconv1_act[0][0]        
__________________________________________________________________________________________________
block5_sepconv1_bn (BatchNormal (None, 5, 5, 728)    2912        block5_sepconv1[0][0]            
__________________________________________________________________________________________________
block5_sepconv2_act (Activation (None, 5, 5, 728)    0           block5_sepconv1_bn[0][0]         
__________________________________________________________________________________________________
block5_sepconv2 (SeparableConv2 (None, 5, 5, 728)    536536      block5_sepconv2_act[0][0]        
__________________________________________________________________________________________________
block5_sepconv2_bn (BatchNormal (None, 5, 5, 728)    2912        block5_sepconv2[0][0]            
__________________________________________________________________________________________________
block5_sepconv3_act (Activation (None, 5, 5, 728)    0           block5_sepconv2_bn[0][0]         
__________________________________________________________________________________________________
block5_sepconv3 (SeparableConv2 (None, 5, 5, 728)    536536      block5_sepconv3_act[0][0]        
__________________________________________________________________________________________________
block5_sepconv3_bn (BatchNormal (None, 5, 5, 728)    2912        block5_sepconv3[0][0]            
__________________________________________________________________________________________________
add_3 (Add)                     (None, 5, 5, 728)    0           block5_sepconv3_bn[0][0]         
                                                                 add_2[0][0]                      
__________________________________________________________________________________________________
block6_sepconv1_act (Activation (None, 5, 5, 728)    0           add_3[0][0]                      
__________________________________________________________________________________________________
block6_sepconv1 (SeparableConv2 (None, 5, 5, 728)    536536      block6_sepconv1_act[0][0]        
__________________________________________________________________________________________________
block6_sepconv1_bn (BatchNormal (None, 5, 5, 728)    2912        block6_sepconv1[0][0]            
__________________________________________________________________________________________________
block6_sepconv2_act (Activation (None, 5, 5, 728)    0           block6_sepconv1_bn[0][0]         
__________________________________________________________________________________________________
block6_sepconv2 (SeparableConv2 (None, 5, 5, 728)    536536      block6_sepconv2_act[0][0]        
__________________________________________________________________________________________________
block6_sepconv2_bn (BatchNormal (None, 5, 5, 728)    2912        block6_sepconv2[0][0]            
__________________________________________________________________________________________________
block6_sepconv3_act (Activation (None, 5, 5, 728)    0           block6_sepconv2_bn[0][0]         
__________________________________________________________________________________________________
block6_sepconv3 (SeparableConv2 (None, 5, 5, 728)    536536      block6_sepconv3_act[0][0]        
__________________________________________________________________________________________________
block6_sepconv3_bn (BatchNormal (None, 5, 5, 728)    2912        block6_sepconv3[0][0]            
__________________________________________________________________________________________________
add_4 (Add)                     (None, 5, 5, 728)    0           block6_sepconv3_bn[0][0]         
                                                                 add_3[0][0]                      
__________________________________________________________________________________________________
block7_sepconv1_act (Activation (None, 5, 5, 728)    0           add_4[0][0]                      
__________________________________________________________________________________________________
block7_sepconv1 (SeparableConv2 (None, 5, 5, 728)    536536      block7_sepconv1_act[0][0]        
__________________________________________________________________________________________________
block7_sepconv1_bn (BatchNormal (None, 5, 5, 728)    2912        block7_sepconv1[0][0]            
__________________________________________________________________________________________________
block7_sepconv2_act (Activation (None, 5, 5, 728)    0           block7_sepconv1_bn[0][0]         
__________________________________________________________________________________________________
block7_sepconv2 (SeparableConv2 (None, 5, 5, 728)    536536      block7_sepconv2_act[0][0]        
__________________________________________________________________________________________________
block7_sepconv2_bn (BatchNormal (None, 5, 5, 728)    2912        block7_sepconv2[0][0]            
__________________________________________________________________________________________________
block7_sepconv3_act (Activation (None, 5, 5, 728)    0           block7_sepconv2_bn[0][0]         
__________________________________________________________________________________________________
block7_sepconv3 (SeparableConv2 (None, 5, 5, 728)    536536      block7_sepconv3_act[0][0]        
__________________________________________________________________________________________________
block7_sepconv3_bn (BatchNormal (None, 5, 5, 728)    2912        block7_sepconv3[0][0]            
__________________________________________________________________________________________________
add_5 (Add)                     (None, 5, 5, 728)    0           block7_sepconv3_bn[0][0]         
                                                                 add_4[0][0]                      
__________________________________________________________________________________________________
block8_sepconv1_act (Activation (None, 5, 5, 728)    0           add_5[0][0]                      
__________________________________________________________________________________________________
block8_sepconv1 (SeparableConv2 (None, 5, 5, 728)    536536      block8_sepconv1_act[0][0]        
__________________________________________________________________________________________________
block8_sepconv1_bn (BatchNormal (None, 5, 5, 728)    2912        block8_sepconv1[0][0]            
__________________________________________________________________________________________________
block8_sepconv2_act (Activation (None, 5, 5, 728)    0           block8_sepconv1_bn[0][0]         
__________________________________________________________________________________________________
block8_sepconv2 (SeparableConv2 (None, 5, 5, 728)    536536      block8_sepconv2_act[0][0]        
__________________________________________________________________________________________________
block8_sepconv2_bn (BatchNormal (None, 5, 5, 728)    2912        block8_sepconv2[0][0]            
__________________________________________________________________________________________________
block8_sepconv3_act (Activation (None, 5, 5, 728)    0           block8_sepconv2_bn[0][0]         
__________________________________________________________________________________________________
block8_sepconv3 (SeparableConv2 (None, 5, 5, 728)    536536      block8_sepconv3_act[0][0]        
__________________________________________________________________________________________________
block8_sepconv3_bn (BatchNormal (None, 5, 5, 728)    2912        block8_sepconv3[0][0]            
__________________________________________________________________________________________________
add_6 (Add)                     (None, 5, 5, 728)    0           block8_sepconv3_bn[0][0]         
                                                                 add_5[0][0]                      
__________________________________________________________________________________________________
block9_sepconv1_act (Activation (None, 5, 5, 728)    0           add_6[0][0]                      
__________________________________________________________________________________________________
block9_sepconv1 (SeparableConv2 (None, 5, 5, 728)    536536      block9_sepconv1_act[0][0]        
__________________________________________________________________________________________________
block9_sepconv1_bn (BatchNormal (None, 5, 5, 728)    2912        block9_sepconv1[0][0]            
__________________________________________________________________________________________________
block9_sepconv2_act (Activation (None, 5, 5, 728)    0           block9_sepconv1_bn[0][0]         
__________________________________________________________________________________________________
block9_sepconv2 (SeparableConv2 (None, 5, 5, 728)    536536      block9_sepconv2_act[0][0]        
__________________________________________________________________________________________________
block9_sepconv2_bn (BatchNormal (None, 5, 5, 728)    2912        block9_sepconv2[0][0]            
__________________________________________________________________________________________________
block9_sepconv3_act (Activation (None, 5, 5, 728)    0           block9_sepconv2_bn[0][0]         
__________________________________________________________________________________________________
block9_sepconv3 (SeparableConv2 (None, 5, 5, 728)    536536      block9_sepconv3_act[0][0]        
__________________________________________________________________________________________________
block9_sepconv3_bn (BatchNormal (None, 5, 5, 728)    2912        block9_sepconv3[0][0]            
__________________________________________________________________________________________________
add_7 (Add)                     (None, 5, 5, 728)    0           block9_sepconv3_bn[0][0]         
                                                                 add_6[0][0]                      
__________________________________________________________________________________________________
block10_sepconv1_act (Activatio (None, 5, 5, 728)    0           add_7[0][0]                      
__________________________________________________________________________________________________
block10_sepconv1 (SeparableConv (None, 5, 5, 728)    536536      block10_sepconv1_act[0][0]       
__________________________________________________________________________________________________
block10_sepconv1_bn (BatchNorma (None, 5, 5, 728)    2912        block10_sepconv1[0][0]           
__________________________________________________________________________________________________
block10_sepconv2_act (Activatio (None, 5, 5, 728)    0           block10_sepconv1_bn[0][0]        
__________________________________________________________________________________________________
block10_sepconv2 (SeparableConv (None, 5, 5, 728)    536536      block10_sepconv2_act[0][0]       
__________________________________________________________________________________________________
block10_sepconv2_bn (BatchNorma (None, 5, 5, 728)    2912        block10_sepconv2[0][0]           
__________________________________________________________________________________________________
block10_sepconv3_act (Activatio (None, 5, 5, 728)    0           block10_sepconv2_bn[0][0]        
__________________________________________________________________________________________________
block10_sepconv3 (SeparableConv (None, 5, 5, 728)    536536      block10_sepconv3_act[0][0]       
__________________________________________________________________________________________________
block10_sepconv3_bn (BatchNorma (None, 5, 5, 728)    2912        block10_sepconv3[0][0]           
__________________________________________________________________________________________________
add_8 (Add)                     (None, 5, 5, 728)    0           block10_sepconv3_bn[0][0]        
                                                                 add_7[0][0]                      
__________________________________________________________________________________________________
block11_sepconv1_act (Activatio (None, 5, 5, 728)    0           add_8[0][0]                      
__________________________________________________________________________________________________
block11_sepconv1 (SeparableConv (None, 5, 5, 728)    536536      block11_sepconv1_act[0][0]       
__________________________________________________________________________________________________
block11_sepconv1_bn (BatchNorma (None, 5, 5, 728)    2912        block11_sepconv1[0][0]           
__________________________________________________________________________________________________
block11_sepconv2_act (Activatio (None, 5, 5, 728)    0           block11_sepconv1_bn[0][0]        
__________________________________________________________________________________________________
block11_sepconv2 (SeparableConv (None, 5, 5, 728)    536536      block11_sepconv2_act[0][0]       
__________________________________________________________________________________________________
block11_sepconv2_bn (BatchNorma (None, 5, 5, 728)    2912        block11_sepconv2[0][0]           
__________________________________________________________________________________________________
block11_sepconv3_act (Activatio (None, 5, 5, 728)    0           block11_sepconv2_bn[0][0]        
__________________________________________________________________________________________________
block11_sepconv3 (SeparableConv (None, 5, 5, 728)    536536      block11_sepconv3_act[0][0]       
__________________________________________________________________________________________________
block11_sepconv3_bn (BatchNorma (None, 5, 5, 728)    2912        block11_sepconv3[0][0]           
__________________________________________________________________________________________________
add_9 (Add)                     (None, 5, 5, 728)    0           block11_sepconv3_bn[0][0]        
                                                                 add_8[0][0]                      
__________________________________________________________________________________________________
block12_sepconv1_act (Activatio (None, 5, 5, 728)    0           add_9[0][0]                      
__________________________________________________________________________________________________
block12_sepconv1 (SeparableConv (None, 5, 5, 728)    536536      block12_sepconv1_act[0][0]       
__________________________________________________________________________________________________
block12_sepconv1_bn (BatchNorma (None, 5, 5, 728)    2912        block12_sepconv1[0][0]           
__________________________________________________________________________________________________
block12_sepconv2_act (Activatio (None, 5, 5, 728)    0           block12_sepconv1_bn[0][0]        
__________________________________________________________________________________________________
block12_sepconv2 (SeparableConv (None, 5, 5, 728)    536536      block12_sepconv2_act[0][0]       
__________________________________________________________________________________________________
block12_sepconv2_bn (BatchNorma (None, 5, 5, 728)    2912        block12_sepconv2[0][0]           
__________________________________________________________________________________________________
block12_sepconv3_act (Activatio (None, 5, 5, 728)    0           block12_sepconv2_bn[0][0]        
__________________________________________________________________________________________________
block12_sepconv3 (SeparableConv (None, 5, 5, 728)    536536      block12_sepconv3_act[0][0]       
__________________________________________________________________________________________________
block12_sepconv3_bn (BatchNorma (None, 5, 5, 728)    2912        block12_sepconv3[0][0]           
__________________________________________________________________________________________________
add_10 (Add)                    (None, 5, 5, 728)    0           block12_sepconv3_bn[0][0]        
                                                                 add_9[0][0]                      
__________________________________________________________________________________________________
block13_sepconv1_act (Activatio (None, 5, 5, 728)    0           add_10[0][0]                     
__________________________________________________________________________________________________
block13_sepconv1 (SeparableConv (None, 5, 5, 728)    536536      block13_sepconv1_act[0][0]       
__________________________________________________________________________________________________
block13_sepconv1_bn (BatchNorma (None, 5, 5, 728)    2912        block13_sepconv1[0][0]           
__________________________________________________________________________________________________
block13_sepconv2_act (Activatio (None, 5, 5, 728)    0           block13_sepconv1_bn[0][0]        
__________________________________________________________________________________________________
block13_sepconv2 (SeparableConv (None, 5, 5, 1024)   752024      block13_sepconv2_act[0][0]       
__________________________________________________________________________________________________
block13_sepconv2_bn (BatchNorma (None, 5, 5, 1024)   4096        block13_sepconv2[0][0]           
__________________________________________________________________________________________________
conv2d_3 (Conv2D)               (None, 3, 3, 1024)   745472      add_10[0][0]                     
__________________________________________________________________________________________________
block13_pool (MaxPooling2D)     (None, 3, 3, 1024)   0           block13_sepconv2_bn[0][0]        
__________________________________________________________________________________________________
batch_normalization_3 (BatchNor (None, 3, 3, 1024)   4096        conv2d_3[0][0]                   
__________________________________________________________________________________________________
add_11 (Add)                    (None, 3, 3, 1024)   0           block13_pool[0][0]               
                                                                 batch_normalization_3[0][0]      
__________________________________________________________________________________________________
block14_sepconv1 (SeparableConv (None, 3, 3, 1536)   1582080     add_11[0][0]                     
__________________________________________________________________________________________________
block14_sepconv1_bn (BatchNorma (None, 3, 3, 1536)   6144        block14_sepconv1[0][0]           
__________________________________________________________________________________________________
block14_sepconv1_act (Activatio (None, 3, 3, 1536)   0           block14_sepconv1_bn[0][0]        
__________________________________________________________________________________________________
block14_sepconv2 (SeparableConv (None, 3, 3, 2048)   3159552     block14_sepconv1_act[0][0]       
__________________________________________________________________________________________________
block14_sepconv2_bn (BatchNorma (None, 3, 3, 2048)   8192        block14_sepconv2[0][0]           
__________________________________________________________________________________________________
block14_sepconv2_act (Activatio (None, 3, 3, 2048)   0           block14_sepconv2_bn[0][0]        
__________________________________________________________________________________________________
flatten (Flatten)               (None, 18432)        0           block14_sepconv2_act[0][0]       
__________________________________________________________________________________________________
fc1 (Dense)                     (None, 4096)         75501568    flatten[0][0]                    
__________________________________________________________________________________________________
fc2 (Dense)                     (None, 4096)         16781312    fc1[0][0]                        
__________________________________________________________________________________________________
predictions (Dense)             (None, 10)           40970       fc2[0][0]                        
==================================================================================================
Total params: 113,185,330
Trainable params: 113,130,802
Non-trainable params: 54,528
__________________________________________________________________________________________________
Start fitting ensemble models
Length split part:  16667
Labels in this part of split:  [1667, 1656, 1712, 1682, 1675, 1579, 1703, 1687, 1681, 1625]
…
2020-05-25 18:33:20.522652: E tensorflow/core/profiler/internal/gpu/cupti_tracer.cc:1329] function cupti_interface_->EnableCallback( 0 , subscriber_, CUPTI_CB_DOMAIN_DRIVER_API, cbid)failed with error CUPTI_ERROR_INVALID_PARAMETER
2020-05-25 18:33:20.522770: I tensorflow/core/profiler/internal/gpu/device_tracer.cc:88]  GpuTracer has collected 0 callback api events and 0 activity events.
Epoch 00059: early stopping
VGG16
Model: "model"
_________________________________________________________________
Layer (type)                 Output Shape              Param #   
=================================================================
input_1 (InputLayer)         [(None, 75, 75, 3)]       0         
_________________________________________________________________
block1_conv1 (Conv2D)        (None, 75, 75, 64)        1792      
_________________________________________________________________
block1_conv2 (Conv2D)        (None, 75, 75, 64)        36928     
_________________________________________________________________
block1_pool (MaxPooling2D)   (None, 37, 37, 64)        0         
_________________________________________________________________
block2_conv1 (Conv2D)        (None, 37, 37, 128)       73856     
_________________________________________________________________
block2_conv2 (Conv2D)        (None, 37, 37, 128)       147584    
_________________________________________________________________
block2_pool (MaxPooling2D)   (None, 18, 18, 128)       0         
_________________________________________________________________
block3_conv1 (Conv2D)        (None, 18, 18, 256)       295168    
_________________________________________________________________
block3_conv2 (Conv2D)        (None, 18, 18, 256)       590080    
_________________________________________________________________
block3_conv3 (Conv2D)        (None, 18, 18, 256)       590080    
_________________________________________________________________
block3_pool (MaxPooling2D)   (None, 9, 9, 256)         0         
_________________________________________________________________
block4_conv1 (Conv2D)        (None, 9, 9, 512)         1180160   
_________________________________________________________________
block4_conv2 (Conv2D)        (None, 9, 9, 512)         2359808   
_________________________________________________________________
block4_conv3 (Conv2D)        (None, 9, 9, 512)         2359808   
_________________________________________________________________
block4_pool (MaxPooling2D)   (None, 4, 4, 512)         0         
_________________________________________________________________
block5_conv1 (Conv2D)        (None, 4, 4, 512)         2359808   
_________________________________________________________________
block5_conv2 (Conv2D)        (None, 4, 4, 512)         2359808   
_________________________________________________________________
block5_conv3 (Conv2D)        (None, 4, 4, 512)         2359808   
_________________________________________________________________
block5_pool (MaxPooling2D)   (None, 2, 2, 512)         0         
_________________________________________________________________
flatten (Flatten)            (None, 2048)              0         
_________________________________________________________________
fc1 (Dense)                  (None, 4096)              8392704   
_________________________________________________________________
fc2 (Dense)                  (None, 4096)              16781312  
_________________________________________________________________
predictions (Dense)          (None, 10)                40970     
=================================================================
Total params: 39,929,674
Trainable params: 39,929,674
Non-trainable params: 0
_________________________________________________________________
Start fitting ensemble models
Length split part:  16667
Labels in this part of split:  [1667, 1656, 1712, 1682, 1675, 1579, 1703, 1687, 1681, 1625]
Train for 521 steps, validate for 40 steps
…
2020-05-25 19:07:41.007608: E tensorflow/core/profiler/internal/gpu/cupti_tracer.cc:1329] function cupti_interface_->EnableCallback( 0 , subscriber_, CUPTI_CB_DOMAIN_DRIVER_API, cbid)failed with error CUPTI_ERROR_INVALID_PARAMETER
2020-05-25 19:07:41.007690: I tensorflow/core/profiler/internal/gpu/device_tracer.cc:88]  GpuTracer has collected 0 callback api events and 0 activity events.
Epoch 00040: early stopping
VGG19
Model: "model"
_________________________________________________________________
Layer (type)                 Output Shape              Param #   
=================================================================
input_1 (InputLayer)         [(None, 75, 75, 3)]       0         
_________________________________________________________________
block1_conv1 (Conv2D)        (None, 75, 75, 64)        1792      
_________________________________________________________________
block1_conv2 (Conv2D)        (None, 75, 75, 64)        36928     
_________________________________________________________________
block1_pool (MaxPooling2D)   (None, 37, 37, 64)        0         
_________________________________________________________________
block2_conv1 (Conv2D)        (None, 37, 37, 128)       73856     
_________________________________________________________________
block2_conv2 (Conv2D)        (None, 37, 37, 128)       147584    
_________________________________________________________________
block2_pool (MaxPooling2D)   (None, 18, 18, 128)       0         
_________________________________________________________________
block3_conv1 (Conv2D)        (None, 18, 18, 256)       295168    
_________________________________________________________________
block3_conv2 (Conv2D)        (None, 18, 18, 256)       590080    
_________________________________________________________________
block3_conv3 (Conv2D)        (None, 18, 18, 256)       590080    
_________________________________________________________________
block3_conv4 (Conv2D)        (None, 18, 18, 256)       590080    
_________________________________________________________________
block3_pool (MaxPooling2D)   (None, 9, 9, 256)         0         
_________________________________________________________________
block4_conv1 (Conv2D)        (None, 9, 9, 512)         1180160   
_________________________________________________________________
block4_conv2 (Conv2D)        (None, 9, 9, 512)         2359808   
_________________________________________________________________
block4_conv3 (Conv2D)        (None, 9, 9, 512)         2359808   
_________________________________________________________________
block4_conv4 (Conv2D)        (None, 9, 9, 512)         2359808   
_________________________________________________________________
block4_pool (MaxPooling2D)   (None, 4, 4, 512)         0         
_________________________________________________________________
block5_conv1 (Conv2D)        (None, 4, 4, 512)         2359808   
_________________________________________________________________
block5_conv2 (Conv2D)        (None, 4, 4, 512)         2359808   
_________________________________________________________________
block5_conv3 (Conv2D)        (None, 4, 4, 512)         2359808   
_________________________________________________________________
block5_conv4 (Conv2D)        (None, 4, 4, 512)         2359808   
_________________________________________________________________
block5_pool (MaxPooling2D)   (None, 2, 2, 512)         0         
_________________________________________________________________
flatten (Flatten)            (None, 2048)              0         
_________________________________________________________________
fc1 (Dense)                  (None, 4096)              8392704   
_________________________________________________________________
fc2 (Dense)                  (None, 4096)              16781312  
_________________________________________________________________
predictions (Dense)          (None, 10)                40970     
=================================================================
Total params: 45,239,370
Trainable params: 45,239,370
Non-trainable params: 0
_________________________________________________________________
Start fitting ensemble models
Length split part:  16667
Labels in this part of split:  [1667, 1656, 1712, 1682, 1675, 1579, 1703, 1687, 1681, 1625]
Train for 521 steps, validate for 40 steps
…
2020-05-25 19:47:23.085683: I tensorflow/core/profiler/internal/gpu/device_tracer.cc:88]  GpuTracer has collected 0 callback api events and 0 activity events.
Epoch 00026: early stopping
ResNet50
Model: "model"
__________________________________________________________________________________________________
Layer (type)                    Output Shape         Param #     Connected to                     
==================================================================================================
input_1 (InputLayer)            [(None, 75, 75, 3)]  0                                            
__________________________________________________________________________________________________
conv1_pad (ZeroPadding2D)       (None, 81, 81, 3)    0           input_1[0][0]                    
__________________________________________________________________________________________________
conv1_conv (Conv2D)             (None, 38, 38, 64)   9472        conv1_pad[0][0]                  
__________________________________________________________________________________________________
conv1_bn (BatchNormalization)   (None, 38, 38, 64)   256         conv1_conv[0][0]                 
__________________________________________________________________________________________________
conv1_relu (Activation)         (None, 38, 38, 64)   0           conv1_bn[0][0]                   
__________________________________________________________________________________________________
pool1_pad (ZeroPadding2D)       (None, 40, 40, 64)   0           conv1_relu[0][0]                 
__________________________________________________________________________________________________
pool1_pool (MaxPooling2D)       (None, 19, 19, 64)   0           pool1_pad[0][0]                  
__________________________________________________________________________________________________
conv2_block1_1_conv (Conv2D)    (None, 19, 19, 64)   4160        pool1_pool[0][0]                 
__________________________________________________________________________________________________
conv2_block1_1_bn (BatchNormali (None, 19, 19, 64)   256         conv2_block1_1_conv[0][0]        
__________________________________________________________________________________________________
conv2_block1_1_relu (Activation (None, 19, 19, 64)   0           conv2_block1_1_bn[0][0]          
__________________________________________________________________________________________________
conv2_block1_2_conv (Conv2D)    (None, 19, 19, 64)   36928       conv2_block1_1_relu[0][0]        
__________________________________________________________________________________________________
conv2_block1_2_bn (BatchNormali (None, 19, 19, 64)   256         conv2_block1_2_conv[0][0]        
__________________________________________________________________________________________________
conv2_block1_2_relu (Activation (None, 19, 19, 64)   0           conv2_block1_2_bn[0][0]          
__________________________________________________________________________________________________
conv2_block1_0_conv (Conv2D)    (None, 19, 19, 256)  16640       pool1_pool[0][0]                 
__________________________________________________________________________________________________
conv2_block1_3_conv (Conv2D)    (None, 19, 19, 256)  16640       conv2_block1_2_relu[0][0]        
__________________________________________________________________________________________________
conv2_block1_0_bn (BatchNormali (None, 19, 19, 256)  1024        conv2_block1_0_conv[0][0]        
__________________________________________________________________________________________________
conv2_block1_3_bn (BatchNormali (None, 19, 19, 256)  1024        conv2_block1_3_conv[0][0]        
__________________________________________________________________________________________________
conv2_block1_add (Add)          (None, 19, 19, 256)  0           conv2_block1_0_bn[0][0]          
                                                                 conv2_block1_3_bn[0][0]          
__________________________________________________________________________________________________
conv2_block1_out (Activation)   (None, 19, 19, 256)  0           conv2_block1_add[0][0]           
__________________________________________________________________________________________________
conv2_block2_1_conv (Conv2D)    (None, 19, 19, 64)   16448       conv2_block1_out[0][0]           
__________________________________________________________________________________________________
conv2_block2_1_bn (BatchNormali (None, 19, 19, 64)   256         conv2_block2_1_conv[0][0]        
__________________________________________________________________________________________________
conv2_block2_1_relu (Activation (None, 19, 19, 64)   0           conv2_block2_1_bn[0][0]          
__________________________________________________________________________________________________
conv2_block2_2_conv (Conv2D)    (None, 19, 19, 64)   36928       conv2_block2_1_relu[0][0]        
__________________________________________________________________________________________________
conv2_block2_2_bn (BatchNormali (None, 19, 19, 64)   256         conv2_block2_2_conv[0][0]        
__________________________________________________________________________________________________
conv2_block2_2_relu (Activation (None, 19, 19, 64)   0           conv2_block2_2_bn[0][0]          
__________________________________________________________________________________________________
conv2_block2_3_conv (Conv2D)    (None, 19, 19, 256)  16640       conv2_block2_2_relu[0][0]        
__________________________________________________________________________________________________
conv2_block2_3_bn (BatchNormali (None, 19, 19, 256)  1024        conv2_block2_3_conv[0][0]        
__________________________________________________________________________________________________
conv2_block2_add (Add)          (None, 19, 19, 256)  0           conv2_block1_out[0][0]           
                                                                 conv2_block2_3_bn[0][0]          
__________________________________________________________________________________________________
conv2_block2_out (Activation)   (None, 19, 19, 256)  0           conv2_block2_add[0][0]           
__________________________________________________________________________________________________
conv2_block3_1_conv (Conv2D)    (None, 19, 19, 64)   16448       conv2_block2_out[0][0]           
__________________________________________________________________________________________________
conv2_block3_1_bn (BatchNormali (None, 19, 19, 64)   256         conv2_block3_1_conv[0][0]        
__________________________________________________________________________________________________
conv2_block3_1_relu (Activation (None, 19, 19, 64)   0           conv2_block3_1_bn[0][0]          
__________________________________________________________________________________________________
conv2_block3_2_conv (Conv2D)    (None, 19, 19, 64)   36928       conv2_block3_1_relu[0][0]        
__________________________________________________________________________________________________
conv2_block3_2_bn (BatchNormali (None, 19, 19, 64)   256         conv2_block3_2_conv[0][0]        
__________________________________________________________________________________________________
conv2_block3_2_relu (Activation (None, 19, 19, 64)   0           conv2_block3_2_bn[0][0]          
__________________________________________________________________________________________________
conv2_block3_3_conv (Conv2D)    (None, 19, 19, 256)  16640       conv2_block3_2_relu[0][0]        
__________________________________________________________________________________________________
conv2_block3_3_bn (BatchNormali (None, 19, 19, 256)  1024        conv2_block3_3_conv[0][0]        
__________________________________________________________________________________________________
conv2_block3_add (Add)          (None, 19, 19, 256)  0           conv2_block2_out[0][0]           
                                                                 conv2_block3_3_bn[0][0]          
__________________________________________________________________________________________________
conv2_block3_out (Activation)   (None, 19, 19, 256)  0           conv2_block3_add[0][0]           
__________________________________________________________________________________________________
conv3_block1_1_conv (Conv2D)    (None, 10, 10, 128)  32896       conv2_block3_out[0][0]           
__________________________________________________________________________________________________
conv3_block1_1_bn (BatchNormali (None, 10, 10, 128)  512         conv3_block1_1_conv[0][0]        
__________________________________________________________________________________________________
conv3_block1_1_relu (Activation (None, 10, 10, 128)  0           conv3_block1_1_bn[0][0]          
__________________________________________________________________________________________________
conv3_block1_2_conv (Conv2D)    (None, 10, 10, 128)  147584      conv3_block1_1_relu[0][0]        
__________________________________________________________________________________________________
conv3_block1_2_bn (BatchNormali (None, 10, 10, 128)  512         conv3_block1_2_conv[0][0]        
__________________________________________________________________________________________________
conv3_block1_2_relu (Activation (None, 10, 10, 128)  0           conv3_block1_2_bn[0][0]          
__________________________________________________________________________________________________
conv3_block1_0_conv (Conv2D)    (None, 10, 10, 512)  131584      conv2_block3_out[0][0]           
__________________________________________________________________________________________________
conv3_block1_3_conv (Conv2D)    (None, 10, 10, 512)  66048       conv3_block1_2_relu[0][0]        
__________________________________________________________________________________________________
conv3_block1_0_bn (BatchNormali (None, 10, 10, 512)  2048        conv3_block1_0_conv[0][0]        
__________________________________________________________________________________________________
conv3_block1_3_bn (BatchNormali (None, 10, 10, 512)  2048        conv3_block1_3_conv[0][0]        
__________________________________________________________________________________________________
conv3_block1_add (Add)          (None, 10, 10, 512)  0           conv3_block1_0_bn[0][0]          
                                                                 conv3_block1_3_bn[0][0]          
__________________________________________________________________________________________________
conv3_block1_out (Activation)   (None, 10, 10, 512)  0           conv3_block1_add[0][0]           
__________________________________________________________________________________________________
conv3_block2_1_conv (Conv2D)    (None, 10, 10, 128)  65664       conv3_block1_out[0][0]           
__________________________________________________________________________________________________
conv3_block2_1_bn (BatchNormali (None, 10, 10, 128)  512         conv3_block2_1_conv[0][0]        
__________________________________________________________________________________________________
conv3_block2_1_relu (Activation (None, 10, 10, 128)  0           conv3_block2_1_bn[0][0]          
__________________________________________________________________________________________________
conv3_block2_2_conv (Conv2D)    (None, 10, 10, 128)  147584      conv3_block2_1_relu[0][0]        
__________________________________________________________________________________________________
conv3_block2_2_bn (BatchNormali (None, 10, 10, 128)  512         conv3_block2_2_conv[0][0]        
__________________________________________________________________________________________________
conv3_block2_2_relu (Activation (None, 10, 10, 128)  0           conv3_block2_2_bn[0][0]          
__________________________________________________________________________________________________
conv3_block2_3_conv (Conv2D)    (None, 10, 10, 512)  66048       conv3_block2_2_relu[0][0]        
__________________________________________________________________________________________________
conv3_block2_3_bn (BatchNormali (None, 10, 10, 512)  2048        conv3_block2_3_conv[0][0]        
__________________________________________________________________________________________________
conv3_block2_add (Add)          (None, 10, 10, 512)  0           conv3_block1_out[0][0]           
                                                                 conv3_block2_3_bn[0][0]          
__________________________________________________________________________________________________
conv3_block2_out (Activation)   (None, 10, 10, 512)  0           conv3_block2_add[0][0]           
__________________________________________________________________________________________________
conv3_block3_1_conv (Conv2D)    (None, 10, 10, 128)  65664       conv3_block2_out[0][0]           
__________________________________________________________________________________________________
conv3_block3_1_bn (BatchNormali (None, 10, 10, 128)  512         conv3_block3_1_conv[0][0]        
__________________________________________________________________________________________________
conv3_block3_1_relu (Activation (None, 10, 10, 128)  0           conv3_block3_1_bn[0][0]          
__________________________________________________________________________________________________
conv3_block3_2_conv (Conv2D)    (None, 10, 10, 128)  147584      conv3_block3_1_relu[0][0]        
__________________________________________________________________________________________________
conv3_block3_2_bn (BatchNormali (None, 10, 10, 128)  512         conv3_block3_2_conv[0][0]        
__________________________________________________________________________________________________
conv3_block3_2_relu (Activation (None, 10, 10, 128)  0           conv3_block3_2_bn[0][0]          
__________________________________________________________________________________________________
conv3_block3_3_conv (Conv2D)    (None, 10, 10, 512)  66048       conv3_block3_2_relu[0][0]        
__________________________________________________________________________________________________
conv3_block3_3_bn (BatchNormali (None, 10, 10, 512)  2048        conv3_block3_3_conv[0][0]        
__________________________________________________________________________________________________
conv3_block3_add (Add)          (None, 10, 10, 512)  0           conv3_block2_out[0][0]           
                                                                 conv3_block3_3_bn[0][0]          
__________________________________________________________________________________________________
conv3_block3_out (Activation)   (None, 10, 10, 512)  0           conv3_block3_add[0][0]           
__________________________________________________________________________________________________
conv3_block4_1_conv (Conv2D)    (None, 10, 10, 128)  65664       conv3_block3_out[0][0]           
__________________________________________________________________________________________________
conv3_block4_1_bn (BatchNormali (None, 10, 10, 128)  512         conv3_block4_1_conv[0][0]        
__________________________________________________________________________________________________
conv3_block4_1_relu (Activation (None, 10, 10, 128)  0           conv3_block4_1_bn[0][0]          
__________________________________________________________________________________________________
conv3_block4_2_conv (Conv2D)    (None, 10, 10, 128)  147584      conv3_block4_1_relu[0][0]        
__________________________________________________________________________________________________
conv3_block4_2_bn (BatchNormali (None, 10, 10, 128)  512         conv3_block4_2_conv[0][0]        
__________________________________________________________________________________________________
conv3_block4_2_relu (Activation (None, 10, 10, 128)  0           conv3_block4_2_bn[0][0]          
__________________________________________________________________________________________________
conv3_block4_3_conv (Conv2D)    (None, 10, 10, 512)  66048       conv3_block4_2_relu[0][0]        
__________________________________________________________________________________________________
conv3_block4_3_bn (BatchNormali (None, 10, 10, 512)  2048        conv3_block4_3_conv[0][0]        
__________________________________________________________________________________________________
conv3_block4_add (Add)          (None, 10, 10, 512)  0           conv3_block3_out[0][0]           
                                                                 conv3_block4_3_bn[0][0]          
__________________________________________________________________________________________________
conv3_block4_out (Activation)   (None, 10, 10, 512)  0           conv3_block4_add[0][0]           
__________________________________________________________________________________________________
conv4_block1_1_conv (Conv2D)    (None, 5, 5, 256)    131328      conv3_block4_out[0][0]           
__________________________________________________________________________________________________
conv4_block1_1_bn (BatchNormali (None, 5, 5, 256)    1024        conv4_block1_1_conv[0][0]        
__________________________________________________________________________________________________
conv4_block1_1_relu (Activation (None, 5, 5, 256)    0           conv4_block1_1_bn[0][0]          
__________________________________________________________________________________________________
conv4_block1_2_conv (Conv2D)    (None, 5, 5, 256)    590080      conv4_block1_1_relu[0][0]        
__________________________________________________________________________________________________
conv4_block1_2_bn (BatchNormali (None, 5, 5, 256)    1024        conv4_block1_2_conv[0][0]        
__________________________________________________________________________________________________
conv4_block1_2_relu (Activation (None, 5, 5, 256)    0           conv4_block1_2_bn[0][0]          
__________________________________________________________________________________________________
conv4_block1_0_conv (Conv2D)    (None, 5, 5, 1024)   525312      conv3_block4_out[0][0]           
__________________________________________________________________________________________________
conv4_block1_3_conv (Conv2D)    (None, 5, 5, 1024)   263168      conv4_block1_2_relu[0][0]        
__________________________________________________________________________________________________
conv4_block1_0_bn (BatchNormali (None, 5, 5, 1024)   4096        conv4_block1_0_conv[0][0]        
__________________________________________________________________________________________________
conv4_block1_3_bn (BatchNormali (None, 5, 5, 1024)   4096        conv4_block1_3_conv[0][0]        
__________________________________________________________________________________________________
conv4_block1_add (Add)          (None, 5, 5, 1024)   0           conv4_block1_0_bn[0][0]          
                                                                 conv4_block1_3_bn[0][0]          
__________________________________________________________________________________________________
conv4_block1_out (Activation)   (None, 5, 5, 1024)   0           conv4_block1_add[0][0]           
__________________________________________________________________________________________________
conv4_block2_1_conv (Conv2D)    (None, 5, 5, 256)    262400      conv4_block1_out[0][0]           
__________________________________________________________________________________________________
conv4_block2_1_bn (BatchNormali (None, 5, 5, 256)    1024        conv4_block2_1_conv[0][0]        
__________________________________________________________________________________________________
conv4_block2_1_relu (Activation (None, 5, 5, 256)    0           conv4_block2_1_bn[0][0]          
__________________________________________________________________________________________________
conv4_block2_2_conv (Conv2D)    (None, 5, 5, 256)    590080      conv4_block2_1_relu[0][0]        
__________________________________________________________________________________________________
conv4_block2_2_bn (BatchNormali (None, 5, 5, 256)    1024        conv4_block2_2_conv[0][0]        
__________________________________________________________________________________________________
conv4_block2_2_relu (Activation (None, 5, 5, 256)    0           conv4_block2_2_bn[0][0]          
__________________________________________________________________________________________________
conv4_block2_3_conv (Conv2D)    (None, 5, 5, 1024)   263168      conv4_block2_2_relu[0][0]        
__________________________________________________________________________________________________
conv4_block2_3_bn (BatchNormali (None, 5, 5, 1024)   4096        conv4_block2_3_conv[0][0]        
__________________________________________________________________________________________________
conv4_block2_add (Add)          (None, 5, 5, 1024)   0           conv4_block1_out[0][0]           
                                                                 conv4_block2_3_bn[0][0]          
__________________________________________________________________________________________________
conv4_block2_out (Activation)   (None, 5, 5, 1024)   0           conv4_block2_add[0][0]           
__________________________________________________________________________________________________
conv4_block3_1_conv (Conv2D)    (None, 5, 5, 256)    262400      conv4_block2_out[0][0]           
__________________________________________________________________________________________________
conv4_block3_1_bn (BatchNormali (None, 5, 5, 256)    1024        conv4_block3_1_conv[0][0]        
__________________________________________________________________________________________________
conv4_block3_1_relu (Activation (None, 5, 5, 256)    0           conv4_block3_1_bn[0][0]          
__________________________________________________________________________________________________
conv4_block3_2_conv (Conv2D)    (None, 5, 5, 256)    590080      conv4_block3_1_relu[0][0]        
__________________________________________________________________________________________________
conv4_block3_2_bn (BatchNormali (None, 5, 5, 256)    1024        conv4_block3_2_conv[0][0]        
__________________________________________________________________________________________________
conv4_block3_2_relu (Activation (None, 5, 5, 256)    0           conv4_block3_2_bn[0][0]          
__________________________________________________________________________________________________
conv4_block3_3_conv (Conv2D)    (None, 5, 5, 1024)   263168      conv4_block3_2_relu[0][0]        
__________________________________________________________________________________________________
conv4_block3_3_bn (BatchNormali (None, 5, 5, 1024)   4096        conv4_block3_3_conv[0][0]        
__________________________________________________________________________________________________
conv4_block3_add (Add)          (None, 5, 5, 1024)   0           conv4_block2_out[0][0]           
                                                                 conv4_block3_3_bn[0][0]          
__________________________________________________________________________________________________
conv4_block3_out (Activation)   (None, 5, 5, 1024)   0           conv4_block3_add[0][0]           
__________________________________________________________________________________________________
conv4_block4_1_conv (Conv2D)    (None, 5, 5, 256)    262400      conv4_block3_out[0][0]           
__________________________________________________________________________________________________
conv4_block4_1_bn (BatchNormali (None, 5, 5, 256)    1024        conv4_block4_1_conv[0][0]        
__________________________________________________________________________________________________
conv4_block4_1_relu (Activation (None, 5, 5, 256)    0           conv4_block4_1_bn[0][0]          
__________________________________________________________________________________________________
conv4_block4_2_conv (Conv2D)    (None, 5, 5, 256)    590080      conv4_block4_1_relu[0][0]        
__________________________________________________________________________________________________
conv4_block4_2_bn (BatchNormali (None, 5, 5, 256)    1024        conv4_block4_2_conv[0][0]        
__________________________________________________________________________________________________
conv4_block4_2_relu (Activation (None, 5, 5, 256)    0           conv4_block4_2_bn[0][0]          
__________________________________________________________________________________________________
conv4_block4_3_conv (Conv2D)    (None, 5, 5, 1024)   263168      conv4_block4_2_relu[0][0]        
__________________________________________________________________________________________________
conv4_block4_3_bn (BatchNormali (None, 5, 5, 1024)   4096        conv4_block4_3_conv[0][0]        
__________________________________________________________________________________________________
conv4_block4_add (Add)          (None, 5, 5, 1024)   0           conv4_block3_out[0][0]           
                                                                 conv4_block4_3_bn[0][0]          
__________________________________________________________________________________________________
conv4_block4_out (Activation)   (None, 5, 5, 1024)   0           conv4_block4_add[0][0]           
__________________________________________________________________________________________________
conv4_block5_1_conv (Conv2D)    (None, 5, 5, 256)    262400      conv4_block4_out[0][0]           
__________________________________________________________________________________________________
conv4_block5_1_bn (BatchNormali (None, 5, 5, 256)    1024        conv4_block5_1_conv[0][0]        
__________________________________________________________________________________________________
conv4_block5_1_relu (Activation (None, 5, 5, 256)    0           conv4_block5_1_bn[0][0]          
__________________________________________________________________________________________________
conv4_block5_2_conv (Conv2D)    (None, 5, 5, 256)    590080      conv4_block5_1_relu[0][0]        
__________________________________________________________________________________________________
conv4_block5_2_bn (BatchNormali (None, 5, 5, 256)    1024        conv4_block5_2_conv[0][0]        
__________________________________________________________________________________________________
conv4_block5_2_relu (Activation (None, 5, 5, 256)    0           conv4_block5_2_bn[0][0]          
__________________________________________________________________________________________________
conv4_block5_3_conv (Conv2D)    (None, 5, 5, 1024)   263168      conv4_block5_2_relu[0][0]        
__________________________________________________________________________________________________
conv4_block5_3_bn (BatchNormali (None, 5, 5, 1024)   4096        conv4_block5_3_conv[0][0]        
__________________________________________________________________________________________________
conv4_block5_add (Add)          (None, 5, 5, 1024)   0           conv4_block4_out[0][0]           
                                                                 conv4_block5_3_bn[0][0]          
__________________________________________________________________________________________________
conv4_block5_out (Activation)   (None, 5, 5, 1024)   0           conv4_block5_add[0][0]           
__________________________________________________________________________________________________
conv4_block6_1_conv (Conv2D)    (None, 5, 5, 256)    262400      conv4_block5_out[0][0]           
__________________________________________________________________________________________________
conv4_block6_1_bn (BatchNormali (None, 5, 5, 256)    1024        conv4_block6_1_conv[0][0]        
__________________________________________________________________________________________________
conv4_block6_1_relu (Activation (None, 5, 5, 256)    0           conv4_block6_1_bn[0][0]          
__________________________________________________________________________________________________
conv4_block6_2_conv (Conv2D)    (None, 5, 5, 256)    590080      conv4_block6_1_relu[0][0]        
__________________________________________________________________________________________________
conv4_block6_2_bn (BatchNormali (None, 5, 5, 256)    1024        conv4_block6_2_conv[0][0]        
__________________________________________________________________________________________________
conv4_block6_2_relu (Activation (None, 5, 5, 256)    0           conv4_block6_2_bn[0][0]          
__________________________________________________________________________________________________
conv4_block6_3_conv (Conv2D)    (None, 5, 5, 1024)   263168      conv4_block6_2_relu[0][0]        
__________________________________________________________________________________________________
conv4_block6_3_bn (BatchNormali (None, 5, 5, 1024)   4096        conv4_block6_3_conv[0][0]        
__________________________________________________________________________________________________
conv4_block6_add (Add)          (None, 5, 5, 1024)   0           conv4_block5_out[0][0]           
                                                                 conv4_block6_3_bn[0][0]          
__________________________________________________________________________________________________
conv4_block6_out (Activation)   (None, 5, 5, 1024)   0           conv4_block6_add[0][0]           
__________________________________________________________________________________________________
conv5_block1_1_conv (Conv2D)    (None, 3, 3, 512)    524800      conv4_block6_out[0][0]           
__________________________________________________________________________________________________
conv5_block1_1_bn (BatchNormali (None, 3, 3, 512)    2048        conv5_block1_1_conv[0][0]        
__________________________________________________________________________________________________
conv5_block1_1_relu (Activation (None, 3, 3, 512)    0           conv5_block1_1_bn[0][0]          
__________________________________________________________________________________________________
conv5_block1_2_conv (Conv2D)    (None, 3, 3, 512)    2359808     conv5_block1_1_relu[0][0]        
__________________________________________________________________________________________________
conv5_block1_2_bn (BatchNormali (None, 3, 3, 512)    2048        conv5_block1_2_conv[0][0]        
__________________________________________________________________________________________________
conv5_block1_2_relu (Activation (None, 3, 3, 512)    0           conv5_block1_2_bn[0][0]          
__________________________________________________________________________________________________
conv5_block1_0_conv (Conv2D)    (None, 3, 3, 2048)   2099200     conv4_block6_out[0][0]           
__________________________________________________________________________________________________
conv5_block1_3_conv (Conv2D)    (None, 3, 3, 2048)   1050624     conv5_block1_2_relu[0][0]        
__________________________________________________________________________________________________
conv5_block1_0_bn (BatchNormali (None, 3, 3, 2048)   8192        conv5_block1_0_conv[0][0]        
__________________________________________________________________________________________________
conv5_block1_3_bn (BatchNormali (None, 3, 3, 2048)   8192        conv5_block1_3_conv[0][0]        
__________________________________________________________________________________________________
conv5_block1_add (Add)          (None, 3, 3, 2048)   0           conv5_block1_0_bn[0][0]          
                                                                 conv5_block1_3_bn[0][0]          
__________________________________________________________________________________________________
conv5_block1_out (Activation)   (None, 3, 3, 2048)   0           conv5_block1_add[0][0]           
__________________________________________________________________________________________________
conv5_block2_1_conv (Conv2D)    (None, 3, 3, 512)    1049088     conv5_block1_out[0][0]           
__________________________________________________________________________________________________
conv5_block2_1_bn (BatchNormali (None, 3, 3, 512)    2048        conv5_block2_1_conv[0][0]        
__________________________________________________________________________________________________
conv5_block2_1_relu (Activation (None, 3, 3, 512)    0           conv5_block2_1_bn[0][0]          
__________________________________________________________________________________________________
conv5_block2_2_conv (Conv2D)    (None, 3, 3, 512)    2359808     conv5_block2_1_relu[0][0]        
__________________________________________________________________________________________________
conv5_block2_2_bn (BatchNormali (None, 3, 3, 512)    2048        conv5_block2_2_conv[0][0]        
__________________________________________________________________________________________________
conv5_block2_2_relu (Activation (None, 3, 3, 512)    0           conv5_block2_2_bn[0][0]          
__________________________________________________________________________________________________
conv5_block2_3_conv (Conv2D)    (None, 3, 3, 2048)   1050624     conv5_block2_2_relu[0][0]        
__________________________________________________________________________________________________
conv5_block2_3_bn (BatchNormali (None, 3, 3, 2048)   8192        conv5_block2_3_conv[0][0]        
__________________________________________________________________________________________________
conv5_block2_add (Add)          (None, 3, 3, 2048)   0           conv5_block1_out[0][0]           
                                                                 conv5_block2_3_bn[0][0]          
__________________________________________________________________________________________________
conv5_block2_out (Activation)   (None, 3, 3, 2048)   0           conv5_block2_add[0][0]           
__________________________________________________________________________________________________
conv5_block3_1_conv (Conv2D)    (None, 3, 3, 512)    1049088     conv5_block2_out[0][0]           
__________________________________________________________________________________________________
conv5_block3_1_bn (BatchNormali (None, 3, 3, 512)    2048        conv5_block3_1_conv[0][0]        
__________________________________________________________________________________________________
conv5_block3_1_relu (Activation (None, 3, 3, 512)    0           conv5_block3_1_bn[0][0]          
__________________________________________________________________________________________________
conv5_block3_2_conv (Conv2D)    (None, 3, 3, 512)    2359808     conv5_block3_1_relu[0][0]        
__________________________________________________________________________________________________
conv5_block3_2_bn (BatchNormali (None, 3, 3, 512)    2048        conv5_block3_2_conv[0][0]        
__________________________________________________________________________________________________
conv5_block3_2_relu (Activation (None, 3, 3, 512)    0           conv5_block3_2_bn[0][0]          
__________________________________________________________________________________________________
conv5_block3_3_conv (Conv2D)    (None, 3, 3, 2048)   1050624     conv5_block3_2_relu[0][0]        
__________________________________________________________________________________________________
conv5_block3_3_bn (BatchNormali (None, 3, 3, 2048)   8192        conv5_block3_3_conv[0][0]        
__________________________________________________________________________________________________
conv5_block3_add (Add)          (None, 3, 3, 2048)   0           conv5_block2_out[0][0]           
                                                                 conv5_block3_3_bn[0][0]          
__________________________________________________________________________________________________
conv5_block3_out (Activation)   (None, 3, 3, 2048)   0           conv5_block3_add[0][0]           
__________________________________________________________________________________________________
flatten (Flatten)               (None, 18432)        0           conv5_block3_out[0][0]           
__________________________________________________________________________________________________
fc1 (Dense)                     (None, 4096)         75501568    flatten[0][0]                    
__________________________________________________________________________________________________
fc2 (Dense)                     (None, 4096)         16781312    fc1[0][0]                        
__________________________________________________________________________________________________
predictions (Dense)             (None, 10)           40970       fc2[0][0]                        
==================================================================================================
Total params: 115,911,562
Trainable params: 115,858,442
Non-trainable params: 53,120
__________________________________________________________________________________________________
Start fitting ensemble models
Length split part:  16667
Labels in this part of split:  [1667, 1656, 1712, 1682, 1675, 1579, 1703, 1687, 1681, 1625]
…
2020-05-25 20:17:52.868740: I tensorflow/core/profiler/internal/gpu/device_tracer.cc:88]  GpuTracer has collected 0 callback api events and 0 activity events.
Epoch 00024: early stopping
ResNet101
Model: "model"
__________________________________________________________________________________________________
Layer (type)                    Output Shape         Param #     Connected to                     
==================================================================================================
input_1 (InputLayer)            [(None, 75, 75, 3)]  0                                            
__________________________________________________________________________________________________
conv1_pad (ZeroPadding2D)       (None, 81, 81, 3)    0           input_1[0][0]                    
__________________________________________________________________________________________________
conv1_conv (Conv2D)             (None, 38, 38, 64)   9472        conv1_pad[0][0]                  
__________________________________________________________________________________________________
conv1_bn (BatchNormalization)   (None, 38, 38, 64)   256         conv1_conv[0][0]                 
__________________________________________________________________________________________________
conv1_relu (Activation)         (None, 38, 38, 64)   0           conv1_bn[0][0]                   
__________________________________________________________________________________________________
pool1_pad (ZeroPadding2D)       (None, 40, 40, 64)   0           conv1_relu[0][0]                 
__________________________________________________________________________________________________
pool1_pool (MaxPooling2D)       (None, 19, 19, 64)   0           pool1_pad[0][0]                  
__________________________________________________________________________________________________
conv2_block1_1_conv (Conv2D)    (None, 19, 19, 64)   4160        pool1_pool[0][0]                 
__________________________________________________________________________________________________
conv2_block1_1_bn (BatchNormali (None, 19, 19, 64)   256         conv2_block1_1_conv[0][0]        
__________________________________________________________________________________________________
conv2_block1_1_relu (Activation (None, 19, 19, 64)   0           conv2_block1_1_bn[0][0]          
__________________________________________________________________________________________________
conv2_block1_2_conv (Conv2D)    (None, 19, 19, 64)   36928       conv2_block1_1_relu[0][0]        
__________________________________________________________________________________________________
conv2_block1_2_bn (BatchNormali (None, 19, 19, 64)   256         conv2_block1_2_conv[0][0]        
__________________________________________________________________________________________________
conv2_block1_2_relu (Activation (None, 19, 19, 64)   0           conv2_block1_2_bn[0][0]          
__________________________________________________________________________________________________
conv2_block1_0_conv (Conv2D)    (None, 19, 19, 256)  16640       pool1_pool[0][0]                 
__________________________________________________________________________________________________
conv2_block1_3_conv (Conv2D)    (None, 19, 19, 256)  16640       conv2_block1_2_relu[0][0]        
__________________________________________________________________________________________________
conv2_block1_0_bn (BatchNormali (None, 19, 19, 256)  1024        conv2_block1_0_conv[0][0]        
__________________________________________________________________________________________________
conv2_block1_3_bn (BatchNormali (None, 19, 19, 256)  1024        conv2_block1_3_conv[0][0]        
__________________________________________________________________________________________________
conv2_block1_add (Add)          (None, 19, 19, 256)  0           conv2_block1_0_bn[0][0]          
                                                                 conv2_block1_3_bn[0][0]          
__________________________________________________________________________________________________
conv2_block1_out (Activation)   (None, 19, 19, 256)  0           conv2_block1_add[0][0]           
__________________________________________________________________________________________________
conv2_block2_1_conv (Conv2D)    (None, 19, 19, 64)   16448       conv2_block1_out[0][0]           
__________________________________________________________________________________________________
conv2_block2_1_bn (BatchNormali (None, 19, 19, 64)   256         conv2_block2_1_conv[0][0]        
__________________________________________________________________________________________________
conv2_block2_1_relu (Activation (None, 19, 19, 64)   0           conv2_block2_1_bn[0][0]          
__________________________________________________________________________________________________
conv2_block2_2_conv (Conv2D)    (None, 19, 19, 64)   36928       conv2_block2_1_relu[0][0]        
__________________________________________________________________________________________________
conv2_block2_2_bn (BatchNormali (None, 19, 19, 64)   256         conv2_block2_2_conv[0][0]        
__________________________________________________________________________________________________
conv2_block2_2_relu (Activation (None, 19, 19, 64)   0           conv2_block2_2_bn[0][0]          
__________________________________________________________________________________________________
conv2_block2_3_conv (Conv2D)    (None, 19, 19, 256)  16640       conv2_block2_2_relu[0][0]        
__________________________________________________________________________________________________
conv2_block2_3_bn (BatchNormali (None, 19, 19, 256)  1024        conv2_block2_3_conv[0][0]        
__________________________________________________________________________________________________
conv2_block2_add (Add)          (None, 19, 19, 256)  0           conv2_block1_out[0][0]           
                                                                 conv2_block2_3_bn[0][0]          
__________________________________________________________________________________________________
conv2_block2_out (Activation)   (None, 19, 19, 256)  0           conv2_block2_add[0][0]           
__________________________________________________________________________________________________
conv2_block3_1_conv (Conv2D)    (None, 19, 19, 64)   16448       conv2_block2_out[0][0]           
__________________________________________________________________________________________________
conv2_block3_1_bn (BatchNormali (None, 19, 19, 64)   256         conv2_block3_1_conv[0][0]        
__________________________________________________________________________________________________
conv2_block3_1_relu (Activation (None, 19, 19, 64)   0           conv2_block3_1_bn[0][0]          
__________________________________________________________________________________________________
conv2_block3_2_conv (Conv2D)    (None, 19, 19, 64)   36928       conv2_block3_1_relu[0][0]        
__________________________________________________________________________________________________
conv2_block3_2_bn (BatchNormali (None, 19, 19, 64)   256         conv2_block3_2_conv[0][0]        
__________________________________________________________________________________________________
conv2_block3_2_relu (Activation (None, 19, 19, 64)   0           conv2_block3_2_bn[0][0]          
__________________________________________________________________________________________________
conv2_block3_3_conv (Conv2D)    (None, 19, 19, 256)  16640       conv2_block3_2_relu[0][0]        
__________________________________________________________________________________________________
conv2_block3_3_bn (BatchNormali (None, 19, 19, 256)  1024        conv2_block3_3_conv[0][0]        
__________________________________________________________________________________________________
conv2_block3_add (Add)          (None, 19, 19, 256)  0           conv2_block2_out[0][0]           
                                                                 conv2_block3_3_bn[0][0]          
__________________________________________________________________________________________________
conv2_block3_out (Activation)   (None, 19, 19, 256)  0           conv2_block3_add[0][0]           
__________________________________________________________________________________________________
conv3_block1_1_conv (Conv2D)    (None, 10, 10, 128)  32896       conv2_block3_out[0][0]           
__________________________________________________________________________________________________
conv3_block1_1_bn (BatchNormali (None, 10, 10, 128)  512         conv3_block1_1_conv[0][0]        
__________________________________________________________________________________________________
conv3_block1_1_relu (Activation (None, 10, 10, 128)  0           conv3_block1_1_bn[0][0]          
__________________________________________________________________________________________________
conv3_block1_2_conv (Conv2D)    (None, 10, 10, 128)  147584      conv3_block1_1_relu[0][0]        
__________________________________________________________________________________________________
conv3_block1_2_bn (BatchNormali (None, 10, 10, 128)  512         conv3_block1_2_conv[0][0]        
__________________________________________________________________________________________________
conv3_block1_2_relu (Activation (None, 10, 10, 128)  0           conv3_block1_2_bn[0][0]          
__________________________________________________________________________________________________
conv3_block1_0_conv (Conv2D)    (None, 10, 10, 512)  131584      conv2_block3_out[0][0]           
__________________________________________________________________________________________________
conv3_block1_3_conv (Conv2D)    (None, 10, 10, 512)  66048       conv3_block1_2_relu[0][0]        
__________________________________________________________________________________________________
conv3_block1_0_bn (BatchNormali (None, 10, 10, 512)  2048        conv3_block1_0_conv[0][0]        
__________________________________________________________________________________________________
conv3_block1_3_bn (BatchNormali (None, 10, 10, 512)  2048        conv3_block1_3_conv[0][0]        
__________________________________________________________________________________________________
conv3_block1_add (Add)          (None, 10, 10, 512)  0           conv3_block1_0_bn[0][0]          
                                                                 conv3_block1_3_bn[0][0]          
__________________________________________________________________________________________________
conv3_block1_out (Activation)   (None, 10, 10, 512)  0           conv3_block1_add[0][0]           
__________________________________________________________________________________________________
conv3_block2_1_conv (Conv2D)    (None, 10, 10, 128)  65664       conv3_block1_out[0][0]           
__________________________________________________________________________________________________
conv3_block2_1_bn (BatchNormali (None, 10, 10, 128)  512         conv3_block2_1_conv[0][0]        
__________________________________________________________________________________________________
conv3_block2_1_relu (Activation (None, 10, 10, 128)  0           conv3_block2_1_bn[0][0]          
__________________________________________________________________________________________________
conv3_block2_2_conv (Conv2D)    (None, 10, 10, 128)  147584      conv3_block2_1_relu[0][0]        
__________________________________________________________________________________________________
conv3_block2_2_bn (BatchNormali (None, 10, 10, 128)  512         conv3_block2_2_conv[0][0]        
__________________________________________________________________________________________________
conv3_block2_2_relu (Activation (None, 10, 10, 128)  0           conv3_block2_2_bn[0][0]          
__________________________________________________________________________________________________
conv3_block2_3_conv (Conv2D)    (None, 10, 10, 512)  66048       conv3_block2_2_relu[0][0]        
__________________________________________________________________________________________________
conv3_block2_3_bn (BatchNormali (None, 10, 10, 512)  2048        conv3_block2_3_conv[0][0]        
__________________________________________________________________________________________________
conv3_block2_add (Add)          (None, 10, 10, 512)  0           conv3_block1_out[0][0]           
                                                                 conv3_block2_3_bn[0][0]          
__________________________________________________________________________________________________
conv3_block2_out (Activation)   (None, 10, 10, 512)  0           conv3_block2_add[0][0]           
__________________________________________________________________________________________________
conv3_block3_1_conv (Conv2D)    (None, 10, 10, 128)  65664       conv3_block2_out[0][0]           
__________________________________________________________________________________________________
conv3_block3_1_bn (BatchNormali (None, 10, 10, 128)  512         conv3_block3_1_conv[0][0]        
__________________________________________________________________________________________________
conv3_block3_1_relu (Activation (None, 10, 10, 128)  0           conv3_block3_1_bn[0][0]          
__________________________________________________________________________________________________
conv3_block3_2_conv (Conv2D)    (None, 10, 10, 128)  147584      conv3_block3_1_relu[0][0]        
__________________________________________________________________________________________________
conv3_block3_2_bn (BatchNormali (None, 10, 10, 128)  512         conv3_block3_2_conv[0][0]        
__________________________________________________________________________________________________
conv3_block3_2_relu (Activation (None, 10, 10, 128)  0           conv3_block3_2_bn[0][0]          
__________________________________________________________________________________________________
conv3_block3_3_conv (Conv2D)    (None, 10, 10, 512)  66048       conv3_block3_2_relu[0][0]        
__________________________________________________________________________________________________
conv3_block3_3_bn (BatchNormali (None, 10, 10, 512)  2048        conv3_block3_3_conv[0][0]        
__________________________________________________________________________________________________
conv3_block3_add (Add)          (None, 10, 10, 512)  0           conv3_block2_out[0][0]           
                                                                 conv3_block3_3_bn[0][0]          
__________________________________________________________________________________________________
conv3_block3_out (Activation)   (None, 10, 10, 512)  0           conv3_block3_add[0][0]           
__________________________________________________________________________________________________
conv3_block4_1_conv (Conv2D)    (None, 10, 10, 128)  65664       conv3_block3_out[0][0]           
__________________________________________________________________________________________________
conv3_block4_1_bn (BatchNormali (None, 10, 10, 128)  512         conv3_block4_1_conv[0][0]        
__________________________________________________________________________________________________
conv3_block4_1_relu (Activation (None, 10, 10, 128)  0           conv3_block4_1_bn[0][0]          
__________________________________________________________________________________________________
conv3_block4_2_conv (Conv2D)    (None, 10, 10, 128)  147584      conv3_block4_1_relu[0][0]        
__________________________________________________________________________________________________
conv3_block4_2_bn (BatchNormali (None, 10, 10, 128)  512         conv3_block4_2_conv[0][0]        
__________________________________________________________________________________________________
conv3_block4_2_relu (Activation (None, 10, 10, 128)  0           conv3_block4_2_bn[0][0]          
__________________________________________________________________________________________________
conv3_block4_3_conv (Conv2D)    (None, 10, 10, 512)  66048       conv3_block4_2_relu[0][0]        
__________________________________________________________________________________________________
conv3_block4_3_bn (BatchNormali (None, 10, 10, 512)  2048        conv3_block4_3_conv[0][0]        
__________________________________________________________________________________________________
conv3_block4_add (Add)          (None, 10, 10, 512)  0           conv3_block3_out[0][0]           
                                                                 conv3_block4_3_bn[0][0]          
__________________________________________________________________________________________________
conv3_block4_out (Activation)   (None, 10, 10, 512)  0           conv3_block4_add[0][0]           
__________________________________________________________________________________________________
conv4_block1_1_conv (Conv2D)    (None, 5, 5, 256)    131328      conv3_block4_out[0][0]           
__________________________________________________________________________________________________
conv4_block1_1_bn (BatchNormali (None, 5, 5, 256)    1024        conv4_block1_1_conv[0][0]        
__________________________________________________________________________________________________
conv4_block1_1_relu (Activation (None, 5, 5, 256)    0           conv4_block1_1_bn[0][0]          
__________________________________________________________________________________________________
conv4_block1_2_conv (Conv2D)    (None, 5, 5, 256)    590080      conv4_block1_1_relu[0][0]        
__________________________________________________________________________________________________
conv4_block1_2_bn (BatchNormali (None, 5, 5, 256)    1024        conv4_block1_2_conv[0][0]        
__________________________________________________________________________________________________
conv4_block1_2_relu (Activation (None, 5, 5, 256)    0           conv4_block1_2_bn[0][0]          
__________________________________________________________________________________________________
conv4_block1_0_conv (Conv2D)    (None, 5, 5, 1024)   525312      conv3_block4_out[0][0]           
__________________________________________________________________________________________________
conv4_block1_3_conv (Conv2D)    (None, 5, 5, 1024)   263168      conv4_block1_2_relu[0][0]        
__________________________________________________________________________________________________
conv4_block1_0_bn (BatchNormali (None, 5, 5, 1024)   4096        conv4_block1_0_conv[0][0]        
__________________________________________________________________________________________________
conv4_block1_3_bn (BatchNormali (None, 5, 5, 1024)   4096        conv4_block1_3_conv[0][0]        
__________________________________________________________________________________________________
conv4_block1_add (Add)          (None, 5, 5, 1024)   0           conv4_block1_0_bn[0][0]          
                                                                 conv4_block1_3_bn[0][0]          
__________________________________________________________________________________________________
conv4_block1_out (Activation)   (None, 5, 5, 1024)   0           conv4_block1_add[0][0]           
__________________________________________________________________________________________________
conv4_block2_1_conv (Conv2D)    (None, 5, 5, 256)    262400      conv4_block1_out[0][0]           
__________________________________________________________________________________________________
conv4_block2_1_bn (BatchNormali (None, 5, 5, 256)    1024        conv4_block2_1_conv[0][0]        
__________________________________________________________________________________________________
conv4_block2_1_relu (Activation (None, 5, 5, 256)    0           conv4_block2_1_bn[0][0]          
__________________________________________________________________________________________________
conv4_block2_2_conv (Conv2D)    (None, 5, 5, 256)    590080      conv4_block2_1_relu[0][0]        
__________________________________________________________________________________________________
conv4_block2_2_bn (BatchNormali (None, 5, 5, 256)    1024        conv4_block2_2_conv[0][0]        
__________________________________________________________________________________________________
conv4_block2_2_relu (Activation (None, 5, 5, 256)    0           conv4_block2_2_bn[0][0]          
__________________________________________________________________________________________________
conv4_block2_3_conv (Conv2D)    (None, 5, 5, 1024)   263168      conv4_block2_2_relu[0][0]        
__________________________________________________________________________________________________
conv4_block2_3_bn (BatchNormali (None, 5, 5, 1024)   4096        conv4_block2_3_conv[0][0]        
__________________________________________________________________________________________________
conv4_block2_add (Add)          (None, 5, 5, 1024)   0           conv4_block1_out[0][0]           
                                                                 conv4_block2_3_bn[0][0]          
__________________________________________________________________________________________________
conv4_block2_out (Activation)   (None, 5, 5, 1024)   0           conv4_block2_add[0][0]           
__________________________________________________________________________________________________
conv4_block3_1_conv (Conv2D)    (None, 5, 5, 256)    262400      conv4_block2_out[0][0]           
__________________________________________________________________________________________________
conv4_block3_1_bn (BatchNormali (None, 5, 5, 256)    1024        conv4_block3_1_conv[0][0]        
__________________________________________________________________________________________________
conv4_block3_1_relu (Activation (None, 5, 5, 256)    0           conv4_block3_1_bn[0][0]          
__________________________________________________________________________________________________
conv4_block3_2_conv (Conv2D)    (None, 5, 5, 256)    590080      conv4_block3_1_relu[0][0]        
__________________________________________________________________________________________________
conv4_block3_2_bn (BatchNormali (None, 5, 5, 256)    1024        conv4_block3_2_conv[0][0]        
__________________________________________________________________________________________________
conv4_block3_2_relu (Activation (None, 5, 5, 256)    0           conv4_block3_2_bn[0][0]          
__________________________________________________________________________________________________
conv4_block3_3_conv (Conv2D)    (None, 5, 5, 1024)   263168      conv4_block3_2_relu[0][0]        
__________________________________________________________________________________________________
conv4_block3_3_bn (BatchNormali (None, 5, 5, 1024)   4096        conv4_block3_3_conv[0][0]        
__________________________________________________________________________________________________
conv4_block3_add (Add)          (None, 5, 5, 1024)   0           conv4_block2_out[0][0]           
                                                                 conv4_block3_3_bn[0][0]          
__________________________________________________________________________________________________
conv4_block3_out (Activation)   (None, 5, 5, 1024)   0           conv4_block3_add[0][0]           
__________________________________________________________________________________________________
conv4_block4_1_conv (Conv2D)    (None, 5, 5, 256)    262400      conv4_block3_out[0][0]           
__________________________________________________________________________________________________
conv4_block4_1_bn (BatchNormali (None, 5, 5, 256)    1024        conv4_block4_1_conv[0][0]        
__________________________________________________________________________________________________
conv4_block4_1_relu (Activation (None, 5, 5, 256)    0           conv4_block4_1_bn[0][0]          
__________________________________________________________________________________________________
conv4_block4_2_conv (Conv2D)    (None, 5, 5, 256)    590080      conv4_block4_1_relu[0][0]        
__________________________________________________________________________________________________
conv4_block4_2_bn (BatchNormali (None, 5, 5, 256)    1024        conv4_block4_2_conv[0][0]        
__________________________________________________________________________________________________
conv4_block4_2_relu (Activation (None, 5, 5, 256)    0           conv4_block4_2_bn[0][0]          
__________________________________________________________________________________________________
conv4_block4_3_conv (Conv2D)    (None, 5, 5, 1024)   263168      conv4_block4_2_relu[0][0]        
__________________________________________________________________________________________________
conv4_block4_3_bn (BatchNormali (None, 5, 5, 1024)   4096        conv4_block4_3_conv[0][0]        
__________________________________________________________________________________________________
conv4_block4_add (Add)          (None, 5, 5, 1024)   0           conv4_block3_out[0][0]           
                                                                 conv4_block4_3_bn[0][0]          
__________________________________________________________________________________________________
conv4_block4_out (Activation)   (None, 5, 5, 1024)   0           conv4_block4_add[0][0]           
__________________________________________________________________________________________________
conv4_block5_1_conv (Conv2D)    (None, 5, 5, 256)    262400      conv4_block4_out[0][0]           
__________________________________________________________________________________________________
conv4_block5_1_bn (BatchNormali (None, 5, 5, 256)    1024        conv4_block5_1_conv[0][0]        
__________________________________________________________________________________________________
conv4_block5_1_relu (Activation (None, 5, 5, 256)    0           conv4_block5_1_bn[0][0]          
__________________________________________________________________________________________________
conv4_block5_2_conv (Conv2D)    (None, 5, 5, 256)    590080      conv4_block5_1_relu[0][0]        
__________________________________________________________________________________________________
conv4_block5_2_bn (BatchNormali (None, 5, 5, 256)    1024        conv4_block5_2_conv[0][0]        
__________________________________________________________________________________________________
conv4_block5_2_relu (Activation (None, 5, 5, 256)    0           conv4_block5_2_bn[0][0]          
__________________________________________________________________________________________________
conv4_block5_3_conv (Conv2D)    (None, 5, 5, 1024)   263168      conv4_block5_2_relu[0][0]        
__________________________________________________________________________________________________
conv4_block5_3_bn (BatchNormali (None, 5, 5, 1024)   4096        conv4_block5_3_conv[0][0]        
__________________________________________________________________________________________________
conv4_block5_add (Add)          (None, 5, 5, 1024)   0           conv4_block4_out[0][0]           
                                                                 conv4_block5_3_bn[0][0]          
__________________________________________________________________________________________________
conv4_block5_out (Activation)   (None, 5, 5, 1024)   0           conv4_block5_add[0][0]           
__________________________________________________________________________________________________
conv4_block6_1_conv (Conv2D)    (None, 5, 5, 256)    262400      conv4_block5_out[0][0]           
__________________________________________________________________________________________________
conv4_block6_1_bn (BatchNormali (None, 5, 5, 256)    1024        conv4_block6_1_conv[0][0]        
__________________________________________________________________________________________________
conv4_block6_1_relu (Activation (None, 5, 5, 256)    0           conv4_block6_1_bn[0][0]          
__________________________________________________________________________________________________
conv4_block6_2_conv (Conv2D)    (None, 5, 5, 256)    590080      conv4_block6_1_relu[0][0]        
__________________________________________________________________________________________________
conv4_block6_2_bn (BatchNormali (None, 5, 5, 256)    1024        conv4_block6_2_conv[0][0]        
__________________________________________________________________________________________________
conv4_block6_2_relu (Activation (None, 5, 5, 256)    0           conv4_block6_2_bn[0][0]          
__________________________________________________________________________________________________
conv4_block6_3_conv (Conv2D)    (None, 5, 5, 1024)   263168      conv4_block6_2_relu[0][0]        
__________________________________________________________________________________________________
conv4_block6_3_bn (BatchNormali (None, 5, 5, 1024)   4096        conv4_block6_3_conv[0][0]        
__________________________________________________________________________________________________
conv4_block6_add (Add)          (None, 5, 5, 1024)   0           conv4_block5_out[0][0]           
                                                                 conv4_block6_3_bn[0][0]          
__________________________________________________________________________________________________
conv4_block6_out (Activation)   (None, 5, 5, 1024)   0           conv4_block6_add[0][0]           
__________________________________________________________________________________________________
conv4_block7_1_conv (Conv2D)    (None, 5, 5, 256)    262400      conv4_block6_out[0][0]           
__________________________________________________________________________________________________
conv4_block7_1_bn (BatchNormali (None, 5, 5, 256)    1024        conv4_block7_1_conv[0][0]        
__________________________________________________________________________________________________
conv4_block7_1_relu (Activation (None, 5, 5, 256)    0           conv4_block7_1_bn[0][0]          
__________________________________________________________________________________________________
conv4_block7_2_conv (Conv2D)    (None, 5, 5, 256)    590080      conv4_block7_1_relu[0][0]        
__________________________________________________________________________________________________
conv4_block7_2_bn (BatchNormali (None, 5, 5, 256)    1024        conv4_block7_2_conv[0][0]        
__________________________________________________________________________________________________
conv4_block7_2_relu (Activation (None, 5, 5, 256)    0           conv4_block7_2_bn[0][0]          
__________________________________________________________________________________________________
conv4_block7_3_conv (Conv2D)    (None, 5, 5, 1024)   263168      conv4_block7_2_relu[0][0]        
__________________________________________________________________________________________________
conv4_block7_3_bn (BatchNormali (None, 5, 5, 1024)   4096        conv4_block7_3_conv[0][0]        
__________________________________________________________________________________________________
conv4_block7_add (Add)          (None, 5, 5, 1024)   0           conv4_block6_out[0][0]           
                                                                 conv4_block7_3_bn[0][0]          
__________________________________________________________________________________________________
conv4_block7_out (Activation)   (None, 5, 5, 1024)   0           conv4_block7_add[0][0]           
__________________________________________________________________________________________________
conv4_block8_1_conv (Conv2D)    (None, 5, 5, 256)    262400      conv4_block7_out[0][0]           
__________________________________________________________________________________________________
conv4_block8_1_bn (BatchNormali (None, 5, 5, 256)    1024        conv4_block8_1_conv[0][0]        
__________________________________________________________________________________________________
conv4_block8_1_relu (Activation (None, 5, 5, 256)    0           conv4_block8_1_bn[0][0]          
__________________________________________________________________________________________________
conv4_block8_2_conv (Conv2D)    (None, 5, 5, 256)    590080      conv4_block8_1_relu[0][0]        
__________________________________________________________________________________________________
conv4_block8_2_bn (BatchNormali (None, 5, 5, 256)    1024        conv4_block8_2_conv[0][0]        
__________________________________________________________________________________________________
conv4_block8_2_relu (Activation (None, 5, 5, 256)    0           conv4_block8_2_bn[0][0]          
__________________________________________________________________________________________________
conv4_block8_3_conv (Conv2D)    (None, 5, 5, 1024)   263168      conv4_block8_2_relu[0][0]        
__________________________________________________________________________________________________
conv4_block8_3_bn (BatchNormali (None, 5, 5, 1024)   4096        conv4_block8_3_conv[0][0]        
__________________________________________________________________________________________________
conv4_block8_add (Add)          (None, 5, 5, 1024)   0           conv4_block7_out[0][0]           
                                                                 conv4_block8_3_bn[0][0]          
__________________________________________________________________________________________________
conv4_block8_out (Activation)   (None, 5, 5, 1024)   0           conv4_block8_add[0][0]           
__________________________________________________________________________________________________
conv4_block9_1_conv (Conv2D)    (None, 5, 5, 256)    262400      conv4_block8_out[0][0]           
__________________________________________________________________________________________________
conv4_block9_1_bn (BatchNormali (None, 5, 5, 256)    1024        conv4_block9_1_conv[0][0]        
__________________________________________________________________________________________________
conv4_block9_1_relu (Activation (None, 5, 5, 256)    0           conv4_block9_1_bn[0][0]          
__________________________________________________________________________________________________
conv4_block9_2_conv (Conv2D)    (None, 5, 5, 256)    590080      conv4_block9_1_relu[0][0]        
__________________________________________________________________________________________________
conv4_block9_2_bn (BatchNormali (None, 5, 5, 256)    1024        conv4_block9_2_conv[0][0]        
__________________________________________________________________________________________________
conv4_block9_2_relu (Activation (None, 5, 5, 256)    0           conv4_block9_2_bn[0][0]          
__________________________________________________________________________________________________
conv4_block9_3_conv (Conv2D)    (None, 5, 5, 1024)   263168      conv4_block9_2_relu[0][0]        
__________________________________________________________________________________________________
conv4_block9_3_bn (BatchNormali (None, 5, 5, 1024)   4096        conv4_block9_3_conv[0][0]        
__________________________________________________________________________________________________
conv4_block9_add (Add)          (None, 5, 5, 1024)   0           conv4_block8_out[0][0]           
                                                                 conv4_block9_3_bn[0][0]          
__________________________________________________________________________________________________
conv4_block9_out (Activation)   (None, 5, 5, 1024)   0           conv4_block9_add[0][0]           
__________________________________________________________________________________________________
conv4_block10_1_conv (Conv2D)   (None, 5, 5, 256)    262400      conv4_block9_out[0][0]           
__________________________________________________________________________________________________
conv4_block10_1_bn (BatchNormal (None, 5, 5, 256)    1024        conv4_block10_1_conv[0][0]       
__________________________________________________________________________________________________
conv4_block10_1_relu (Activatio (None, 5, 5, 256)    0           conv4_block10_1_bn[0][0]         
__________________________________________________________________________________________________
conv4_block10_2_conv (Conv2D)   (None, 5, 5, 256)    590080      conv4_block10_1_relu[0][0]       
__________________________________________________________________________________________________
conv4_block10_2_bn (BatchNormal (None, 5, 5, 256)    1024        conv4_block10_2_conv[0][0]       
__________________________________________________________________________________________________
conv4_block10_2_relu (Activatio (None, 5, 5, 256)    0           conv4_block10_2_bn[0][0]         
__________________________________________________________________________________________________
conv4_block10_3_conv (Conv2D)   (None, 5, 5, 1024)   263168      conv4_block10_2_relu[0][0]       
__________________________________________________________________________________________________
conv4_block10_3_bn (BatchNormal (None, 5, 5, 1024)   4096        conv4_block10_3_conv[0][0]       
__________________________________________________________________________________________________
conv4_block10_add (Add)         (None, 5, 5, 1024)   0           conv4_block9_out[0][0]           
                                                                 conv4_block10_3_bn[0][0]         
__________________________________________________________________________________________________
conv4_block10_out (Activation)  (None, 5, 5, 1024)   0           conv4_block10_add[0][0]          
__________________________________________________________________________________________________
conv4_block11_1_conv (Conv2D)   (None, 5, 5, 256)    262400      conv4_block10_out[0][0]          
__________________________________________________________________________________________________
conv4_block11_1_bn (BatchNormal (None, 5, 5, 256)    1024        conv4_block11_1_conv[0][0]       
__________________________________________________________________________________________________
conv4_block11_1_relu (Activatio (None, 5, 5, 256)    0           conv4_block11_1_bn[0][0]         
__________________________________________________________________________________________________
conv4_block11_2_conv (Conv2D)   (None, 5, 5, 256)    590080      conv4_block11_1_relu[0][0]       
__________________________________________________________________________________________________
conv4_block11_2_bn (BatchNormal (None, 5, 5, 256)    1024        conv4_block11_2_conv[0][0]       
__________________________________________________________________________________________________
conv4_block11_2_relu (Activatio (None, 5, 5, 256)    0           conv4_block11_2_bn[0][0]         
__________________________________________________________________________________________________
conv4_block11_3_conv (Conv2D)   (None, 5, 5, 1024)   263168      conv4_block11_2_relu[0][0]       
__________________________________________________________________________________________________
conv4_block11_3_bn (BatchNormal (None, 5, 5, 1024)   4096        conv4_block11_3_conv[0][0]       
__________________________________________________________________________________________________
conv4_block11_add (Add)         (None, 5, 5, 1024)   0           conv4_block10_out[0][0]          
                                                                 conv4_block11_3_bn[0][0]         
__________________________________________________________________________________________________
conv4_block11_out (Activation)  (None, 5, 5, 1024)   0           conv4_block11_add[0][0]          
__________________________________________________________________________________________________
conv4_block12_1_conv (Conv2D)   (None, 5, 5, 256)    262400      conv4_block11_out[0][0]          
__________________________________________________________________________________________________
conv4_block12_1_bn (BatchNormal (None, 5, 5, 256)    1024        conv4_block12_1_conv[0][0]       
__________________________________________________________________________________________________
conv4_block12_1_relu (Activatio (None, 5, 5, 256)    0           conv4_block12_1_bn[0][0]         
__________________________________________________________________________________________________
conv4_block12_2_conv (Conv2D)   (None, 5, 5, 256)    590080      conv4_block12_1_relu[0][0]       
__________________________________________________________________________________________________
conv4_block12_2_bn (BatchNormal (None, 5, 5, 256)    1024        conv4_block12_2_conv[0][0]       
__________________________________________________________________________________________________
conv4_block12_2_relu (Activatio (None, 5, 5, 256)    0           conv4_block12_2_bn[0][0]         
__________________________________________________________________________________________________
conv4_block12_3_conv (Conv2D)   (None, 5, 5, 1024)   263168      conv4_block12_2_relu[0][0]       
__________________________________________________________________________________________________
conv4_block12_3_bn (BatchNormal (None, 5, 5, 1024)   4096        conv4_block12_3_conv[0][0]       
__________________________________________________________________________________________________
conv4_block12_add (Add)         (None, 5, 5, 1024)   0           conv4_block11_out[0][0]          
                                                                 conv4_block12_3_bn[0][0]         
__________________________________________________________________________________________________
conv4_block12_out (Activation)  (None, 5, 5, 1024)   0           conv4_block12_add[0][0]          
__________________________________________________________________________________________________
conv4_block13_1_conv (Conv2D)   (None, 5, 5, 256)    262400      conv4_block12_out[0][0]          
__________________________________________________________________________________________________
conv4_block13_1_bn (BatchNormal (None, 5, 5, 256)    1024        conv4_block13_1_conv[0][0]       
__________________________________________________________________________________________________
conv4_block13_1_relu (Activatio (None, 5, 5, 256)    0           conv4_block13_1_bn[0][0]         
__________________________________________________________________________________________________
conv4_block13_2_conv (Conv2D)   (None, 5, 5, 256)    590080      conv4_block13_1_relu[0][0]       
__________________________________________________________________________________________________
conv4_block13_2_bn (BatchNormal (None, 5, 5, 256)    1024        conv4_block13_2_conv[0][0]       
__________________________________________________________________________________________________
conv4_block13_2_relu (Activatio (None, 5, 5, 256)    0           conv4_block13_2_bn[0][0]         
__________________________________________________________________________________________________
conv4_block13_3_conv (Conv2D)   (None, 5, 5, 1024)   263168      conv4_block13_2_relu[0][0]       
__________________________________________________________________________________________________
conv4_block13_3_bn (BatchNormal (None, 5, 5, 1024)   4096        conv4_block13_3_conv[0][0]       
__________________________________________________________________________________________________
conv4_block13_add (Add)         (None, 5, 5, 1024)   0           conv4_block12_out[0][0]          
                                                                 conv4_block13_3_bn[0][0]         
__________________________________________________________________________________________________
conv4_block13_out (Activation)  (None, 5, 5, 1024)   0           conv4_block13_add[0][0]          
__________________________________________________________________________________________________
conv4_block14_1_conv (Conv2D)   (None, 5, 5, 256)    262400      conv4_block13_out[0][0]          
__________________________________________________________________________________________________
conv4_block14_1_bn (BatchNormal (None, 5, 5, 256)    1024        conv4_block14_1_conv[0][0]       
__________________________________________________________________________________________________
conv4_block14_1_relu (Activatio (None, 5, 5, 256)    0           conv4_block14_1_bn[0][0]         
__________________________________________________________________________________________________
conv4_block14_2_conv (Conv2D)   (None, 5, 5, 256)    590080      conv4_block14_1_relu[0][0]       
__________________________________________________________________________________________________
conv4_block14_2_bn (BatchNormal (None, 5, 5, 256)    1024        conv4_block14_2_conv[0][0]       
__________________________________________________________________________________________________
conv4_block14_2_relu (Activatio (None, 5, 5, 256)    0           conv4_block14_2_bn[0][0]         
__________________________________________________________________________________________________
conv4_block14_3_conv (Conv2D)   (None, 5, 5, 1024)   263168      conv4_block14_2_relu[0][0]       
__________________________________________________________________________________________________
conv4_block14_3_bn (BatchNormal (None, 5, 5, 1024)   4096        conv4_block14_3_conv[0][0]       
__________________________________________________________________________________________________
conv4_block14_add (Add)         (None, 5, 5, 1024)   0           conv4_block13_out[0][0]          
                                                                 conv4_block14_3_bn[0][0]         
__________________________________________________________________________________________________
conv4_block14_out (Activation)  (None, 5, 5, 1024)   0           conv4_block14_add[0][0]          
__________________________________________________________________________________________________
conv4_block15_1_conv (Conv2D)   (None, 5, 5, 256)    262400      conv4_block14_out[0][0]          
__________________________________________________________________________________________________
conv4_block15_1_bn (BatchNormal (None, 5, 5, 256)    1024        conv4_block15_1_conv[0][0]       
__________________________________________________________________________________________________
conv4_block15_1_relu (Activatio (None, 5, 5, 256)    0           conv4_block15_1_bn[0][0]         
__________________________________________________________________________________________________
conv4_block15_2_conv (Conv2D)   (None, 5, 5, 256)    590080      conv4_block15_1_relu[0][0]       
__________________________________________________________________________________________________
conv4_block15_2_bn (BatchNormal (None, 5, 5, 256)    1024        conv4_block15_2_conv[0][0]       
__________________________________________________________________________________________________
conv4_block15_2_relu (Activatio (None, 5, 5, 256)    0           conv4_block15_2_bn[0][0]         
__________________________________________________________________________________________________
conv4_block15_3_conv (Conv2D)   (None, 5, 5, 1024)   263168      conv4_block15_2_relu[0][0]       
__________________________________________________________________________________________________
conv4_block15_3_bn (BatchNormal (None, 5, 5, 1024)   4096        conv4_block15_3_conv[0][0]       
__________________________________________________________________________________________________
conv4_block15_add (Add)         (None, 5, 5, 1024)   0           conv4_block14_out[0][0]          
                                                                 conv4_block15_3_bn[0][0]         
__________________________________________________________________________________________________
conv4_block15_out (Activation)  (None, 5, 5, 1024)   0           conv4_block15_add[0][0]          
__________________________________________________________________________________________________
conv4_block16_1_conv (Conv2D)   (None, 5, 5, 256)    262400      conv4_block15_out[0][0]          
__________________________________________________________________________________________________
conv4_block16_1_bn (BatchNormal (None, 5, 5, 256)    1024        conv4_block16_1_conv[0][0]       
__________________________________________________________________________________________________
conv4_block16_1_relu (Activatio (None, 5, 5, 256)    0           conv4_block16_1_bn[0][0]         
__________________________________________________________________________________________________
conv4_block16_2_conv (Conv2D)   (None, 5, 5, 256)    590080      conv4_block16_1_relu[0][0]       
__________________________________________________________________________________________________
conv4_block16_2_bn (BatchNormal (None, 5, 5, 256)    1024        conv4_block16_2_conv[0][0]       
__________________________________________________________________________________________________
conv4_block16_2_relu (Activatio (None, 5, 5, 256)    0           conv4_block16_2_bn[0][0]         
__________________________________________________________________________________________________
conv4_block16_3_conv (Conv2D)   (None, 5, 5, 1024)   263168      conv4_block16_2_relu[0][0]       
__________________________________________________________________________________________________
conv4_block16_3_bn (BatchNormal (None, 5, 5, 1024)   4096        conv4_block16_3_conv[0][0]       
__________________________________________________________________________________________________
conv4_block16_add (Add)         (None, 5, 5, 1024)   0           conv4_block15_out[0][0]          
                                                                 conv4_block16_3_bn[0][0]         
__________________________________________________________________________________________________
conv4_block16_out (Activation)  (None, 5, 5, 1024)   0           conv4_block16_add[0][0]          
__________________________________________________________________________________________________
conv4_block17_1_conv (Conv2D)   (None, 5, 5, 256)    262400      conv4_block16_out[0][0]          
__________________________________________________________________________________________________
conv4_block17_1_bn (BatchNormal (None, 5, 5, 256)    1024        conv4_block17_1_conv[0][0]       
__________________________________________________________________________________________________
conv4_block17_1_relu (Activatio (None, 5, 5, 256)    0           conv4_block17_1_bn[0][0]         
__________________________________________________________________________________________________
conv4_block17_2_conv (Conv2D)   (None, 5, 5, 256)    590080      conv4_block17_1_relu[0][0]       
__________________________________________________________________________________________________
conv4_block17_2_bn (BatchNormal (None, 5, 5, 256)    1024        conv4_block17_2_conv[0][0]       
__________________________________________________________________________________________________
conv4_block17_2_relu (Activatio (None, 5, 5, 256)    0           conv4_block17_2_bn[0][0]         
__________________________________________________________________________________________________
conv4_block17_3_conv (Conv2D)   (None, 5, 5, 1024)   263168      conv4_block17_2_relu[0][0]       
__________________________________________________________________________________________________
conv4_block17_3_bn (BatchNormal (None, 5, 5, 1024)   4096        conv4_block17_3_conv[0][0]       
__________________________________________________________________________________________________
conv4_block17_add (Add)         (None, 5, 5, 1024)   0           conv4_block16_out[0][0]          
                                                                 conv4_block17_3_bn[0][0]         
__________________________________________________________________________________________________
conv4_block17_out (Activation)  (None, 5, 5, 1024)   0           conv4_block17_add[0][0]          
__________________________________________________________________________________________________
conv4_block18_1_conv (Conv2D)   (None, 5, 5, 256)    262400      conv4_block17_out[0][0]          
__________________________________________________________________________________________________
conv4_block18_1_bn (BatchNormal (None, 5, 5, 256)    1024        conv4_block18_1_conv[0][0]       
__________________________________________________________________________________________________
conv4_block18_1_relu (Activatio (None, 5, 5, 256)    0           conv4_block18_1_bn[0][0]         
__________________________________________________________________________________________________
conv4_block18_2_conv (Conv2D)   (None, 5, 5, 256)    590080      conv4_block18_1_relu[0][0]       
__________________________________________________________________________________________________
conv4_block18_2_bn (BatchNormal (None, 5, 5, 256)    1024        conv4_block18_2_conv[0][0]       
__________________________________________________________________________________________________
conv4_block18_2_relu (Activatio (None, 5, 5, 256)    0           conv4_block18_2_bn[0][0]         
__________________________________________________________________________________________________
conv4_block18_3_conv (Conv2D)   (None, 5, 5, 1024)   263168      conv4_block18_2_relu[0][0]       
__________________________________________________________________________________________________
conv4_block18_3_bn (BatchNormal (None, 5, 5, 1024)   4096        conv4_block18_3_conv[0][0]       
__________________________________________________________________________________________________
conv4_block18_add (Add)         (None, 5, 5, 1024)   0           conv4_block17_out[0][0]          
                                                                 conv4_block18_3_bn[0][0]         
__________________________________________________________________________________________________
conv4_block18_out (Activation)  (None, 5, 5, 1024)   0           conv4_block18_add[0][0]          
__________________________________________________________________________________________________
conv4_block19_1_conv (Conv2D)   (None, 5, 5, 256)    262400      conv4_block18_out[0][0]          
__________________________________________________________________________________________________
conv4_block19_1_bn (BatchNormal (None, 5, 5, 256)    1024        conv4_block19_1_conv[0][0]       
__________________________________________________________________________________________________
conv4_block19_1_relu (Activatio (None, 5, 5, 256)    0           conv4_block19_1_bn[0][0]         
__________________________________________________________________________________________________
conv4_block19_2_conv (Conv2D)   (None, 5, 5, 256)    590080      conv4_block19_1_relu[0][0]       
__________________________________________________________________________________________________
conv4_block19_2_bn (BatchNormal (None, 5, 5, 256)    1024        conv4_block19_2_conv[0][0]       
__________________________________________________________________________________________________
conv4_block19_2_relu (Activatio (None, 5, 5, 256)    0           conv4_block19_2_bn[0][0]         
__________________________________________________________________________________________________
conv4_block19_3_conv (Conv2D)   (None, 5, 5, 1024)   263168      conv4_block19_2_relu[0][0]       
__________________________________________________________________________________________________
conv4_block19_3_bn (BatchNormal (None, 5, 5, 1024)   4096        conv4_block19_3_conv[0][0]       
__________________________________________________________________________________________________
conv4_block19_add (Add)         (None, 5, 5, 1024)   0           conv4_block18_out[0][0]          
                                                                 conv4_block19_3_bn[0][0]         
__________________________________________________________________________________________________
conv4_block19_out (Activation)  (None, 5, 5, 1024)   0           conv4_block19_add[0][0]          
__________________________________________________________________________________________________
conv4_block20_1_conv (Conv2D)   (None, 5, 5, 256)    262400      conv4_block19_out[0][0]          
__________________________________________________________________________________________________
conv4_block20_1_bn (BatchNormal (None, 5, 5, 256)    1024        conv4_block20_1_conv[0][0]       
__________________________________________________________________________________________________
conv4_block20_1_relu (Activatio (None, 5, 5, 256)    0           conv4_block20_1_bn[0][0]         
__________________________________________________________________________________________________
conv4_block20_2_conv (Conv2D)   (None, 5, 5, 256)    590080      conv4_block20_1_relu[0][0]       
__________________________________________________________________________________________________
conv4_block20_2_bn (BatchNormal (None, 5, 5, 256)    1024        conv4_block20_2_conv[0][0]       
__________________________________________________________________________________________________
conv4_block20_2_relu (Activatio (None, 5, 5, 256)    0           conv4_block20_2_bn[0][0]         
__________________________________________________________________________________________________
conv4_block20_3_conv (Conv2D)   (None, 5, 5, 1024)   263168      conv4_block20_2_relu[0][0]       
__________________________________________________________________________________________________
conv4_block20_3_bn (BatchNormal (None, 5, 5, 1024)   4096        conv4_block20_3_conv[0][0]       
__________________________________________________________________________________________________
conv4_block20_add (Add)         (None, 5, 5, 1024)   0           conv4_block19_out[0][0]          
                                                                 conv4_block20_3_bn[0][0]         
__________________________________________________________________________________________________
conv4_block20_out (Activation)  (None, 5, 5, 1024)   0           conv4_block20_add[0][0]          
__________________________________________________________________________________________________
conv4_block21_1_conv (Conv2D)   (None, 5, 5, 256)    262400      conv4_block20_out[0][0]          
__________________________________________________________________________________________________
conv4_block21_1_bn (BatchNormal (None, 5, 5, 256)    1024        conv4_block21_1_conv[0][0]       
__________________________________________________________________________________________________
conv4_block21_1_relu (Activatio (None, 5, 5, 256)    0           conv4_block21_1_bn[0][0]         
__________________________________________________________________________________________________
conv4_block21_2_conv (Conv2D)   (None, 5, 5, 256)    590080      conv4_block21_1_relu[0][0]       
__________________________________________________________________________________________________
conv4_block21_2_bn (BatchNormal (None, 5, 5, 256)    1024        conv4_block21_2_conv[0][0]       
__________________________________________________________________________________________________
conv4_block21_2_relu (Activatio (None, 5, 5, 256)    0           conv4_block21_2_bn[0][0]         
__________________________________________________________________________________________________
conv4_block21_3_conv (Conv2D)   (None, 5, 5, 1024)   263168      conv4_block21_2_relu[0][0]       
__________________________________________________________________________________________________
conv4_block21_3_bn (BatchNormal (None, 5, 5, 1024)   4096        conv4_block21_3_conv[0][0]       
__________________________________________________________________________________________________
conv4_block21_add (Add)         (None, 5, 5, 1024)   0           conv4_block20_out[0][0]          
                                                                 conv4_block21_3_bn[0][0]         
__________________________________________________________________________________________________
conv4_block21_out (Activation)  (None, 5, 5, 1024)   0           conv4_block21_add[0][0]          
__________________________________________________________________________________________________
conv4_block22_1_conv (Conv2D)   (None, 5, 5, 256)    262400      conv4_block21_out[0][0]          
__________________________________________________________________________________________________
conv4_block22_1_bn (BatchNormal (None, 5, 5, 256)    1024        conv4_block22_1_conv[0][0]       
__________________________________________________________________________________________________
conv4_block22_1_relu (Activatio (None, 5, 5, 256)    0           conv4_block22_1_bn[0][0]         
__________________________________________________________________________________________________
conv4_block22_2_conv (Conv2D)   (None, 5, 5, 256)    590080      conv4_block22_1_relu[0][0]       
__________________________________________________________________________________________________
conv4_block22_2_bn (BatchNormal (None, 5, 5, 256)    1024        conv4_block22_2_conv[0][0]       
__________________________________________________________________________________________________
conv4_block22_2_relu (Activatio (None, 5, 5, 256)    0           conv4_block22_2_bn[0][0]         
__________________________________________________________________________________________________
conv4_block22_3_conv (Conv2D)   (None, 5, 5, 1024)   263168      conv4_block22_2_relu[0][0]       
__________________________________________________________________________________________________
conv4_block22_3_bn (BatchNormal (None, 5, 5, 1024)   4096        conv4_block22_3_conv[0][0]       
__________________________________________________________________________________________________
conv4_block22_add (Add)         (None, 5, 5, 1024)   0           conv4_block21_out[0][0]          
                                                                 conv4_block22_3_bn[0][0]         
__________________________________________________________________________________________________
conv4_block22_out (Activation)  (None, 5, 5, 1024)   0           conv4_block22_add[0][0]          
__________________________________________________________________________________________________
conv4_block23_1_conv (Conv2D)   (None, 5, 5, 256)    262400      conv4_block22_out[0][0]          
__________________________________________________________________________________________________
conv4_block23_1_bn (BatchNormal (None, 5, 5, 256)    1024        conv4_block23_1_conv[0][0]       
__________________________________________________________________________________________________
conv4_block23_1_relu (Activatio (None, 5, 5, 256)    0           conv4_block23_1_bn[0][0]         
__________________________________________________________________________________________________
conv4_block23_2_conv (Conv2D)   (None, 5, 5, 256)    590080      conv4_block23_1_relu[0][0]       
__________________________________________________________________________________________________
conv4_block23_2_bn (BatchNormal (None, 5, 5, 256)    1024        conv4_block23_2_conv[0][0]       
__________________________________________________________________________________________________
conv4_block23_2_relu (Activatio (None, 5, 5, 256)    0           conv4_block23_2_bn[0][0]         
__________________________________________________________________________________________________
conv4_block23_3_conv (Conv2D)   (None, 5, 5, 1024)   263168      conv4_block23_2_relu[0][0]       
__________________________________________________________________________________________________
conv4_block23_3_bn (BatchNormal (None, 5, 5, 1024)   4096        conv4_block23_3_conv[0][0]       
__________________________________________________________________________________________________
conv4_block23_add (Add)         (None, 5, 5, 1024)   0           conv4_block22_out[0][0]          
                                                                 conv4_block23_3_bn[0][0]         
__________________________________________________________________________________________________
conv4_block23_out (Activation)  (None, 5, 5, 1024)   0           conv4_block23_add[0][0]          
__________________________________________________________________________________________________
conv5_block1_1_conv (Conv2D)    (None, 3, 3, 512)    524800      conv4_block23_out[0][0]          
__________________________________________________________________________________________________
conv5_block1_1_bn (BatchNormali (None, 3, 3, 512)    2048        conv5_block1_1_conv[0][0]        
__________________________________________________________________________________________________
conv5_block1_1_relu (Activation (None, 3, 3, 512)    0           conv5_block1_1_bn[0][0]          
__________________________________________________________________________________________________
conv5_block1_2_conv (Conv2D)    (None, 3, 3, 512)    2359808     conv5_block1_1_relu[0][0]        
__________________________________________________________________________________________________
conv5_block1_2_bn (BatchNormali (None, 3, 3, 512)    2048        conv5_block1_2_conv[0][0]        
__________________________________________________________________________________________________
conv5_block1_2_relu (Activation (None, 3, 3, 512)    0           conv5_block1_2_bn[0][0]          
__________________________________________________________________________________________________
conv5_block1_0_conv (Conv2D)    (None, 3, 3, 2048)   2099200     conv4_block23_out[0][0]          
__________________________________________________________________________________________________
conv5_block1_3_conv (Conv2D)    (None, 3, 3, 2048)   1050624     conv5_block1_2_relu[0][0]        
__________________________________________________________________________________________________
conv5_block1_0_bn (BatchNormali (None, 3, 3, 2048)   8192        conv5_block1_0_conv[0][0]        
__________________________________________________________________________________________________
conv5_block1_3_bn (BatchNormali (None, 3, 3, 2048)   8192        conv5_block1_3_conv[0][0]        
__________________________________________________________________________________________________
conv5_block1_add (Add)          (None, 3, 3, 2048)   0           conv5_block1_0_bn[0][0]          
                                                                 conv5_block1_3_bn[0][0]          
__________________________________________________________________________________________________
conv5_block1_out (Activation)   (None, 3, 3, 2048)   0           conv5_block1_add[0][0]           
__________________________________________________________________________________________________
conv5_block2_1_conv (Conv2D)    (None, 3, 3, 512)    1049088     conv5_block1_out[0][0]           
__________________________________________________________________________________________________
conv5_block2_1_bn (BatchNormali (None, 3, 3, 512)    2048        conv5_block2_1_conv[0][0]        
__________________________________________________________________________________________________
conv5_block2_1_relu (Activation (None, 3, 3, 512)    0           conv5_block2_1_bn[0][0]          
__________________________________________________________________________________________________
conv5_block2_2_conv (Conv2D)    (None, 3, 3, 512)    2359808     conv5_block2_1_relu[0][0]        
__________________________________________________________________________________________________
conv5_block2_2_bn (BatchNormali (None, 3, 3, 512)    2048        conv5_block2_2_conv[0][0]        
__________________________________________________________________________________________________
conv5_block2_2_relu (Activation (None, 3, 3, 512)    0           conv5_block2_2_bn[0][0]          
__________________________________________________________________________________________________
conv5_block2_3_conv (Conv2D)    (None, 3, 3, 2048)   1050624     conv5_block2_2_relu[0][0]        
__________________________________________________________________________________________________
conv5_block2_3_bn (BatchNormali (None, 3, 3, 2048)   8192        conv5_block2_3_conv[0][0]        
__________________________________________________________________________________________________
conv5_block2_add (Add)          (None, 3, 3, 2048)   0           conv5_block1_out[0][0]           
                                                                 conv5_block2_3_bn[0][0]          
__________________________________________________________________________________________________
conv5_block2_out (Activation)   (None, 3, 3, 2048)   0           conv5_block2_add[0][0]           
__________________________________________________________________________________________________
conv5_block3_1_conv (Conv2D)    (None, 3, 3, 512)    1049088     conv5_block2_out[0][0]           
__________________________________________________________________________________________________
conv5_block3_1_bn (BatchNormali (None, 3, 3, 512)    2048        conv5_block3_1_conv[0][0]        
__________________________________________________________________________________________________
conv5_block3_1_relu (Activation (None, 3, 3, 512)    0           conv5_block3_1_bn[0][0]          
__________________________________________________________________________________________________
conv5_block3_2_conv (Conv2D)    (None, 3, 3, 512)    2359808     conv5_block3_1_relu[0][0]        
__________________________________________________________________________________________________
conv5_block3_2_bn (BatchNormali (None, 3, 3, 512)    2048        conv5_block3_2_conv[0][0]        
__________________________________________________________________________________________________
conv5_block3_2_relu (Activation (None, 3, 3, 512)    0           conv5_block3_2_bn[0][0]          
__________________________________________________________________________________________________
conv5_block3_3_conv (Conv2D)    (None, 3, 3, 2048)   1050624     conv5_block3_2_relu[0][0]        
__________________________________________________________________________________________________
conv5_block3_3_bn (BatchNormali (None, 3, 3, 2048)   8192        conv5_block3_3_conv[0][0]        
__________________________________________________________________________________________________
conv5_block3_add (Add)          (None, 3, 3, 2048)   0           conv5_block2_out[0][0]           
                                                                 conv5_block3_3_bn[0][0]          
__________________________________________________________________________________________________
conv5_block3_out (Activation)   (None, 3, 3, 2048)   0           conv5_block3_add[0][0]           
__________________________________________________________________________________________________
flatten (Flatten)               (None, 18432)        0           conv5_block3_out[0][0]           
__________________________________________________________________________________________________
fc1 (Dense)                     (None, 4096)         75501568    flatten[0][0]                    
__________________________________________________________________________________________________
fc2 (Dense)                     (None, 4096)         16781312    fc1[0][0]                        
__________________________________________________________________________________________________
predictions (Dense)             (None, 10)           40970       fc2[0][0]                        
==================================================================================================
Total params: 134,982,026
Trainable params: 134,876,682
Non-trainable params: 105,344
__________________________________________________________________________________________________
Start fitting ensemble models
Length split part:  16667
Labels in this part of split:  [1667, 1656, 1712, 1682, 1675, 1579, 1703, 1687, 1681, 1625]
…
2020-05-25 21:19:03.744052: I tensorflow/core/profiler/internal/gpu/device_tracer.cc:88]  GpuTracer has collected 0 callback api events and 0 activity events.
Epoch 00026: early stopping
ResNet152
Model: "model"
__________________________________________________________________________________________________
Layer (type)                    Output Shape         Param #     Connected to                     
==================================================================================================
input_1 (InputLayer)            [(None, 75, 75, 3)]  0                                            
__________________________________________________________________________________________________
conv1_pad (ZeroPadding2D)       (None, 81, 81, 3)    0           input_1[0][0]                    
__________________________________________________________________________________________________
conv1_conv (Conv2D)             (None, 38, 38, 64)   9472        conv1_pad[0][0]                  
__________________________________________________________________________________________________
conv1_bn (BatchNormalization)   (None, 38, 38, 64)   256         conv1_conv[0][0]                 
__________________________________________________________________________________________________
conv1_relu (Activation)         (None, 38, 38, 64)   0           conv1_bn[0][0]                   
__________________________________________________________________________________________________
pool1_pad (ZeroPadding2D)       (None, 40, 40, 64)   0           conv1_relu[0][0]                 
…
                                                                 conv4_block48_2_conv[0][0]       
__________________________________________________________________________________________________
pool4_bn (BatchNormalization)   (None, 4, 4, 1792)   7168        conv4_block48_concat[0][0]       
__________________________________________________________________________________________________
pool4_relu (Activation)         (None, 4, 4, 1792)   0           pool4_bn[0][0]                   
__________________________________________________________________________________________________
pool4_conv (Conv2D)             (None, 4, 4, 896)    1605632     pool4_relu[0][0]                 
__________________________________________________________________________________________________
pool4_pool (AveragePooling2D)   (None, 2, 2, 896)    0           pool4_conv[0][0]                 
__________________________________________________________________________________________________
conv5_block1_0_bn (BatchNormali (None, 2, 2, 896)    3584        pool4_pool[0][0]                 
__________________________________________________________________________________________________
conv5_block1_0_relu (Activation (None, 2, 2, 896)    0           conv5_block1_0_bn[0][0]          
__________________________________________________________________________________________________
conv5_block1_1_conv (Conv2D)    (None, 2, 2, 128)    114688      conv5_block1_0_relu[0][0]        
__________________________________________________________________________________________________
conv5_block1_1_bn (BatchNormali (None, 2, 2, 128)    512         conv5_block1_1_conv[0][0]        
__________________________________________________________________________________________________
conv5_block1_1_relu (Activation (None, 2, 2, 128)    0           conv5_block1_1_bn[0][0]          
__________________________________________________________________________________________________
conv5_block1_2_conv (Conv2D)    (None, 2, 2, 32)     36864       conv5_block1_1_relu[0][0]        
__________________________________________________________________________________________________
conv5_block1_concat (Concatenat (None, 2, 2, 928)    0           pool4_pool[0][0]                 
                                                                 conv5_block1_2_conv[0][0]        
__________________________________________________________________________________________________
conv5_block2_0_bn (BatchNormali (None, 2, 2, 928)    3712        conv5_block1_concat[0][0]        
__________________________________________________________________________________________________
conv5_block2_0_relu (Activation (None, 2, 2, 928)    0           conv5_block2_0_bn[0][0]          
__________________________________________________________________________________________________
conv5_block2_1_conv (Conv2D)    (None, 2, 2, 128)    118784      conv5_block2_0_relu[0][0]        
__________________________________________________________________________________________________
conv5_block2_1_bn (BatchNormali (None, 2, 2, 128)    512         conv5_block2_1_conv[0][0]        
__________________________________________________________________________________________________
conv5_block2_1_relu (Activation (None, 2, 2, 128)    0           conv5_block2_1_bn[0][0]          
__________________________________________________________________________________________________
conv5_block2_2_conv (Conv2D)    (None, 2, 2, 32)     36864       conv5_block2_1_relu[0][0]        
__________________________________________________________________________________________________
conv5_block2_concat (Concatenat (None, 2, 2, 960)    0           conv5_block1_concat[0][0]        
                                                                 conv5_block2_2_conv[0][0]        
__________________________________________________________________________________________________
conv5_block3_0_bn (BatchNormali (None, 2, 2, 960)    3840        conv5_block2_concat[0][0]        
__________________________________________________________________________________________________
conv5_block3_0_relu (Activation (None, 2, 2, 960)    0           conv5_block3_0_bn[0][0]          
__________________________________________________________________________________________________
conv5_block3_1_conv (Conv2D)    (None, 2, 2, 128)    122880      conv5_block3_0_relu[0][0]        
__________________________________________________________________________________________________
conv5_block3_1_bn (BatchNormali (None, 2, 2, 128)    512         conv5_block3_1_conv[0][0]        
__________________________________________________________________________________________________
conv5_block3_1_relu (Activation (None, 2, 2, 128)    0           conv5_block3_1_bn[0][0]          
__________________________________________________________________________________________________
conv5_block3_2_conv (Conv2D)    (None, 2, 2, 32)     36864       conv5_block3_1_relu[0][0]        
__________________________________________________________________________________________________
conv5_block3_concat (Concatenat (None, 2, 2, 992)    0           conv5_block2_concat[0][0]        
                                                                 conv5_block3_2_conv[0][0]        
__________________________________________________________________________________________________
conv5_block4_0_bn (BatchNormali (None, 2, 2, 992)    3968        conv5_block3_concat[0][0]        
__________________________________________________________________________________________________
conv5_block4_0_relu (Activation (None, 2, 2, 992)    0           conv5_block4_0_bn[0][0]          
__________________________________________________________________________________________________
conv5_block4_1_conv (Conv2D)    (None, 2, 2, 128)    126976      conv5_block4_0_relu[0][0]        
__________________________________________________________________________________________________
conv5_block4_1_bn (BatchNormali (None, 2, 2, 128)    512         conv5_block4_1_conv[0][0]        
__________________________________________________________________________________________________
conv5_block4_1_relu (Activation (None, 2, 2, 128)    0           conv5_block4_1_bn[0][0]          
__________________________________________________________________________________________________
conv5_block4_2_conv (Conv2D)    (None, 2, 2, 32)     36864       conv5_block4_1_relu[0][0]        
__________________________________________________________________________________________________
conv5_block4_concat (Concatenat (None, 2, 2, 1024)   0           conv5_block3_concat[0][0]        
                                                                 conv5_block4_2_conv[0][0]        
__________________________________________________________________________________________________
conv5_block5_0_bn (BatchNormali (None, 2, 2, 1024)   4096        conv5_block4_concat[0][0]        
__________________________________________________________________________________________________
conv5_block5_0_relu (Activation (None, 2, 2, 1024)   0           conv5_block5_0_bn[0][0]          
__________________________________________________________________________________________________
conv5_block5_1_conv (Conv2D)    (None, 2, 2, 128)    131072      conv5_block5_0_relu[0][0]        
__________________________________________________________________________________________________
conv5_block5_1_bn (BatchNormali (None, 2, 2, 128)    512         conv5_block5_1_conv[0][0]        
__________________________________________________________________________________________________
conv5_block5_1_relu (Activation (None, 2, 2, 128)    0           conv5_block5_1_bn[0][0]          
__________________________________________________________________________________________________
conv5_block5_2_conv (Conv2D)    (None, 2, 2, 32)     36864       conv5_block5_1_relu[0][0]        
__________________________________________________________________________________________________
conv5_block5_concat (Concatenat (None, 2, 2, 1056)   0           conv5_block4_concat[0][0]        
                                                                 conv5_block5_2_conv[0][0]        
__________________________________________________________________________________________________
conv5_block6_0_bn (BatchNormali (None, 2, 2, 1056)   4224        conv5_block5_concat[0][0]        
__________________________________________________________________________________________________
conv5_block6_0_relu (Activation (None, 2, 2, 1056)   0           conv5_block6_0_bn[0][0]          
__________________________________________________________________________________________________
conv5_block6_1_conv (Conv2D)    (None, 2, 2, 128)    135168      conv5_block6_0_relu[0][0]        
__________________________________________________________________________________________________
conv5_block6_1_bn (BatchNormali (None, 2, 2, 128)    512         conv5_block6_1_conv[0][0]        
__________________________________________________________________________________________________
conv5_block6_1_relu (Activation (None, 2, 2, 128)    0           conv5_block6_1_bn[0][0]          
__________________________________________________________________________________________________
conv5_block6_2_conv (Conv2D)    (None, 2, 2, 32)     36864       conv5_block6_1_relu[0][0]        
__________________________________________________________________________________________________
conv5_block6_concat (Concatenat (None, 2, 2, 1088)   0           conv5_block5_concat[0][0]        
                                                                 conv5_block6_2_conv[0][0]        
__________________________________________________________________________________________________
conv5_block7_0_bn (BatchNormali (None, 2, 2, 1088)   4352        conv5_block6_concat[0][0]        
__________________________________________________________________________________________________
conv5_block7_0_relu (Activation (None, 2, 2, 1088)   0           conv5_block7_0_bn[0][0]          
__________________________________________________________________________________________________
conv5_block7_1_conv (Conv2D)    (None, 2, 2, 128)    139264      conv5_block7_0_relu[0][0]        
__________________________________________________________________________________________________
conv5_block7_1_bn (BatchNormali (None, 2, 2, 128)    512         conv5_block7_1_conv[0][0]        
__________________________________________________________________________________________________
conv5_block7_1_relu (Activation (None, 2, 2, 128)    0           conv5_block7_1_bn[0][0]          
__________________________________________________________________________________________________
conv5_block7_2_conv (Conv2D)    (None, 2, 2, 32)     36864       conv5_block7_1_relu[0][0]        
__________________________________________________________________________________________________
conv5_block7_concat (Concatenat (None, 2, 2, 1120)   0           conv5_block6_concat[0][0]        
                                                                 conv5_block7_2_conv[0][0]        
__________________________________________________________________________________________________
conv5_block8_0_bn (BatchNormali (None, 2, 2, 1120)   4480        conv5_block7_concat[0][0]        
__________________________________________________________________________________________________
conv5_block8_0_relu (Activation (None, 2, 2, 1120)   0           conv5_block8_0_bn[0][0]          
__________________________________________________________________________________________________
conv5_block8_1_conv (Conv2D)    (None, 2, 2, 128)    143360      conv5_block8_0_relu[0][0]        
__________________________________________________________________________________________________
conv5_block8_1_bn (BatchNormali (None, 2, 2, 128)    512         conv5_block8_1_conv[0][0]        
__________________________________________________________________________________________________
conv5_block8_1_relu (Activation (None, 2, 2, 128)    0           conv5_block8_1_bn[0][0]          
__________________________________________________________________________________________________
conv5_block8_2_conv (Conv2D)    (None, 2, 2, 32)     36864       conv5_block8_1_relu[0][0]        
__________________________________________________________________________________________________
conv5_block8_concat (Concatenat (None, 2, 2, 1152)   0           conv5_block7_concat[0][0]        
                                                                 conv5_block8_2_conv[0][0]        
__________________________________________________________________________________________________
conv5_block9_0_bn (BatchNormali (None, 2, 2, 1152)   4608        conv5_block8_concat[0][0]        
__________________________________________________________________________________________________
conv5_block9_0_relu (Activation (None, 2, 2, 1152)   0           conv5_block9_0_bn[0][0]          
__________________________________________________________________________________________________
conv5_block9_1_conv (Conv2D)    (None, 2, 2, 128)    147456      conv5_block9_0_relu[0][0]        
__________________________________________________________________________________________________
conv5_block9_1_bn (BatchNormali (None, 2, 2, 128)    512         conv5_block9_1_conv[0][0]        
__________________________________________________________________________________________________
conv5_block9_1_relu (Activation (None, 2, 2, 128)    0           conv5_block9_1_bn[0][0]          
__________________________________________________________________________________________________
conv5_block9_2_conv (Conv2D)    (None, 2, 2, 32)     36864       conv5_block9_1_relu[0][0]        
__________________________________________________________________________________________________
conv5_block9_concat (Concatenat (None, 2, 2, 1184)   0           conv5_block8_concat[0][0]        
                                                                 conv5_block9_2_conv[0][0]        
__________________________________________________________________________________________________
conv5_block10_0_bn (BatchNormal (None, 2, 2, 1184)   4736        conv5_block9_concat[0][0]        
__________________________________________________________________________________________________
conv5_block10_0_relu (Activatio (None, 2, 2, 1184)   0           conv5_block10_0_bn[0][0]         
__________________________________________________________________________________________________
conv5_block10_1_conv (Conv2D)   (None, 2, 2, 128)    151552      conv5_block10_0_relu[0][0]       
__________________________________________________________________________________________________
conv5_block10_1_bn (BatchNormal (None, 2, 2, 128)    512         conv5_block10_1_conv[0][0]       
__________________________________________________________________________________________________
conv5_block10_1_relu (Activatio (None, 2, 2, 128)    0           conv5_block10_1_bn[0][0]         
__________________________________________________________________________________________________
conv5_block10_2_conv (Conv2D)   (None, 2, 2, 32)     36864       conv5_block10_1_relu[0][0]       
__________________________________________________________________________________________________
conv5_block10_concat (Concatena (None, 2, 2, 1216)   0           conv5_block9_concat[0][0]        
                                                                 conv5_block10_2_conv[0][0]       
__________________________________________________________________________________________________
conv5_block11_0_bn (BatchNormal (None, 2, 2, 1216)   4864        conv5_block10_concat[0][0]       
__________________________________________________________________________________________________
conv5_block11_0_relu (Activatio (None, 2, 2, 1216)   0           conv5_block11_0_bn[0][0]         
__________________________________________________________________________________________________
conv5_block11_1_conv (Conv2D)   (None, 2, 2, 128)    155648      conv5_block11_0_relu[0][0]       
__________________________________________________________________________________________________
conv5_block11_1_bn (BatchNormal (None, 2, 2, 128)    512         conv5_block11_1_conv[0][0]       
__________________________________________________________________________________________________
conv5_block11_1_relu (Activatio (None, 2, 2, 128)    0           conv5_block11_1_bn[0][0]         
__________________________________________________________________________________________________
conv5_block11_2_conv (Conv2D)   (None, 2, 2, 32)     36864       conv5_block11_1_relu[0][0]       
__________________________________________________________________________________________________
conv5_block11_concat (Concatena (None, 2, 2, 1248)   0           conv5_block10_concat[0][0]       
                                                                 conv5_block11_2_conv[0][0]       
__________________________________________________________________________________________________
conv5_block12_0_bn (BatchNormal (None, 2, 2, 1248)   4992        conv5_block11_concat[0][0]       
__________________________________________________________________________________________________
conv5_block12_0_relu (Activatio (None, 2, 2, 1248)   0           conv5_block12_0_bn[0][0]         
__________________________________________________________________________________________________
conv5_block12_1_conv (Conv2D)   (None, 2, 2, 128)    159744      conv5_block12_0_relu[0][0]       
__________________________________________________________________________________________________
conv5_block12_1_bn (BatchNormal (None, 2, 2, 128)    512         conv5_block12_1_conv[0][0]       
__________________________________________________________________________________________________
conv5_block12_1_relu (Activatio (None, 2, 2, 128)    0           conv5_block12_1_bn[0][0]         
__________________________________________________________________________________________________
conv5_block12_2_conv (Conv2D)   (None, 2, 2, 32)     36864       conv5_block12_1_relu[0][0]       
__________________________________________________________________________________________________
conv5_block12_concat (Concatena (None, 2, 2, 1280)   0           conv5_block11_concat[0][0]       
                                                                 conv5_block12_2_conv[0][0]       
__________________________________________________________________________________________________
conv5_block13_0_bn (BatchNormal (None, 2, 2, 1280)   5120        conv5_block12_concat[0][0]       
__________________________________________________________________________________________________
conv5_block13_0_relu (Activatio (None, 2, 2, 1280)   0           conv5_block13_0_bn[0][0]         
__________________________________________________________________________________________________
conv5_block13_1_conv (Conv2D)   (None, 2, 2, 128)    163840      conv5_block13_0_relu[0][0]       
__________________________________________________________________________________________________
conv5_block13_1_bn (BatchNormal (None, 2, 2, 128)    512         conv5_block13_1_conv[0][0]       
__________________________________________________________________________________________________
conv5_block13_1_relu (Activatio (None, 2, 2, 128)    0           conv5_block13_1_bn[0][0]         
__________________________________________________________________________________________________
conv5_block13_2_conv (Conv2D)   (None, 2, 2, 32)     36864       conv5_block13_1_relu[0][0]       
__________________________________________________________________________________________________
conv5_block13_concat (Concatena (None, 2, 2, 1312)   0           conv5_block12_concat[0][0]       
                                                                 conv5_block13_2_conv[0][0]       
__________________________________________________________________________________________________
conv5_block14_0_bn (BatchNormal (None, 2, 2, 1312)   5248        conv5_block13_concat[0][0]       
__________________________________________________________________________________________________
conv5_block14_0_relu (Activatio (None, 2, 2, 1312)   0           conv5_block14_0_bn[0][0]         
__________________________________________________________________________________________________
conv5_block14_1_conv (Conv2D)   (None, 2, 2, 128)    167936      conv5_block14_0_relu[0][0]       
__________________________________________________________________________________________________
conv5_block14_1_bn (BatchNormal (None, 2, 2, 128)    512         conv5_block14_1_conv[0][0]       
__________________________________________________________________________________________________
conv5_block14_1_relu (Activatio (None, 2, 2, 128)    0           conv5_block14_1_bn[0][0]         
__________________________________________________________________________________________________
conv5_block14_2_conv (Conv2D)   (None, 2, 2, 32)     36864       conv5_block14_1_relu[0][0]       
__________________________________________________________________________________________________
conv5_block14_concat (Concatena (None, 2, 2, 1344)   0           conv5_block13_concat[0][0]       
                                                                 conv5_block14_2_conv[0][0]       
__________________________________________________________________________________________________
conv5_block15_0_bn (BatchNormal (None, 2, 2, 1344)   5376        conv5_block14_concat[0][0]       
__________________________________________________________________________________________________
conv5_block15_0_relu (Activatio (None, 2, 2, 1344)   0           conv5_block15_0_bn[0][0]         
__________________________________________________________________________________________________
conv5_block15_1_conv (Conv2D)   (None, 2, 2, 128)    172032      conv5_block15_0_relu[0][0]       
__________________________________________________________________________________________________
conv5_block15_1_bn (BatchNormal (None, 2, 2, 128)    512         conv5_block15_1_conv[0][0]       
__________________________________________________________________________________________________
conv5_block15_1_relu (Activatio (None, 2, 2, 128)    0           conv5_block15_1_bn[0][0]         
__________________________________________________________________________________________________
conv5_block15_2_conv (Conv2D)   (None, 2, 2, 32)     36864       conv5_block15_1_relu[0][0]       
__________________________________________________________________________________________________
conv5_block15_concat (Concatena (None, 2, 2, 1376)   0           conv5_block14_concat[0][0]       
                                                                 conv5_block15_2_conv[0][0]       
__________________________________________________________________________________________________
conv5_block16_0_bn (BatchNormal (None, 2, 2, 1376)   5504        conv5_block15_concat[0][0]       
__________________________________________________________________________________________________
conv5_block16_0_relu (Activatio (None, 2, 2, 1376)   0           conv5_block16_0_bn[0][0]         
__________________________________________________________________________________________________
conv5_block16_1_conv (Conv2D)   (None, 2, 2, 128)    176128      conv5_block16_0_relu[0][0]       
__________________________________________________________________________________________________
conv5_block16_1_bn (BatchNormal (None, 2, 2, 128)    512         conv5_block16_1_conv[0][0]       
__________________________________________________________________________________________________
conv5_block16_1_relu (Activatio (None, 2, 2, 128)    0           conv5_block16_1_bn[0][0]         
__________________________________________________________________________________________________
conv5_block16_2_conv (Conv2D)   (None, 2, 2, 32)     36864       conv5_block16_1_relu[0][0]       
__________________________________________________________________________________________________
conv5_block16_concat (Concatena (None, 2, 2, 1408)   0           conv5_block15_concat[0][0]       
                                                                 conv5_block16_2_conv[0][0]       
__________________________________________________________________________________________________
conv5_block17_0_bn (BatchNormal (None, 2, 2, 1408)   5632        conv5_block16_concat[0][0]       
__________________________________________________________________________________________________
conv5_block17_0_relu (Activatio (None, 2, 2, 1408)   0           conv5_block17_0_bn[0][0]         
__________________________________________________________________________________________________
conv5_block17_1_conv (Conv2D)   (None, 2, 2, 128)    180224      conv5_block17_0_relu[0][0]       
__________________________________________________________________________________________________
conv5_block17_1_bn (BatchNormal (None, 2, 2, 128)    512         conv5_block17_1_conv[0][0]       
__________________________________________________________________________________________________
conv5_block17_1_relu (Activatio (None, 2, 2, 128)    0           conv5_block17_1_bn[0][0]         
__________________________________________________________________________________________________
conv5_block17_2_conv (Conv2D)   (None, 2, 2, 32)     36864       conv5_block17_1_relu[0][0]       
__________________________________________________________________________________________________
conv5_block17_concat (Concatena (None, 2, 2, 1440)   0           conv5_block16_concat[0][0]       
                                                                 conv5_block17_2_conv[0][0]       
__________________________________________________________________________________________________
conv5_block18_0_bn (BatchNormal (None, 2, 2, 1440)   5760        conv5_block17_concat[0][0]       
__________________________________________________________________________________________________
conv5_block18_0_relu (Activatio (None, 2, 2, 1440)   0           conv5_block18_0_bn[0][0]         
__________________________________________________________________________________________________
conv5_block18_1_conv (Conv2D)   (None, 2, 2, 128)    184320      conv5_block18_0_relu[0][0]       
__________________________________________________________________________________________________
conv5_block18_1_bn (BatchNormal (None, 2, 2, 128)    512         conv5_block18_1_conv[0][0]       
__________________________________________________________________________________________________
conv5_block18_1_relu (Activatio (None, 2, 2, 128)    0           conv5_block18_1_bn[0][0]         
__________________________________________________________________________________________________
conv5_block18_2_conv (Conv2D)   (None, 2, 2, 32)     36864       conv5_block18_1_relu[0][0]       
__________________________________________________________________________________________________
conv5_block18_concat (Concatena (None, 2, 2, 1472)   0           conv5_block17_concat[0][0]       
                                                                 conv5_block18_2_conv[0][0]       
__________________________________________________________________________________________________
conv5_block19_0_bn (BatchNormal (None, 2, 2, 1472)   5888        conv5_block18_concat[0][0]       
__________________________________________________________________________________________________
conv5_block19_0_relu (Activatio (None, 2, 2, 1472)   0           conv5_block19_0_bn[0][0]         
__________________________________________________________________________________________________
conv5_block19_1_conv (Conv2D)   (None, 2, 2, 128)    188416      conv5_block19_0_relu[0][0]       
__________________________________________________________________________________________________
conv5_block19_1_bn (BatchNormal (None, 2, 2, 128)    512         conv5_block19_1_conv[0][0]       
__________________________________________________________________________________________________
conv5_block19_1_relu (Activatio (None, 2, 2, 128)    0           conv5_block19_1_bn[0][0]         
__________________________________________________________________________________________________
conv5_block19_2_conv (Conv2D)   (None, 2, 2, 32)     36864       conv5_block19_1_relu[0][0]       
__________________________________________________________________________________________________
conv5_block19_concat (Concatena (None, 2, 2, 1504)   0           conv5_block18_concat[0][0]       
                                                                 conv5_block19_2_conv[0][0]       
__________________________________________________________________________________________________
conv5_block20_0_bn (BatchNormal (None, 2, 2, 1504)   6016        conv5_block19_concat[0][0]       
__________________________________________________________________________________________________
conv5_block20_0_relu (Activatio (None, 2, 2, 1504)   0           conv5_block20_0_bn[0][0]         
__________________________________________________________________________________________________
conv5_block20_1_conv (Conv2D)   (None, 2, 2, 128)    192512      conv5_block20_0_relu[0][0]       
__________________________________________________________________________________________________
conv5_block20_1_bn (BatchNormal (None, 2, 2, 128)    512         conv5_block20_1_conv[0][0]       
__________________________________________________________________________________________________
conv5_block20_1_relu (Activatio (None, 2, 2, 128)    0           conv5_block20_1_bn[0][0]         
__________________________________________________________________________________________________
conv5_block20_2_conv (Conv2D)   (None, 2, 2, 32)     36864       conv5_block20_1_relu[0][0]       
__________________________________________________________________________________________________
conv5_block20_concat (Concatena (None, 2, 2, 1536)   0           conv5_block19_concat[0][0]       
                                                                 conv5_block20_2_conv[0][0]       
__________________________________________________________________________________________________
conv5_block21_0_bn (BatchNormal (None, 2, 2, 1536)   6144        conv5_block20_concat[0][0]       
__________________________________________________________________________________________________
conv5_block21_0_relu (Activatio (None, 2, 2, 1536)   0           conv5_block21_0_bn[0][0]         
__________________________________________________________________________________________________
conv5_block21_1_conv (Conv2D)   (None, 2, 2, 128)    196608      conv5_block21_0_relu[0][0]       
__________________________________________________________________________________________________
conv5_block21_1_bn (BatchNormal (None, 2, 2, 128)    512         conv5_block21_1_conv[0][0]       
__________________________________________________________________________________________________
conv5_block21_1_relu (Activatio (None, 2, 2, 128)    0           conv5_block21_1_bn[0][0]         
__________________________________________________________________________________________________
conv5_block21_2_conv (Conv2D)   (None, 2, 2, 32)     36864       conv5_block21_1_relu[0][0]       
__________________________________________________________________________________________________
conv5_block21_concat (Concatena (None, 2, 2, 1568)   0           conv5_block20_concat[0][0]       
                                                                 conv5_block21_2_conv[0][0]       
__________________________________________________________________________________________________
conv5_block22_0_bn (BatchNormal (None, 2, 2, 1568)   6272        conv5_block21_concat[0][0]       
__________________________________________________________________________________________________
conv5_block22_0_relu (Activatio (None, 2, 2, 1568)   0           conv5_block22_0_bn[0][0]         
__________________________________________________________________________________________________
conv5_block22_1_conv (Conv2D)   (None, 2, 2, 128)    200704      conv5_block22_0_relu[0][0]       
__________________________________________________________________________________________________
conv5_block22_1_bn (BatchNormal (None, 2, 2, 128)    512         conv5_block22_1_conv[0][0]       
__________________________________________________________________________________________________
conv5_block22_1_relu (Activatio (None, 2, 2, 128)    0           conv5_block22_1_bn[0][0]         
__________________________________________________________________________________________________
conv5_block22_2_conv (Conv2D)   (None, 2, 2, 32)     36864       conv5_block22_1_relu[0][0]       
__________________________________________________________________________________________________
conv5_block22_concat (Concatena (None, 2, 2, 1600)   0           conv5_block21_concat[0][0]       
                                                                 conv5_block22_2_conv[0][0]       
__________________________________________________________________________________________________
conv5_block23_0_bn (BatchNormal (None, 2, 2, 1600)   6400        conv5_block22_concat[0][0]       
__________________________________________________________________________________________________
conv5_block23_0_relu (Activatio (None, 2, 2, 1600)   0           conv5_block23_0_bn[0][0]         
__________________________________________________________________________________________________
conv5_block23_1_conv (Conv2D)   (None, 2, 2, 128)    204800      conv5_block23_0_relu[0][0]       
__________________________________________________________________________________________________
conv5_block23_1_bn (BatchNormal (None, 2, 2, 128)    512         conv5_block23_1_conv[0][0]       
__________________________________________________________________________________________________
conv5_block23_1_relu (Activatio (None, 2, 2, 128)    0           conv5_block23_1_bn[0][0]         
__________________________________________________________________________________________________
conv5_block23_2_conv (Conv2D)   (None, 2, 2, 32)     36864       conv5_block23_1_relu[0][0]       
__________________________________________________________________________________________________
conv5_block23_concat (Concatena (None, 2, 2, 1632)   0           conv5_block22_concat[0][0]       
                                                                 conv5_block23_2_conv[0][0]       
__________________________________________________________________________________________________
conv5_block24_0_bn (BatchNormal (None, 2, 2, 1632)   6528        conv5_block23_concat[0][0]       
__________________________________________________________________________________________________
conv5_block24_0_relu (Activatio (None, 2, 2, 1632)   0           conv5_block24_0_bn[0][0]         
__________________________________________________________________________________________________
conv5_block24_1_conv (Conv2D)   (None, 2, 2, 128)    208896      conv5_block24_0_relu[0][0]       
__________________________________________________________________________________________________
conv5_block24_1_bn (BatchNormal (None, 2, 2, 128)    512         conv5_block24_1_conv[0][0]       
__________________________________________________________________________________________________
conv5_block24_1_relu (Activatio (None, 2, 2, 128)    0           conv5_block24_1_bn[0][0]         
__________________________________________________________________________________________________
conv5_block24_2_conv (Conv2D)   (None, 2, 2, 32)     36864       conv5_block24_1_relu[0][0]       
__________________________________________________________________________________________________
conv5_block24_concat (Concatena (None, 2, 2, 1664)   0           conv5_block23_concat[0][0]       
                                                                 conv5_block24_2_conv[0][0]       
__________________________________________________________________________________________________
conv5_block25_0_bn (BatchNormal (None, 2, 2, 1664)   6656        conv5_block24_concat[0][0]       
__________________________________________________________________________________________________
conv5_block25_0_relu (Activatio (None, 2, 2, 1664)   0           conv5_block25_0_bn[0][0]         
__________________________________________________________________________________________________
conv5_block25_1_conv (Conv2D)   (None, 2, 2, 128)    212992      conv5_block25_0_relu[0][0]       
__________________________________________________________________________________________________
conv5_block25_1_bn (BatchNormal (None, 2, 2, 128)    512         conv5_block25_1_conv[0][0]       
__________________________________________________________________________________________________
conv5_block25_1_relu (Activatio (None, 2, 2, 128)    0           conv5_block25_1_bn[0][0]         
__________________________________________________________________________________________________
conv5_block25_2_conv (Conv2D)   (None, 2, 2, 32)     36864       conv5_block25_1_relu[0][0]       
__________________________________________________________________________________________________
conv5_block25_concat (Concatena (None, 2, 2, 1696)   0           conv5_block24_concat[0][0]       
                                                                 conv5_block25_2_conv[0][0]       
__________________________________________________________________________________________________
conv5_block26_0_bn (BatchNormal (None, 2, 2, 1696)   6784        conv5_block25_concat[0][0]       
__________________________________________________________________________________________________
conv5_block26_0_relu (Activatio (None, 2, 2, 1696)   0           conv5_block26_0_bn[0][0]         
__________________________________________________________________________________________________
conv5_block26_1_conv (Conv2D)   (None, 2, 2, 128)    217088      conv5_block26_0_relu[0][0]       
__________________________________________________________________________________________________
conv5_block26_1_bn (BatchNormal (None, 2, 2, 128)    512         conv5_block26_1_conv[0][0]       
__________________________________________________________________________________________________
conv5_block26_1_relu (Activatio (None, 2, 2, 128)    0           conv5_block26_1_bn[0][0]         
__________________________________________________________________________________________________
conv5_block26_2_conv (Conv2D)   (None, 2, 2, 32)     36864       conv5_block26_1_relu[0][0]       
__________________________________________________________________________________________________
conv5_block26_concat (Concatena (None, 2, 2, 1728)   0           conv5_block25_concat[0][0]       
                                                                 conv5_block26_2_conv[0][0]       
__________________________________________________________________________________________________
conv5_block27_0_bn (BatchNormal (None, 2, 2, 1728)   6912        conv5_block26_concat[0][0]       
__________________________________________________________________________________________________
conv5_block27_0_relu (Activatio (None, 2, 2, 1728)   0           conv5_block27_0_bn[0][0]         
__________________________________________________________________________________________________
conv5_block27_1_conv (Conv2D)   (None, 2, 2, 128)    221184      conv5_block27_0_relu[0][0]       
__________________________________________________________________________________________________
conv5_block27_1_bn (BatchNormal (None, 2, 2, 128)    512         conv5_block27_1_conv[0][0]       
__________________________________________________________________________________________________
conv5_block27_1_relu (Activatio (None, 2, 2, 128)    0           conv5_block27_1_bn[0][0]         
__________________________________________________________________________________________________
conv5_block27_2_conv (Conv2D)   (None, 2, 2, 32)     36864       conv5_block27_1_relu[0][0]       
__________________________________________________________________________________________________
conv5_block27_concat (Concatena (None, 2, 2, 1760)   0           conv5_block26_concat[0][0]       
                                                                 conv5_block27_2_conv[0][0]       
__________________________________________________________________________________________________
conv5_block28_0_bn (BatchNormal (None, 2, 2, 1760)   7040        conv5_block27_concat[0][0]       
__________________________________________________________________________________________________
conv5_block28_0_relu (Activatio (None, 2, 2, 1760)   0           conv5_block28_0_bn[0][0]         
__________________________________________________________________________________________________
conv5_block28_1_conv (Conv2D)   (None, 2, 2, 128)    225280      conv5_block28_0_relu[0][0]       
__________________________________________________________________________________________________
conv5_block28_1_bn (BatchNormal (None, 2, 2, 128)    512         conv5_block28_1_conv[0][0]       
__________________________________________________________________________________________________
conv5_block28_1_relu (Activatio (None, 2, 2, 128)    0           conv5_block28_1_bn[0][0]         
__________________________________________________________________________________________________
conv5_block28_2_conv (Conv2D)   (None, 2, 2, 32)     36864       conv5_block28_1_relu[0][0]       
__________________________________________________________________________________________________
conv5_block28_concat (Concatena (None, 2, 2, 1792)   0           conv5_block27_concat[0][0]       
                                                                 conv5_block28_2_conv[0][0]       
__________________________________________________________________________________________________
conv5_block29_0_bn (BatchNormal (None, 2, 2, 1792)   7168        conv5_block28_concat[0][0]       
__________________________________________________________________________________________________
conv5_block29_0_relu (Activatio (None, 2, 2, 1792)   0           conv5_block29_0_bn[0][0]         
__________________________________________________________________________________________________
conv5_block29_1_conv (Conv2D)   (None, 2, 2, 128)    229376      conv5_block29_0_relu[0][0]       
__________________________________________________________________________________________________
conv5_block29_1_bn (BatchNormal (None, 2, 2, 128)    512         conv5_block29_1_conv[0][0]       
__________________________________________________________________________________________________
conv5_block29_1_relu (Activatio (None, 2, 2, 128)    0           conv5_block29_1_bn[0][0]         
__________________________________________________________________________________________________
conv5_block29_2_conv (Conv2D)   (None, 2, 2, 32)     36864       conv5_block29_1_relu[0][0]       
__________________________________________________________________________________________________
conv5_block29_concat (Concatena (None, 2, 2, 1824)   0           conv5_block28_concat[0][0]       
                                                                 conv5_block29_2_conv[0][0]       
__________________________________________________________________________________________________
conv5_block30_0_bn (BatchNormal (None, 2, 2, 1824)   7296        conv5_block29_concat[0][0]       
__________________________________________________________________________________________________
conv5_block30_0_relu (Activatio (None, 2, 2, 1824)   0           conv5_block30_0_bn[0][0]         
__________________________________________________________________________________________________
conv5_block30_1_conv (Conv2D)   (None, 2, 2, 128)    233472      conv5_block30_0_relu[0][0]       
__________________________________________________________________________________________________
conv5_block30_1_bn (BatchNormal (None, 2, 2, 128)    512         conv5_block30_1_conv[0][0]       
__________________________________________________________________________________________________
conv5_block30_1_relu (Activatio (None, 2, 2, 128)    0           conv5_block30_1_bn[0][0]         
__________________________________________________________________________________________________
conv5_block30_2_conv (Conv2D)   (None, 2, 2, 32)     36864       conv5_block30_1_relu[0][0]       
__________________________________________________________________________________________________
conv5_block30_concat (Concatena (None, 2, 2, 1856)   0           conv5_block29_concat[0][0]       
                                                                 conv5_block30_2_conv[0][0]       
__________________________________________________________________________________________________
conv5_block31_0_bn (BatchNormal (None, 2, 2, 1856)   7424        conv5_block30_concat[0][0]       
__________________________________________________________________________________________________
conv5_block31_0_relu (Activatio (None, 2, 2, 1856)   0           conv5_block31_0_bn[0][0]         
__________________________________________________________________________________________________
conv5_block31_1_conv (Conv2D)   (None, 2, 2, 128)    237568      conv5_block31_0_relu[0][0]       
__________________________________________________________________________________________________
conv5_block31_1_bn (BatchNormal (None, 2, 2, 128)    512         conv5_block31_1_conv[0][0]       
__________________________________________________________________________________________________
conv5_block31_1_relu (Activatio (None, 2, 2, 128)    0           conv5_block31_1_bn[0][0]         
__________________________________________________________________________________________________
conv5_block31_2_conv (Conv2D)   (None, 2, 2, 32)     36864       conv5_block31_1_relu[0][0]       
__________________________________________________________________________________________________
conv5_block31_concat (Concatena (None, 2, 2, 1888)   0           conv5_block30_concat[0][0]       
                                                                 conv5_block31_2_conv[0][0]       
__________________________________________________________________________________________________
conv5_block32_0_bn (BatchNormal (None, 2, 2, 1888)   7552        conv5_block31_concat[0][0]       
__________________________________________________________________________________________________
conv5_block32_0_relu (Activatio (None, 2, 2, 1888)   0           conv5_block32_0_bn[0][0]         
__________________________________________________________________________________________________
conv5_block32_1_conv (Conv2D)   (None, 2, 2, 128)    241664      conv5_block32_0_relu[0][0]       
__________________________________________________________________________________________________
conv5_block32_1_bn (BatchNormal (None, 2, 2, 128)    512         conv5_block32_1_conv[0][0]       
__________________________________________________________________________________________________
conv5_block32_1_relu (Activatio (None, 2, 2, 128)    0           conv5_block32_1_bn[0][0]         
__________________________________________________________________________________________________
conv5_block32_2_conv (Conv2D)   (None, 2, 2, 32)     36864       conv5_block32_1_relu[0][0]       
__________________________________________________________________________________________________
conv5_block32_concat (Concatena (None, 2, 2, 1920)   0           conv5_block31_concat[0][0]       
                                                                 conv5_block32_2_conv[0][0]       
__________________________________________________________________________________________________
bn (BatchNormalization)         (None, 2, 2, 1920)   7680        conv5_block32_concat[0][0]       
__________________________________________________________________________________________________
relu (Activation)               (None, 2, 2, 1920)   0           bn[0][0]                         
__________________________________________________________________________________________________
flatten (Flatten)               (None, 7680)         0           relu[0][0]                       
__________________________________________________________________________________________________
fc1 (Dense)                     (None, 4096)         31461376    flatten[0][0]                    
__________________________________________________________________________________________________
fc2 (Dense)                     (None, 4096)         16781312    fc1[0][0]                        
__________________________________________________________________________________________________
predictions (Dense)             (None, 10)           40970       fc2[0][0]                        
==================================================================================================
Total params: 66,605,642
Trainable params: 66,376,586
Non-trainable params: 229,056
__________________________________________________________________________________________________
Start fitting ensemble models
Length split part:  16667
Labels in this part of split:  [1667, 1656, 1712, 1682, 1675, 1579, 1703, 1687, 1681, 1625]
…
