…
Total labels in train set:  [5000, 5000, 5000, 5000, 5000, 5000, 5000, 5000, 5000, 5000]
Labels in validation set:  [139, 115, 122, 105, 118, 122, 127, 129, 131, 142]
Labels in test set:  [861, 885, 878, 895, 882, 878, 873, 871, 869, 858]
Model: "model"
_________________________________________________________________
Layer (type)                 Output Shape              Param #   
=================================================================
input_1 (InputLayer)         [(None, 32, 32, 3)]       0         
_________________________________________________________________
block1_conv1 (Conv2D)        (None, 32, 32, 64)        1792      
_________________________________________________________________
block1_conv2 (Conv2D)        (None, 32, 32, 64)        36928     
_________________________________________________________________
block1_pool (MaxPooling2D)   (None, 16, 16, 64)        0         
_________________________________________________________________
block2_conv1 (Conv2D)        (None, 16, 16, 128)       73856     
_________________________________________________________________
block2_conv2 (Conv2D)        (None, 16, 16, 128)       147584    
_________________________________________________________________
block2_pool (MaxPooling2D)   (None, 8, 8, 128)         0         
_________________________________________________________________
block3_conv1 (Conv2D)        (None, 8, 8, 256)         295168    
_________________________________________________________________
block3_conv2 (Conv2D)        (None, 8, 8, 256)         590080    
_________________________________________________________________
block3_conv3 (Conv2D)        (None, 8, 8, 256)         590080    
_________________________________________________________________
block3_pool (MaxPooling2D)   (None, 4, 4, 256)         0         
_________________________________________________________________
block4_conv1 (Conv2D)        (None, 4, 4, 512)         1180160   
_________________________________________________________________
block4_conv2 (Conv2D)        (None, 4, 4, 512)         2359808   
_________________________________________________________________
block4_conv3 (Conv2D)        (None, 4, 4, 512)         2359808   
_________________________________________________________________
block4_pool (MaxPooling2D)   (None, 2, 2, 512)         0         
_________________________________________________________________
block5_conv1 (Conv2D)        (None, 2, 2, 512)         2359808   
_________________________________________________________________
block5_conv2 (Conv2D)        (None, 2, 2, 512)         2359808   
_________________________________________________________________
block5_conv3 (Conv2D)        (None, 2, 2, 512)         2359808   
_________________________________________________________________
block5_pool (MaxPooling2D)   (None, 1, 1, 512)         0         
_________________________________________________________________
flatten (Flatten)            (None, 512)               0         
_________________________________________________________________
fc1 (Dense)                  (None, 4096)              2101248   
_________________________________________________________________
fc2 (Dense)                  (None, 4096)              16781312  
_________________________________________________________________
predictions (Dense)          (None, 10)                40970     
=================================================================
Total params: 33,638,218
Trainable params: 33,638,218
Non-trainable params: 0
_________________________________________________________________
Start fitting ensemble models
Length split part:  1250
Labels in this part of split:  [128, 129, 123, 119, 116, 110, 140, 124, 124, 137]
Train for 40 steps, validate for 40 steps
Epoch 1/500
…
