…
Labels in test set:  [861, 885, 878, 895, 882, 878, 873, 871, 869, 858]
Xception
Model: "model"
__________________________________________________________________________________________________
Layer (type)                    Output Shape         Param #     Connected to                     
==================================================================================================
input_1 (InputLayer)            [(None, 75, 75, 3)]  0                                            
__________________________________________________________________________________________________
block1_conv1 (Conv2D)           (None, 37, 37, 32)   864         input_1[0][0]                    
__________________________________________________________________________________________________
block1_conv1_bn (BatchNormaliza (None, 37, 37, 32)   128         block1_conv1[0][0]               
__________________________________________________________________________________________________
block1_conv1_act (Activation)   (None, 37, 37, 32)   0           block1_conv1_bn[0][0]            
__________________________________________________________________________________________________
block1_conv2 (Conv2D)           (None, 35, 35, 64)   18432       block1_conv1_act[0][0]           
__________________________________________________________________________________________________
block1_conv2_bn (BatchNormaliza (None, 35, 35, 64)   256         block1_conv2[0][0]               
__________________________________________________________________________________________________
block1_conv2_act (Activation)   (None, 35, 35, 64)   0           block1_conv2_bn[0][0]            
__________________________________________________________________________________________________
block2_sepconv1 (SeparableConv2 (None, 35, 35, 128)  8768        block1_conv2_act[0][0]           
__________________________________________________________________________________________________
block2_sepconv1_bn (BatchNormal (None, 35, 35, 128)  512         block2_sepconv1[0][0]            
__________________________________________________________________________________________________
block2_sepconv2_act (Activation (None, 35, 35, 128)  0           block2_sepconv1_bn[0][0]         
__________________________________________________________________________________________________
block2_sepconv2 (SeparableConv2 (None, 35, 35, 128)  17536       block2_sepconv2_act[0][0]        
__________________________________________________________________________________________________
block2_sepconv2_bn (BatchNormal (None, 35, 35, 128)  512         block2_sepconv2[0][0]            
__________________________________________________________________________________________________
conv2d (Conv2D)                 (None, 18, 18, 128)  8192        block1_conv2_act[0][0]           
__________________________________________________________________________________________________
block2_pool (MaxPooling2D)      (None, 18, 18, 128)  0           block2_sepconv2_bn[0][0]         
__________________________________________________________________________________________________
batch_normalization (BatchNorma (None, 18, 18, 128)  512         conv2d[0][0]                     
__________________________________________________________________________________________________
add (Add)                       (None, 18, 18, 128)  0           block2_pool[0][0]                
                                                                 batch_normalization[0][0]        
__________________________________________________________________________________________________
block3_sepconv1_act (Activation (None, 18, 18, 128)  0           add[0][0]                        
__________________________________________________________________________________________________
block3_sepconv1 (SeparableConv2 (None, 18, 18, 256)  33920       block3_sepconv1_act[0][0]        
__________________________________________________________________________________________________
block3_sepconv1_bn (BatchNormal (None, 18, 18, 256)  1024        block3_sepconv1[0][0]            
__________________________________________________________________________________________________
block3_sepconv2_act (Activation (None, 18, 18, 256)  0           block3_sepconv1_bn[0][0]         
__________________________________________________________________________________________________
block3_sepconv2 (SeparableConv2 (None, 18, 18, 256)  67840       block3_sepconv2_act[0][0]        
__________________________________________________________________________________________________
block3_sepconv2_bn (BatchNormal (None, 18, 18, 256)  1024        block3_sepconv2[0][0]            
__________________________________________________________________________________________________
conv2d_1 (Conv2D)               (None, 9, 9, 256)    32768       add[0][0]                        
__________________________________________________________________________________________________
block3_pool (MaxPooling2D)      (None, 9, 9, 256)    0           block3_sepconv2_bn[0][0]         
__________________________________________________________________________________________________
batch_normalization_1 (BatchNor (None, 9, 9, 256)    1024        conv2d_1[0][0]                   
__________________________________________________________________________________________________
add_1 (Add)                     (None, 9, 9, 256)    0           block3_pool[0][0]                
                                                                 batch_normalization_1[0][0]      
__________________________________________________________________________________________________
block4_sepconv1_act (Activation (None, 9, 9, 256)    0           add_1[0][0]                      
__________________________________________________________________________________________________
block4_sepconv1 (SeparableConv2 (None, 9, 9, 728)    188672      block4_sepconv1_act[0][0]        
__________________________________________________________________________________________________
block4_sepconv1_bn (BatchNormal (None, 9, 9, 728)    2912        block4_sepconv1[0][0]            
__________________________________________________________________________________________________
block4_sepconv2_act (Activation (None, 9, 9, 728)    0           block4_sepconv1_bn[0][0]         
__________________________________________________________________________________________________
block4_sepconv2 (SeparableConv2 (None, 9, 9, 728)    536536      block4_sepconv2_act[0][0]        
__________________________________________________________________________________________________
block4_sepconv2_bn (BatchNormal (None, 9, 9, 728)    2912        block4_sepconv2[0][0]            
__________________________________________________________________________________________________
conv2d_2 (Conv2D)               (None, 5, 5, 728)    186368      add_1[0][0]                      
__________________________________________________________________________________________________
block4_pool (MaxPooling2D)      (None, 5, 5, 728)    0           block4_sepconv2_bn[0][0]         
__________________________________________________________________________________________________
batch_normalization_2 (BatchNor (None, 5, 5, 728)    2912        conv2d_2[0][0]                   
__________________________________________________________________________________________________
add_2 (Add)                     (None, 5, 5, 728)    0           block4_pool[0][0]                
                                                                 batch_normalization_2[0][0]      
__________________________________________________________________________________________________
block5_sepconv1_act (Activation (None, 5, 5, 728)    0           add_2[0][0]                      
__________________________________________________________________________________________________
block5_sepconv1 (SeparableConv2 (None, 5, 5, 728)    536536      block5_sepconv1_act[0][0]        
__________________________________________________________________________________________________
block5_sepconv1_bn (BatchNormal (None, 5, 5, 728)    2912        block5_sepconv1[0][0]            
__________________________________________________________________________________________________
block5_sepconv2_act (Activation (None, 5, 5, 728)    0           block5_sepconv1_bn[0][0]         
__________________________________________________________________________________________________
block5_sepconv2 (SeparableConv2 (None, 5, 5, 728)    536536      block5_sepconv2_act[0][0]        
__________________________________________________________________________________________________
block5_sepconv2_bn (BatchNormal (None, 5, 5, 728)    2912        block5_sepconv2[0][0]            
__________________________________________________________________________________________________
block5_sepconv3_act (Activation (None, 5, 5, 728)    0           block5_sepconv2_bn[0][0]         
__________________________________________________________________________________________________
block5_sepconv3 (SeparableConv2 (None, 5, 5, 728)    536536      block5_sepconv3_act[0][0]        
__________________________________________________________________________________________________
block5_sepconv3_bn (BatchNormal (None, 5, 5, 728)    2912        block5_sepconv3[0][0]            
__________________________________________________________________________________________________
add_3 (Add)                     (None, 5, 5, 728)    0           block5_sepconv3_bn[0][0]         
                                                                 add_2[0][0]                      
__________________________________________________________________________________________________
block6_sepconv1_act (Activation (None, 5, 5, 728)    0           add_3[0][0]                      
__________________________________________________________________________________________________
block6_sepconv1 (SeparableConv2 (None, 5, 5, 728)    536536      block6_sepconv1_act[0][0]        
__________________________________________________________________________________________________
block6_sepconv1_bn (BatchNormal (None, 5, 5, 728)    2912        block6_sepconv1[0][0]            
__________________________________________________________________________________________________
block6_sepconv2_act (Activation (None, 5, 5, 728)    0           block6_sepconv1_bn[0][0]         
__________________________________________________________________________________________________
block6_sepconv2 (SeparableConv2 (None, 5, 5, 728)    536536      block6_sepconv2_act[0][0]        
__________________________________________________________________________________________________
block6_sepconv2_bn (BatchNormal (None, 5, 5, 728)    2912        block6_sepconv2[0][0]            
__________________________________________________________________________________________________
block6_sepconv3_act (Activation (None, 5, 5, 728)    0           block6_sepconv2_bn[0][0]         
__________________________________________________________________________________________________
block6_sepconv3 (SeparableConv2 (None, 5, 5, 728)    536536      block6_sepconv3_act[0][0]        
__________________________________________________________________________________________________
block6_sepconv3_bn (BatchNormal (None, 5, 5, 728)    2912        block6_sepconv3[0][0]            
__________________________________________________________________________________________________
add_4 (Add)                     (None, 5, 5, 728)    0           block6_sepconv3_bn[0][0]         
                                                                 add_3[0][0]                      
__________________________________________________________________________________________________
block7_sepconv1_act (Activation (None, 5, 5, 728)    0           add_4[0][0]                      
__________________________________________________________________________________________________
block7_sepconv1 (SeparableConv2 (None, 5, 5, 728)    536536      block7_sepconv1_act[0][0]        
__________________________________________________________________________________________________
block7_sepconv1_bn (BatchNormal (None, 5, 5, 728)    2912        block7_sepconv1[0][0]            
__________________________________________________________________________________________________
block7_sepconv2_act (Activation (None, 5, 5, 728)    0           block7_sepconv1_bn[0][0]         
__________________________________________________________________________________________________
block7_sepconv2 (SeparableConv2 (None, 5, 5, 728)    536536      block7_sepconv2_act[0][0]        
__________________________________________________________________________________________________
block7_sepconv2_bn (BatchNormal (None, 5, 5, 728)    2912        block7_sepconv2[0][0]            
__________________________________________________________________________________________________
block7_sepconv3_act (Activation (None, 5, 5, 728)    0           block7_sepconv2_bn[0][0]         
__________________________________________________________________________________________________
block7_sepconv3 (SeparableConv2 (None, 5, 5, 728)    536536      block7_sepconv3_act[0][0]        
__________________________________________________________________________________________________
block7_sepconv3_bn (BatchNormal (None, 5, 5, 728)    2912        block7_sepconv3[0][0]            
__________________________________________________________________________________________________
add_5 (Add)                     (None, 5, 5, 728)    0           block7_sepconv3_bn[0][0]         
                                                                 add_4[0][0]                      
__________________________________________________________________________________________________
block8_sepconv1_act (Activation (None, 5, 5, 728)    0           add_5[0][0]                      
__________________________________________________________________________________________________
block8_sepconv1 (SeparableConv2 (None, 5, 5, 728)    536536      block8_sepconv1_act[0][0]        
__________________________________________________________________________________________________
block8_sepconv1_bn (BatchNormal (None, 5, 5, 728)    2912        block8_sepconv1[0][0]            
__________________________________________________________________________________________________
block8_sepconv2_act (Activation (None, 5, 5, 728)    0           block8_sepconv1_bn[0][0]         
__________________________________________________________________________________________________
block8_sepconv2 (SeparableConv2 (None, 5, 5, 728)    536536      block8_sepconv2_act[0][0]        
__________________________________________________________________________________________________
block8_sepconv2_bn (BatchNormal (None, 5, 5, 728)    2912        block8_sepconv2[0][0]            
__________________________________________________________________________________________________
block8_sepconv3_act (Activation (None, 5, 5, 728)    0           block8_sepconv2_bn[0][0]         
__________________________________________________________________________________________________
block8_sepconv3 (SeparableConv2 (None, 5, 5, 728)    536536      block8_sepconv3_act[0][0]        
__________________________________________________________________________________________________
block8_sepconv3_bn (BatchNormal (None, 5, 5, 728)    2912        block8_sepconv3[0][0]            
__________________________________________________________________________________________________
add_6 (Add)                     (None, 5, 5, 728)    0           block8_sepconv3_bn[0][0]         
                                                                 add_5[0][0]                      
__________________________________________________________________________________________________
block9_sepconv1_act (Activation (None, 5, 5, 728)    0           add_6[0][0]                      
__________________________________________________________________________________________________
block9_sepconv1 (SeparableConv2 (None, 5, 5, 728)    536536      block9_sepconv1_act[0][0]        
__________________________________________________________________________________________________
block9_sepconv1_bn (BatchNormal (None, 5, 5, 728)    2912        block9_sepconv1[0][0]            
__________________________________________________________________________________________________
block9_sepconv2_act (Activation (None, 5, 5, 728)    0           block9_sepconv1_bn[0][0]         
__________________________________________________________________________________________________
block9_sepconv2 (SeparableConv2 (None, 5, 5, 728)    536536      block9_sepconv2_act[0][0]        
__________________________________________________________________________________________________
block9_sepconv2_bn (BatchNormal (None, 5, 5, 728)    2912        block9_sepconv2[0][0]            
__________________________________________________________________________________________________
block9_sepconv3_act (Activation (None, 5, 5, 728)    0           block9_sepconv2_bn[0][0]         
__________________________________________________________________________________________________
block9_sepconv3 (SeparableConv2 (None, 5, 5, 728)    536536      block9_sepconv3_act[0][0]        
__________________________________________________________________________________________________
block9_sepconv3_bn (BatchNormal (None, 5, 5, 728)    2912        block9_sepconv3[0][0]            
__________________________________________________________________________________________________
add_7 (Add)                     (None, 5, 5, 728)    0           block9_sepconv3_bn[0][0]         
                                                                 add_6[0][0]                      
__________________________________________________________________________________________________
block10_sepconv1_act (Activatio (None, 5, 5, 728)    0           add_7[0][0]                      
__________________________________________________________________________________________________
block10_sepconv1 (SeparableConv (None, 5, 5, 728)    536536      block10_sepconv1_act[0][0]       
__________________________________________________________________________________________________
block10_sepconv1_bn (BatchNorma (None, 5, 5, 728)    2912        block10_sepconv1[0][0]           
__________________________________________________________________________________________________
block10_sepconv2_act (Activatio (None, 5, 5, 728)    0           block10_sepconv1_bn[0][0]        
__________________________________________________________________________________________________
block10_sepconv2 (SeparableConv (None, 5, 5, 728)    536536      block10_sepconv2_act[0][0]       
__________________________________________________________________________________________________
block10_sepconv2_bn (BatchNorma (None, 5, 5, 728)    2912        block10_sepconv2[0][0]           
__________________________________________________________________________________________________
block10_sepconv3_act (Activatio (None, 5, 5, 728)    0           block10_sepconv2_bn[0][0]        
__________________________________________________________________________________________________
block10_sepconv3 (SeparableConv (None, 5, 5, 728)    536536      block10_sepconv3_act[0][0]       
__________________________________________________________________________________________________
block10_sepconv3_bn (BatchNorma (None, 5, 5, 728)    2912        block10_sepconv3[0][0]           
__________________________________________________________________________________________________
add_8 (Add)                     (None, 5, 5, 728)    0           block10_sepconv3_bn[0][0]        
                                                                 add_7[0][0]                      
__________________________________________________________________________________________________
block11_sepconv1_act (Activatio (None, 5, 5, 728)    0           add_8[0][0]                      
__________________________________________________________________________________________________
block11_sepconv1 (SeparableConv (None, 5, 5, 728)    536536      block11_sepconv1_act[0][0]       
__________________________________________________________________________________________________
block11_sepconv1_bn (BatchNorma (None, 5, 5, 728)    2912        block11_sepconv1[0][0]           
__________________________________________________________________________________________________
block11_sepconv2_act (Activatio (None, 5, 5, 728)    0           block11_sepconv1_bn[0][0]        
__________________________________________________________________________________________________
block11_sepconv2 (SeparableConv (None, 5, 5, 728)    536536      block11_sepconv2_act[0][0]       
__________________________________________________________________________________________________
block11_sepconv2_bn (BatchNorma (None, 5, 5, 728)    2912        block11_sepconv2[0][0]           
__________________________________________________________________________________________________
block11_sepconv3_act (Activatio (None, 5, 5, 728)    0           block11_sepconv2_bn[0][0]        
__________________________________________________________________________________________________
block11_sepconv3 (SeparableConv (None, 5, 5, 728)    536536      block11_sepconv3_act[0][0]       
__________________________________________________________________________________________________
block11_sepconv3_bn (BatchNorma (None, 5, 5, 728)    2912        block11_sepconv3[0][0]           
__________________________________________________________________________________________________
add_9 (Add)                     (None, 5, 5, 728)    0           block11_sepconv3_bn[0][0]        
                                                                 add_8[0][0]                      
__________________________________________________________________________________________________
block12_sepconv1_act (Activatio (None, 5, 5, 728)    0           add_9[0][0]                      
__________________________________________________________________________________________________
block12_sepconv1 (SeparableConv (None, 5, 5, 728)    536536      block12_sepconv1_act[0][0]       
__________________________________________________________________________________________________
block12_sepconv1_bn (BatchNorma (None, 5, 5, 728)    2912        block12_sepconv1[0][0]           
__________________________________________________________________________________________________
block12_sepconv2_act (Activatio (None, 5, 5, 728)    0           block12_sepconv1_bn[0][0]        
__________________________________________________________________________________________________
block12_sepconv2 (SeparableConv (None, 5, 5, 728)    536536      block12_sepconv2_act[0][0]       
__________________________________________________________________________________________________
block12_sepconv2_bn (BatchNorma (None, 5, 5, 728)    2912        block12_sepconv2[0][0]           
__________________________________________________________________________________________________
block12_sepconv3_act (Activatio (None, 5, 5, 728)    0           block12_sepconv2_bn[0][0]        
__________________________________________________________________________________________________
block12_sepconv3 (SeparableConv (None, 5, 5, 728)    536536      block12_sepconv3_act[0][0]       
__________________________________________________________________________________________________
block12_sepconv3_bn (BatchNorma (None, 5, 5, 728)    2912        block12_sepconv3[0][0]           
__________________________________________________________________________________________________
add_10 (Add)                    (None, 5, 5, 728)    0           block12_sepconv3_bn[0][0]        
                                                                 add_9[0][0]                      
__________________________________________________________________________________________________
block13_sepconv1_act (Activatio (None, 5, 5, 728)    0           add_10[0][0]                     
__________________________________________________________________________________________________
block13_sepconv1 (SeparableConv (None, 5, 5, 728)    536536      block13_sepconv1_act[0][0]       
__________________________________________________________________________________________________
block13_sepconv1_bn (BatchNorma (None, 5, 5, 728)    2912        block13_sepconv1[0][0]           
__________________________________________________________________________________________________
block13_sepconv2_act (Activatio (None, 5, 5, 728)    0           block13_sepconv1_bn[0][0]        
__________________________________________________________________________________________________
block13_sepconv2 (SeparableConv (None, 5, 5, 1024)   752024      block13_sepconv2_act[0][0]       
__________________________________________________________________________________________________
block13_sepconv2_bn (BatchNorma (None, 5, 5, 1024)   4096        block13_sepconv2[0][0]           
__________________________________________________________________________________________________
conv2d_3 (Conv2D)               (None, 3, 3, 1024)   745472      add_10[0][0]                     
__________________________________________________________________________________________________
block13_pool (MaxPooling2D)     (None, 3, 3, 1024)   0           block13_sepconv2_bn[0][0]        
__________________________________________________________________________________________________
batch_normalization_3 (BatchNor (None, 3, 3, 1024)   4096        conv2d_3[0][0]                   
__________________________________________________________________________________________________
add_11 (Add)                    (None, 3, 3, 1024)   0           block13_pool[0][0]               
                                                                 batch_normalization_3[0][0]      
__________________________________________________________________________________________________
block14_sepconv1 (SeparableConv (None, 3, 3, 1536)   1582080     add_11[0][0]                     
__________________________________________________________________________________________________
block14_sepconv1_bn (BatchNorma (None, 3, 3, 1536)   6144        block14_sepconv1[0][0]           
__________________________________________________________________________________________________
block14_sepconv1_act (Activatio (None, 3, 3, 1536)   0           block14_sepconv1_bn[0][0]        
__________________________________________________________________________________________________
block14_sepconv2 (SeparableConv (None, 3, 3, 2048)   3159552     block14_sepconv1_act[0][0]       
__________________________________________________________________________________________________
block14_sepconv2_bn (BatchNorma (None, 3, 3, 2048)   8192        block14_sepconv2[0][0]           
__________________________________________________________________________________________________
block14_sepconv2_act (Activatio (None, 3, 3, 2048)   0           block14_sepconv2_bn[0][0]        
__________________________________________________________________________________________________
flatten (Flatten)               (None, 18432)        0           block14_sepconv2_act[0][0]       
__________________________________________________________________________________________________
fc1 (Dense)                     (None, 4096)         75501568    flatten[0][0]                    
__________________________________________________________________________________________________
fc2 (Dense)                     (None, 4096)         16781312    fc1[0][0]                        
__________________________________________________________________________________________________
predictions (Dense)             (None, 10)           40970       fc2[0][0]                        
==================================================================================================
Total params: 113,185,330
Trainable params: 113,130,802
Non-trainable params: 54,528
__________________________________________________________________________________________________
Start fitting ensemble models
Length split part:  16667
Labels in this part of split:  [1667, 1656, 1712, 1682, 1675, 1579, 1703, 1687, 1681, 1625]
…
2020-05-25 11:26:03.165920: E tensorflow/core/profiler/internal/gpu/cupti_tracer.cc:1329] function cupti_interface_->EnableCallback( 0 , subscriber_, CUPTI_CB_DOMAIN_DRIVER_API, cbid)failed with error CUPTI_ERROR_INVALID_PARAMETER
2020-05-25 11:26:03.166005: I tensorflow/core/profiler/internal/gpu/device_tracer.cc:88]  GpuTracer has collected 0 callback api events and 0 activity events.
Epoch 00026: early stopping
VGG16
Model: "model"
_________________________________________________________________
Layer (type)                 Output Shape              Param #   
=================================================================
input_1 (InputLayer)         [(None, 75, 75, 3)]       0         
_________________________________________________________________
block1_conv1 (Conv2D)        (None, 75, 75, 64)        1792      
_________________________________________________________________
block1_conv2 (Conv2D)        (None, 75, 75, 64)        36928     
_________________________________________________________________
block1_pool (MaxPooling2D)   (None, 37, 37, 64)        0         
_________________________________________________________________
block2_conv1 (Conv2D)        (None, 37, 37, 128)       73856     
_________________________________________________________________
block2_conv2 (Conv2D)        (None, 37, 37, 128)       147584    
_________________________________________________________________
block2_pool (MaxPooling2D)   (None, 18, 18, 128)       0         
_________________________________________________________________
block3_conv1 (Conv2D)        (None, 18, 18, 256)       295168    
_________________________________________________________________
block3_conv2 (Conv2D)        (None, 18, 18, 256)       590080    
_________________________________________________________________
block3_conv3 (Conv2D)        (None, 18, 18, 256)       590080    
_________________________________________________________________
block3_pool (MaxPooling2D)   (None, 9, 9, 256)         0         
_________________________________________________________________
block4_conv1 (Conv2D)        (None, 9, 9, 512)         1180160   
_________________________________________________________________
block4_conv2 (Conv2D)        (None, 9, 9, 512)         2359808   
_________________________________________________________________
block4_conv3 (Conv2D)        (None, 9, 9, 512)         2359808   
_________________________________________________________________
block4_pool (MaxPooling2D)   (None, 4, 4, 512)         0         
_________________________________________________________________
block5_conv1 (Conv2D)        (None, 4, 4, 512)         2359808   
_________________________________________________________________
block5_conv2 (Conv2D)        (None, 4, 4, 512)         2359808   
_________________________________________________________________
block5_conv3 (Conv2D)        (None, 4, 4, 512)         2359808   
_________________________________________________________________
block5_pool (MaxPooling2D)   (None, 2, 2, 512)         0         
_________________________________________________________________
flatten (Flatten)            (None, 2048)              0         
_________________________________________________________________
fc1 (Dense)                  (None, 4096)              8392704   
_________________________________________________________________
fc2 (Dense)                  (None, 4096)              16781312  
_________________________________________________________________
predictions (Dense)          (None, 10)                40970     
=================================================================
Total params: 39,929,674
Trainable params: 39,929,674
Non-trainable params: 0
_________________________________________________________________
Start fitting ensemble models
Length split part:  16667
Labels in this part of split:  [1667, 1656, 1712, 1682, 1675, 1579, 1703, 1687, 1681, 1625]
Train for 521 steps, validate for 40 steps
…
2020-05-25 11:58:55.300717: E tensorflow/core/profiler/internal/gpu/cupti_tracer.cc:1329] function cupti_interface_->EnableCallback( 0 , subscriber_, CUPTI_CB_DOMAIN_DRIVER_API, cbid)failed with error CUPTI_ERROR_INVALID_PARAMETER
2020-05-25 11:58:55.300865: I tensorflow/core/profiler/internal/gpu/device_tracer.cc:88]  GpuTracer has collected 0 callback api events and 0 activity events.
Epoch 00037: early stopping
VGG19
Model: "model"
_________________________________________________________________
Layer (type)                 Output Shape              Param #   
=================================================================
input_1 (InputLayer)         [(None, 75, 75, 3)]       0         
_________________________________________________________________
block1_conv1 (Conv2D)        (None, 75, 75, 64)        1792      
_________________________________________________________________
block1_conv2 (Conv2D)        (None, 75, 75, 64)        36928     
_________________________________________________________________
block1_pool (MaxPooling2D)   (None, 37, 37, 64)        0         
_________________________________________________________________
block2_conv1 (Conv2D)        (None, 37, 37, 128)       73856     
_________________________________________________________________
block2_conv2 (Conv2D)        (None, 37, 37, 128)       147584    
_________________________________________________________________
block2_pool (MaxPooling2D)   (None, 18, 18, 128)       0         
_________________________________________________________________
block3_conv1 (Conv2D)        (None, 18, 18, 256)       295168    
_________________________________________________________________
block3_conv2 (Conv2D)        (None, 18, 18, 256)       590080    
_________________________________________________________________
block3_conv3 (Conv2D)        (None, 18, 18, 256)       590080    
_________________________________________________________________
block3_conv4 (Conv2D)        (None, 18, 18, 256)       590080    
_________________________________________________________________
block3_pool (MaxPooling2D)   (None, 9, 9, 256)         0         
_________________________________________________________________
block4_conv1 (Conv2D)        (None, 9, 9, 512)         1180160   
_________________________________________________________________
block4_conv2 (Conv2D)        (None, 9, 9, 512)         2359808   
_________________________________________________________________
block4_conv3 (Conv2D)        (None, 9, 9, 512)         2359808   
_________________________________________________________________
block4_conv4 (Conv2D)        (None, 9, 9, 512)         2359808   
_________________________________________________________________
block4_pool (MaxPooling2D)   (None, 4, 4, 512)         0         
_________________________________________________________________
block5_conv1 (Conv2D)        (None, 4, 4, 512)         2359808   
_________________________________________________________________
block5_conv2 (Conv2D)        (None, 4, 4, 512)         2359808   
_________________________________________________________________
block5_conv3 (Conv2D)        (None, 4, 4, 512)         2359808   
_________________________________________________________________
block5_conv4 (Conv2D)        (None, 4, 4, 512)         2359808   
_________________________________________________________________
block5_pool (MaxPooling2D)   (None, 2, 2, 512)         0         
_________________________________________________________________
flatten (Flatten)            (None, 2048)              0         
_________________________________________________________________
fc1 (Dense)                  (None, 4096)              8392704   
_________________________________________________________________
fc2 (Dense)                  (None, 4096)              16781312  
_________________________________________________________________
predictions (Dense)          (None, 10)                40970     
=================================================================
Total params: 45,239,370
Trainable params: 45,239,370
Non-trainable params: 0
_________________________________________________________________
Start fitting ensemble models
Length split part:  16667
Labels in this part of split:  [1667, 1656, 1712, 1682, 1675, 1579, 1703, 1687, 1681, 1625]
Train for 521 steps, validate for 40 steps
…
2020-05-25 12:41:04.348975: I tensorflow/core/profiler/internal/gpu/device_tracer.cc:88]  GpuTracer has collected 0 callback api events and 0 activity events.
Epoch 00045: early stopping
ResNet50
Model: "model"
__________________________________________________________________________________________________
Layer (type)                    Output Shape         Param #     Connected to                     
==================================================================================================
input_1 (InputLayer)            [(None, 75, 75, 3)]  0                                            
__________________________________________________________________________________________________
conv1_pad (ZeroPadding2D)       (None, 81, 81, 3)    0           input_1[0][0]                    
__________________________________________________________________________________________________
conv1_conv (Conv2D)             (None, 38, 38, 64)   9472        conv1_pad[0][0]                  
__________________________________________________________________________________________________
conv1_bn (BatchNormalization)   (None, 38, 38, 64)   256         conv1_conv[0][0]                 
__________________________________________________________________________________________________
conv1_relu (Activation)         (None, 38, 38, 64)   0           conv1_bn[0][0]                   
__________________________________________________________________________________________________
pool1_pad (ZeroPadding2D)       (None, 40, 40, 64)   0           conv1_relu[0][0]                 
__________________________________________________________________________________________________
pool1_pool (MaxPooling2D)       (None, 19, 19, 64)   0           pool1_pad[0][0]                  
__________________________________________________________________________________________________
conv2_block1_1_conv (Conv2D)    (None, 19, 19, 64)   4160        pool1_pool[0][0]                 
__________________________________________________________________________________________________
conv2_block1_1_bn (BatchNormali (None, 19, 19, 64)   256         conv2_block1_1_conv[0][0]        
__________________________________________________________________________________________________
conv2_block1_1_relu (Activation (None, 19, 19, 64)   0           conv2_block1_1_bn[0][0]          
__________________________________________________________________________________________________
conv2_block1_2_conv (Conv2D)    (None, 19, 19, 64)   36928       conv2_block1_1_relu[0][0]        
__________________________________________________________________________________________________
conv2_block1_2_bn (BatchNormali (None, 19, 19, 64)   256         conv2_block1_2_conv[0][0]        
__________________________________________________________________________________________________
conv2_block1_2_relu (Activation (None, 19, 19, 64)   0           conv2_block1_2_bn[0][0]          
__________________________________________________________________________________________________
conv2_block1_0_conv (Conv2D)    (None, 19, 19, 256)  16640       pool1_pool[0][0]                 
__________________________________________________________________________________________________
conv2_block1_3_conv (Conv2D)    (None, 19, 19, 256)  16640       conv2_block1_2_relu[0][0]        
__________________________________________________________________________________________________
conv2_block1_0_bn (BatchNormali (None, 19, 19, 256)  1024        conv2_block1_0_conv[0][0]        
__________________________________________________________________________________________________
conv2_block1_3_bn (BatchNormali (None, 19, 19, 256)  1024        conv2_block1_3_conv[0][0]        
__________________________________________________________________________________________________
conv2_block1_add (Add)          (None, 19, 19, 256)  0           conv2_block1_0_bn[0][0]          
                                                                 conv2_block1_3_bn[0][0]          
__________________________________________________________________________________________________
conv2_block1_out (Activation)   (None, 19, 19, 256)  0           conv2_block1_add[0][0]           
__________________________________________________________________________________________________
conv2_block2_1_conv (Conv2D)    (None, 19, 19, 64)   16448       conv2_block1_out[0][0]           
__________________________________________________________________________________________________
conv2_block2_1_bn (BatchNormali (None, 19, 19, 64)   256         conv2_block2_1_conv[0][0]        
__________________________________________________________________________________________________
conv2_block2_1_relu (Activation (None, 19, 19, 64)   0           conv2_block2_1_bn[0][0]          
__________________________________________________________________________________________________
conv2_block2_2_conv (Conv2D)    (None, 19, 19, 64)   36928       conv2_block2_1_relu[0][0]        
__________________________________________________________________________________________________
conv2_block2_2_bn (BatchNormali (None, 19, 19, 64)   256         conv2_block2_2_conv[0][0]        
__________________________________________________________________________________________________
conv2_block2_2_relu (Activation (None, 19, 19, 64)   0           conv2_block2_2_bn[0][0]          
__________________________________________________________________________________________________
conv2_block2_3_conv (Conv2D)    (None, 19, 19, 256)  16640       conv2_block2_2_relu[0][0]        
__________________________________________________________________________________________________
conv2_block2_3_bn (BatchNormali (None, 19, 19, 256)  1024        conv2_block2_3_conv[0][0]        
__________________________________________________________________________________________________
conv2_block2_add (Add)          (None, 19, 19, 256)  0           conv2_block1_out[0][0]           
                                                                 conv2_block2_3_bn[0][0]          
__________________________________________________________________________________________________
conv2_block2_out (Activation)   (None, 19, 19, 256)  0           conv2_block2_add[0][0]           
__________________________________________________________________________________________________
conv2_block3_1_conv (Conv2D)    (None, 19, 19, 64)   16448       conv2_block2_out[0][0]           
__________________________________________________________________________________________________
conv2_block3_1_bn (BatchNormali (None, 19, 19, 64)   256         conv2_block3_1_conv[0][0]        
__________________________________________________________________________________________________
conv2_block3_1_relu (Activation (None, 19, 19, 64)   0           conv2_block3_1_bn[0][0]          
__________________________________________________________________________________________________
conv2_block3_2_conv (Conv2D)    (None, 19, 19, 64)   36928       conv2_block3_1_relu[0][0]        
__________________________________________________________________________________________________
conv2_block3_2_bn (BatchNormali (None, 19, 19, 64)   256         conv2_block3_2_conv[0][0]        
__________________________________________________________________________________________________
conv2_block3_2_relu (Activation (None, 19, 19, 64)   0           conv2_block3_2_bn[0][0]          
__________________________________________________________________________________________________
conv2_block3_3_conv (Conv2D)    (None, 19, 19, 256)  16640       conv2_block3_2_relu[0][0]        
__________________________________________________________________________________________________
conv2_block3_3_bn (BatchNormali (None, 19, 19, 256)  1024        conv2_block3_3_conv[0][0]        
__________________________________________________________________________________________________
conv2_block3_add (Add)          (None, 19, 19, 256)  0           conv2_block2_out[0][0]           
                                                                 conv2_block3_3_bn[0][0]          
__________________________________________________________________________________________________
conv2_block3_out (Activation)   (None, 19, 19, 256)  0           conv2_block3_add[0][0]           
__________________________________________________________________________________________________
conv3_block1_1_conv (Conv2D)    (None, 10, 10, 128)  32896       conv2_block3_out[0][0]           
__________________________________________________________________________________________________
conv3_block1_1_bn (BatchNormali (None, 10, 10, 128)  512         conv3_block1_1_conv[0][0]        
__________________________________________________________________________________________________
conv3_block1_1_relu (Activation (None, 10, 10, 128)  0           conv3_block1_1_bn[0][0]          
__________________________________________________________________________________________________
conv3_block1_2_conv (Conv2D)    (None, 10, 10, 128)  147584      conv3_block1_1_relu[0][0]        
__________________________________________________________________________________________________
conv3_block1_2_bn (BatchNormali (None, 10, 10, 128)  512         conv3_block1_2_conv[0][0]        
__________________________________________________________________________________________________
conv3_block1_2_relu (Activation (None, 10, 10, 128)  0           conv3_block1_2_bn[0][0]          
__________________________________________________________________________________________________
conv3_block1_0_conv (Conv2D)    (None, 10, 10, 512)  131584      conv2_block3_out[0][0]           
__________________________________________________________________________________________________
conv3_block1_3_conv (Conv2D)    (None, 10, 10, 512)  66048       conv3_block1_2_relu[0][0]        
__________________________________________________________________________________________________
conv3_block1_0_bn (BatchNormali (None, 10, 10, 512)  2048        conv3_block1_0_conv[0][0]        
__________________________________________________________________________________________________
conv3_block1_3_bn (BatchNormali (None, 10, 10, 512)  2048        conv3_block1_3_conv[0][0]        
__________________________________________________________________________________________________
conv3_block1_add (Add)          (None, 10, 10, 512)  0           conv3_block1_0_bn[0][0]          
                                                                 conv3_block1_3_bn[0][0]          
__________________________________________________________________________________________________
conv3_block1_out (Activation)   (None, 10, 10, 512)  0           conv3_block1_add[0][0]           
__________________________________________________________________________________________________
conv3_block2_1_conv (Conv2D)    (None, 10, 10, 128)  65664       conv3_block1_out[0][0]           
__________________________________________________________________________________________________
conv3_block2_1_bn (BatchNormali (None, 10, 10, 128)  512         conv3_block2_1_conv[0][0]        
__________________________________________________________________________________________________
conv3_block2_1_relu (Activation (None, 10, 10, 128)  0           conv3_block2_1_bn[0][0]          
__________________________________________________________________________________________________
conv3_block2_2_conv (Conv2D)    (None, 10, 10, 128)  147584      conv3_block2_1_relu[0][0]        
__________________________________________________________________________________________________
conv3_block2_2_bn (BatchNormali (None, 10, 10, 128)  512         conv3_block2_2_conv[0][0]        
__________________________________________________________________________________________________
conv3_block2_2_relu (Activation (None, 10, 10, 128)  0           conv3_block2_2_bn[0][0]          
__________________________________________________________________________________________________
conv3_block2_3_conv (Conv2D)    (None, 10, 10, 512)  66048       conv3_block2_2_relu[0][0]        
__________________________________________________________________________________________________
conv3_block2_3_bn (BatchNormali (None, 10, 10, 512)  2048        conv3_block2_3_conv[0][0]        
__________________________________________________________________________________________________
conv3_block2_add (Add)          (None, 10, 10, 512)  0           conv3_block1_out[0][0]           
                                                                 conv3_block2_3_bn[0][0]          
__________________________________________________________________________________________________
conv3_block2_out (Activation)   (None, 10, 10, 512)  0           conv3_block2_add[0][0]           
__________________________________________________________________________________________________
conv3_block3_1_conv (Conv2D)    (None, 10, 10, 128)  65664       conv3_block2_out[0][0]           
__________________________________________________________________________________________________
conv3_block3_1_bn (BatchNormali (None, 10, 10, 128)  512         conv3_block3_1_conv[0][0]        
__________________________________________________________________________________________________
conv3_block3_1_relu (Activation (None, 10, 10, 128)  0           conv3_block3_1_bn[0][0]          
__________________________________________________________________________________________________
conv3_block3_2_conv (Conv2D)    (None, 10, 10, 128)  147584      conv3_block3_1_relu[0][0]        
__________________________________________________________________________________________________
conv3_block3_2_bn (BatchNormali (None, 10, 10, 128)  512         conv3_block3_2_conv[0][0]        
__________________________________________________________________________________________________
conv3_block3_2_relu (Activation (None, 10, 10, 128)  0           conv3_block3_2_bn[0][0]          
__________________________________________________________________________________________________
conv3_block3_3_conv (Conv2D)    (None, 10, 10, 512)  66048       conv3_block3_2_relu[0][0]        
__________________________________________________________________________________________________
conv3_block3_3_bn (BatchNormali (None, 10, 10, 512)  2048        conv3_block3_3_conv[0][0]        
__________________________________________________________________________________________________
conv3_block3_add (Add)          (None, 10, 10, 512)  0           conv3_block2_out[0][0]           
                                                                 conv3_block3_3_bn[0][0]          
__________________________________________________________________________________________________
conv3_block3_out (Activation)   (None, 10, 10, 512)  0           conv3_block3_add[0][0]           
__________________________________________________________________________________________________
conv3_block4_1_conv (Conv2D)    (None, 10, 10, 128)  65664       conv3_block3_out[0][0]           
__________________________________________________________________________________________________
conv3_block4_1_bn (BatchNormali (None, 10, 10, 128)  512         conv3_block4_1_conv[0][0]        
__________________________________________________________________________________________________
conv3_block4_1_relu (Activation (None, 10, 10, 128)  0           conv3_block4_1_bn[0][0]          
__________________________________________________________________________________________________
conv3_block4_2_conv (Conv2D)    (None, 10, 10, 128)  147584      conv3_block4_1_relu[0][0]        
__________________________________________________________________________________________________
conv3_block4_2_bn (BatchNormali (None, 10, 10, 128)  512         conv3_block4_2_conv[0][0]        
__________________________________________________________________________________________________
conv3_block4_2_relu (Activation (None, 10, 10, 128)  0           conv3_block4_2_bn[0][0]          
__________________________________________________________________________________________________
conv3_block4_3_conv (Conv2D)    (None, 10, 10, 512)  66048       conv3_block4_2_relu[0][0]        
__________________________________________________________________________________________________
conv3_block4_3_bn (BatchNormali (None, 10, 10, 512)  2048        conv3_block4_3_conv[0][0]        
__________________________________________________________________________________________________
conv3_block4_add (Add)          (None, 10, 10, 512)  0           conv3_block3_out[0][0]           
                                                                 conv3_block4_3_bn[0][0]          
__________________________________________________________________________________________________
conv3_block4_out (Activation)   (None, 10, 10, 512)  0           conv3_block4_add[0][0]           
__________________________________________________________________________________________________
conv4_block1_1_conv (Conv2D)    (None, 5, 5, 256)    131328      conv3_block4_out[0][0]           
__________________________________________________________________________________________________
conv4_block1_1_bn (BatchNormali (None, 5, 5, 256)    1024        conv4_block1_1_conv[0][0]        
__________________________________________________________________________________________________
conv4_block1_1_relu (Activation (None, 5, 5, 256)    0           conv4_block1_1_bn[0][0]          
__________________________________________________________________________________________________
conv4_block1_2_conv (Conv2D)    (None, 5, 5, 256)    590080      conv4_block1_1_relu[0][0]        
__________________________________________________________________________________________________
conv4_block1_2_bn (BatchNormali (None, 5, 5, 256)    1024        conv4_block1_2_conv[0][0]        
__________________________________________________________________________________________________
conv4_block1_2_relu (Activation (None, 5, 5, 256)    0           conv4_block1_2_bn[0][0]          
__________________________________________________________________________________________________
conv4_block1_0_conv (Conv2D)    (None, 5, 5, 1024)   525312      conv3_block4_out[0][0]           
__________________________________________________________________________________________________
conv4_block1_3_conv (Conv2D)    (None, 5, 5, 1024)   263168      conv4_block1_2_relu[0][0]        
__________________________________________________________________________________________________
conv4_block1_0_bn (BatchNormali (None, 5, 5, 1024)   4096        conv4_block1_0_conv[0][0]        
__________________________________________________________________________________________________
conv4_block1_3_bn (BatchNormali (None, 5, 5, 1024)   4096        conv4_block1_3_conv[0][0]        
__________________________________________________________________________________________________
conv4_block1_add (Add)          (None, 5, 5, 1024)   0           conv4_block1_0_bn[0][0]          
                                                                 conv4_block1_3_bn[0][0]          
__________________________________________________________________________________________________
conv4_block1_out (Activation)   (None, 5, 5, 1024)   0           conv4_block1_add[0][0]           
__________________________________________________________________________________________________
conv4_block2_1_conv (Conv2D)    (None, 5, 5, 256)    262400      conv4_block1_out[0][0]           
__________________________________________________________________________________________________
conv4_block2_1_bn (BatchNormali (None, 5, 5, 256)    1024        conv4_block2_1_conv[0][0]        
__________________________________________________________________________________________________
conv4_block2_1_relu (Activation (None, 5, 5, 256)    0           conv4_block2_1_bn[0][0]          
__________________________________________________________________________________________________
conv4_block2_2_conv (Conv2D)    (None, 5, 5, 256)    590080      conv4_block2_1_relu[0][0]        
__________________________________________________________________________________________________
conv4_block2_2_bn (BatchNormali (None, 5, 5, 256)    1024        conv4_block2_2_conv[0][0]        
__________________________________________________________________________________________________
conv4_block2_2_relu (Activation (None, 5, 5, 256)    0           conv4_block2_2_bn[0][0]          
__________________________________________________________________________________________________
conv4_block2_3_conv (Conv2D)    (None, 5, 5, 1024)   263168      conv4_block2_2_relu[0][0]        
__________________________________________________________________________________________________
conv4_block2_3_bn (BatchNormali (None, 5, 5, 1024)   4096        conv4_block2_3_conv[0][0]        
__________________________________________________________________________________________________
conv4_block2_add (Add)          (None, 5, 5, 1024)   0           conv4_block1_out[0][0]           
                                                                 conv4_block2_3_bn[0][0]          
__________________________________________________________________________________________________
conv4_block2_out (Activation)   (None, 5, 5, 1024)   0           conv4_block2_add[0][0]           
__________________________________________________________________________________________________
conv4_block3_1_conv (Conv2D)    (None, 5, 5, 256)    262400      conv4_block2_out[0][0]           
__________________________________________________________________________________________________
conv4_block3_1_bn (BatchNormali (None, 5, 5, 256)    1024        conv4_block3_1_conv[0][0]        
__________________________________________________________________________________________________
conv4_block3_1_relu (Activation (None, 5, 5, 256)    0           conv4_block3_1_bn[0][0]          
__________________________________________________________________________________________________
conv4_block3_2_conv (Conv2D)    (None, 5, 5, 256)    590080      conv4_block3_1_relu[0][0]        
__________________________________________________________________________________________________
conv4_block3_2_bn (BatchNormali (None, 5, 5, 256)    1024        conv4_block3_2_conv[0][0]        
__________________________________________________________________________________________________
conv4_block3_2_relu (Activation (None, 5, 5, 256)    0           conv4_block3_2_bn[0][0]          
__________________________________________________________________________________________________
conv4_block3_3_conv (Conv2D)    (None, 5, 5, 1024)   263168      conv4_block3_2_relu[0][0]        
__________________________________________________________________________________________________
conv4_block3_3_bn (BatchNormali (None, 5, 5, 1024)   4096        conv4_block3_3_conv[0][0]        
__________________________________________________________________________________________________
conv4_block3_add (Add)          (None, 5, 5, 1024)   0           conv4_block2_out[0][0]           
                                                                 conv4_block3_3_bn[0][0]          
__________________________________________________________________________________________________
conv4_block3_out (Activation)   (None, 5, 5, 1024)   0           conv4_block3_add[0][0]           
__________________________________________________________________________________________________
conv4_block4_1_conv (Conv2D)    (None, 5, 5, 256)    262400      conv4_block3_out[0][0]           
__________________________________________________________________________________________________
conv4_block4_1_bn (BatchNormali (None, 5, 5, 256)    1024        conv4_block4_1_conv[0][0]        
__________________________________________________________________________________________________
conv4_block4_1_relu (Activation (None, 5, 5, 256)    0           conv4_block4_1_bn[0][0]          
__________________________________________________________________________________________________
conv4_block4_2_conv (Conv2D)    (None, 5, 5, 256)    590080      conv4_block4_1_relu[0][0]        
__________________________________________________________________________________________________
conv4_block4_2_bn (BatchNormali (None, 5, 5, 256)    1024        conv4_block4_2_conv[0][0]        
__________________________________________________________________________________________________
conv4_block4_2_relu (Activation (None, 5, 5, 256)    0           conv4_block4_2_bn[0][0]          
__________________________________________________________________________________________________
conv4_block4_3_conv (Conv2D)    (None, 5, 5, 1024)   263168      conv4_block4_2_relu[0][0]        
__________________________________________________________________________________________________
conv4_block4_3_bn (BatchNormali (None, 5, 5, 1024)   4096        conv4_block4_3_conv[0][0]        
__________________________________________________________________________________________________
conv4_block4_add (Add)          (None, 5, 5, 1024)   0           conv4_block3_out[0][0]           
                                                                 conv4_block4_3_bn[0][0]          
__________________________________________________________________________________________________
conv4_block4_out (Activation)   (None, 5, 5, 1024)   0           conv4_block4_add[0][0]           
__________________________________________________________________________________________________
conv4_block5_1_conv (Conv2D)    (None, 5, 5, 256)    262400      conv4_block4_out[0][0]           
__________________________________________________________________________________________________
conv4_block5_1_bn (BatchNormali (None, 5, 5, 256)    1024        conv4_block5_1_conv[0][0]        
__________________________________________________________________________________________________
conv4_block5_1_relu (Activation (None, 5, 5, 256)    0           conv4_block5_1_bn[0][0]          
__________________________________________________________________________________________________
conv4_block5_2_conv (Conv2D)    (None, 5, 5, 256)    590080      conv4_block5_1_relu[0][0]        
__________________________________________________________________________________________________
conv4_block5_2_bn (BatchNormali (None, 5, 5, 256)    1024        conv4_block5_2_conv[0][0]        
__________________________________________________________________________________________________
conv4_block5_2_relu (Activation (None, 5, 5, 256)    0           conv4_block5_2_bn[0][0]          
__________________________________________________________________________________________________
conv4_block5_3_conv (Conv2D)    (None, 5, 5, 1024)   263168      conv4_block5_2_relu[0][0]        
__________________________________________________________________________________________________
conv4_block5_3_bn (BatchNormali (None, 5, 5, 1024)   4096        conv4_block5_3_conv[0][0]        
__________________________________________________________________________________________________
conv4_block5_add (Add)          (None, 5, 5, 1024)   0           conv4_block4_out[0][0]           
                                                                 conv4_block5_3_bn[0][0]          
__________________________________________________________________________________________________
conv4_block5_out (Activation)   (None, 5, 5, 1024)   0           conv4_block5_add[0][0]           
__________________________________________________________________________________________________
conv4_block6_1_conv (Conv2D)    (None, 5, 5, 256)    262400      conv4_block5_out[0][0]           
__________________________________________________________________________________________________
conv4_block6_1_bn (BatchNormali (None, 5, 5, 256)    1024        conv4_block6_1_conv[0][0]        
__________________________________________________________________________________________________
conv4_block6_1_relu (Activation (None, 5, 5, 256)    0           conv4_block6_1_bn[0][0]          
__________________________________________________________________________________________________
conv4_block6_2_conv (Conv2D)    (None, 5, 5, 256)    590080      conv4_block6_1_relu[0][0]        
__________________________________________________________________________________________________
conv4_block6_2_bn (BatchNormali (None, 5, 5, 256)    1024        conv4_block6_2_conv[0][0]        
__________________________________________________________________________________________________
conv4_block6_2_relu (Activation (None, 5, 5, 256)    0           conv4_block6_2_bn[0][0]          
__________________________________________________________________________________________________
conv4_block6_3_conv (Conv2D)    (None, 5, 5, 1024)   263168      conv4_block6_2_relu[0][0]        
__________________________________________________________________________________________________
conv4_block6_3_bn (BatchNormali (None, 5, 5, 1024)   4096        conv4_block6_3_conv[0][0]        
__________________________________________________________________________________________________
conv4_block6_add (Add)          (None, 5, 5, 1024)   0           conv4_block5_out[0][0]           
                                                                 conv4_block6_3_bn[0][0]          
__________________________________________________________________________________________________
conv4_block6_out (Activation)   (None, 5, 5, 1024)   0           conv4_block6_add[0][0]           
__________________________________________________________________________________________________
conv5_block1_1_conv (Conv2D)    (None, 3, 3, 512)    524800      conv4_block6_out[0][0]           
__________________________________________________________________________________________________
conv5_block1_1_bn (BatchNormali (None, 3, 3, 512)    2048        conv5_block1_1_conv[0][0]        
__________________________________________________________________________________________________
conv5_block1_1_relu (Activation (None, 3, 3, 512)    0           conv5_block1_1_bn[0][0]          
__________________________________________________________________________________________________
conv5_block1_2_conv (Conv2D)    (None, 3, 3, 512)    2359808     conv5_block1_1_relu[0][0]        
__________________________________________________________________________________________________
conv5_block1_2_bn (BatchNormali (None, 3, 3, 512)    2048        conv5_block1_2_conv[0][0]        
__________________________________________________________________________________________________
conv5_block1_2_relu (Activation (None, 3, 3, 512)    0           conv5_block1_2_bn[0][0]          
__________________________________________________________________________________________________
conv5_block1_0_conv (Conv2D)    (None, 3, 3, 2048)   2099200     conv4_block6_out[0][0]           
__________________________________________________________________________________________________
conv5_block1_3_conv (Conv2D)    (None, 3, 3, 2048)   1050624     conv5_block1_2_relu[0][0]        
__________________________________________________________________________________________________
conv5_block1_0_bn (BatchNormali (None, 3, 3, 2048)   8192        conv5_block1_0_conv[0][0]        
__________________________________________________________________________________________________
conv5_block1_3_bn (BatchNormali (None, 3, 3, 2048)   8192        conv5_block1_3_conv[0][0]        
__________________________________________________________________________________________________
conv5_block1_add (Add)          (None, 3, 3, 2048)   0           conv5_block1_0_bn[0][0]          
                                                                 conv5_block1_3_bn[0][0]          
__________________________________________________________________________________________________
conv5_block1_out (Activation)   (None, 3, 3, 2048)   0           conv5_block1_add[0][0]           
__________________________________________________________________________________________________
conv5_block2_1_conv (Conv2D)    (None, 3, 3, 512)    1049088     conv5_block1_out[0][0]           
__________________________________________________________________________________________________
conv5_block2_1_bn (BatchNormali (None, 3, 3, 512)    2048        conv5_block2_1_conv[0][0]        
__________________________________________________________________________________________________
conv5_block2_1_relu (Activation (None, 3, 3, 512)    0           conv5_block2_1_bn[0][0]          
__________________________________________________________________________________________________
conv5_block2_2_conv (Conv2D)    (None, 3, 3, 512)    2359808     conv5_block2_1_relu[0][0]        
__________________________________________________________________________________________________
conv5_block2_2_bn (BatchNormali (None, 3, 3, 512)    2048        conv5_block2_2_conv[0][0]        
__________________________________________________________________________________________________
conv5_block2_2_relu (Activation (None, 3, 3, 512)    0           conv5_block2_2_bn[0][0]          
__________________________________________________________________________________________________
conv5_block2_3_conv (Conv2D)    (None, 3, 3, 2048)   1050624     conv5_block2_2_relu[0][0]        
__________________________________________________________________________________________________
conv5_block2_3_bn (BatchNormali (None, 3, 3, 2048)   8192        conv5_block2_3_conv[0][0]        
__________________________________________________________________________________________________
conv5_block2_add (Add)          (None, 3, 3, 2048)   0           conv5_block1_out[0][0]           
                                                                 conv5_block2_3_bn[0][0]          
__________________________________________________________________________________________________
conv5_block2_out (Activation)   (None, 3, 3, 2048)   0           conv5_block2_add[0][0]           
__________________________________________________________________________________________________
conv5_block3_1_conv (Conv2D)    (None, 3, 3, 512)    1049088     conv5_block2_out[0][0]           
__________________________________________________________________________________________________
conv5_block3_1_bn (BatchNormali (None, 3, 3, 512)    2048        conv5_block3_1_conv[0][0]        
__________________________________________________________________________________________________
conv5_block3_1_relu (Activation (None, 3, 3, 512)    0           conv5_block3_1_bn[0][0]          
__________________________________________________________________________________________________
conv5_block3_2_conv (Conv2D)    (None, 3, 3, 512)    2359808     conv5_block3_1_relu[0][0]        
__________________________________________________________________________________________________
conv5_block3_2_bn (BatchNormali (None, 3, 3, 512)    2048        conv5_block3_2_conv[0][0]        
__________________________________________________________________________________________________
conv5_block3_2_relu (Activation (None, 3, 3, 512)    0           conv5_block3_2_bn[0][0]          
__________________________________________________________________________________________________
conv5_block3_3_conv (Conv2D)    (None, 3, 3, 2048)   1050624     conv5_block3_2_relu[0][0]        
__________________________________________________________________________________________________
conv5_block3_3_bn (BatchNormali (None, 3, 3, 2048)   8192        conv5_block3_3_conv[0][0]        
__________________________________________________________________________________________________
conv5_block3_add (Add)          (None, 3, 3, 2048)   0           conv5_block2_out[0][0]           
                                                                 conv5_block3_3_bn[0][0]          
__________________________________________________________________________________________________
conv5_block3_out (Activation)   (None, 3, 3, 2048)   0           conv5_block3_add[0][0]           
__________________________________________________________________________________________________
flatten (Flatten)               (None, 18432)        0           conv5_block3_out[0][0]           
__________________________________________________________________________________________________
fc1 (Dense)                     (None, 4096)         75501568    flatten[0][0]                    
__________________________________________________________________________________________________
fc2 (Dense)                     (None, 4096)         16781312    fc1[0][0]                        
__________________________________________________________________________________________________
predictions (Dense)             (None, 10)           40970       fc2[0][0]                        
==================================================================================================
Total params: 115,911,562
Trainable params: 115,858,442
Non-trainable params: 53,120
__________________________________________________________________________________________________
Start fitting ensemble models
Length split part:  16667
Labels in this part of split:  [1667, 1656, 1712, 1682, 1675, 1579, 1703, 1687, 1681, 1625]
…
2020-05-25 13:14:38.596921: I tensorflow/core/profiler/internal/gpu/device_tracer.cc:88]  GpuTracer has collected 0 callback api events and 0 activity events.
Epoch 00024: early stopping
ResNet101
Model: "model"
__________________________________________________________________________________________________
Layer (type)                    Output Shape         Param #     Connected to                     
==================================================================================================
input_1 (InputLayer)            [(None, 75, 75, 3)]  0                                            
__________________________________________________________________________________________________
conv1_pad (ZeroPadding2D)       (None, 81, 81, 3)    0           input_1[0][0]                    
__________________________________________________________________________________________________
conv1_conv (Conv2D)             (None, 38, 38, 64)   9472        conv1_pad[0][0]                  
__________________________________________________________________________________________________
conv1_bn (BatchNormalization)   (None, 38, 38, 64)   256         conv1_conv[0][0]                 
__________________________________________________________________________________________________
conv1_relu (Activation)         (None, 38, 38, 64)   0           conv1_bn[0][0]                   
__________________________________________________________________________________________________
pool1_pad (ZeroPadding2D)       (None, 40, 40, 64)   0           conv1_relu[0][0]                 
__________________________________________________________________________________________________
pool1_pool (MaxPooling2D)       (None, 19, 19, 64)   0           pool1_pad[0][0]                  
__________________________________________________________________________________________________
conv2_block1_1_conv (Conv2D)    (None, 19, 19, 64)   4160        pool1_pool[0][0]                 
__________________________________________________________________________________________________
conv2_block1_1_bn (BatchNormali (None, 19, 19, 64)   256         conv2_block1_1_conv[0][0]        
__________________________________________________________________________________________________
conv2_block1_1_relu (Activation (None, 19, 19, 64)   0           conv2_block1_1_bn[0][0]          
__________________________________________________________________________________________________
conv2_block1_2_conv (Conv2D)    (None, 19, 19, 64)   36928       conv2_block1_1_relu[0][0]        
__________________________________________________________________________________________________
conv2_block1_2_bn (BatchNormali (None, 19, 19, 64)   256         conv2_block1_2_conv[0][0]        
__________________________________________________________________________________________________
conv2_block1_2_relu (Activation (None, 19, 19, 64)   0           conv2_block1_2_bn[0][0]          
__________________________________________________________________________________________________
conv2_block1_0_conv (Conv2D)    (None, 19, 19, 256)  16640       pool1_pool[0][0]                 
__________________________________________________________________________________________________
conv2_block1_3_conv (Conv2D)    (None, 19, 19, 256)  16640       conv2_block1_2_relu[0][0]        
__________________________________________________________________________________________________
conv2_block1_0_bn (BatchNormali (None, 19, 19, 256)  1024        conv2_block1_0_conv[0][0]        
__________________________________________________________________________________________________
conv2_block1_3_bn (BatchNormali (None, 19, 19, 256)  1024        conv2_block1_3_conv[0][0]        
__________________________________________________________________________________________________
conv2_block1_add (Add)          (None, 19, 19, 256)  0           conv2_block1_0_bn[0][0]          
                                                                 conv2_block1_3_bn[0][0]          
__________________________________________________________________________________________________
conv2_block1_out (Activation)   (None, 19, 19, 256)  0           conv2_block1_add[0][0]           
__________________________________________________________________________________________________
conv2_block2_1_conv (Conv2D)    (None, 19, 19, 64)   16448       conv2_block1_out[0][0]           
__________________________________________________________________________________________________
conv2_block2_1_bn (BatchNormali (None, 19, 19, 64)   256         conv2_block2_1_conv[0][0]        
__________________________________________________________________________________________________
conv2_block2_1_relu (Activation (None, 19, 19, 64)   0           conv2_block2_1_bn[0][0]          
__________________________________________________________________________________________________
conv2_block2_2_conv (Conv2D)    (None, 19, 19, 64)   36928       conv2_block2_1_relu[0][0]        
__________________________________________________________________________________________________
conv2_block2_2_bn (BatchNormali (None, 19, 19, 64)   256         conv2_block2_2_conv[0][0]        
__________________________________________________________________________________________________
conv2_block2_2_relu (Activation (None, 19, 19, 64)   0           conv2_block2_2_bn[0][0]          
__________________________________________________________________________________________________
conv2_block2_3_conv (Conv2D)    (None, 19, 19, 256)  16640       conv2_block2_2_relu[0][0]        
__________________________________________________________________________________________________
conv2_block2_3_bn (BatchNormali (None, 19, 19, 256)  1024        conv2_block2_3_conv[0][0]        
__________________________________________________________________________________________________
conv2_block2_add (Add)          (None, 19, 19, 256)  0           conv2_block1_out[0][0]           
                                                                 conv2_block2_3_bn[0][0]          
__________________________________________________________________________________________________
conv2_block2_out (Activation)   (None, 19, 19, 256)  0           conv2_block2_add[0][0]           
__________________________________________________________________________________________________
conv2_block3_1_conv (Conv2D)    (None, 19, 19, 64)   16448       conv2_block2_out[0][0]           
__________________________________________________________________________________________________
conv2_block3_1_bn (BatchNormali (None, 19, 19, 64)   256         conv2_block3_1_conv[0][0]        
__________________________________________________________________________________________________
conv2_block3_1_relu (Activation (None, 19, 19, 64)   0           conv2_block3_1_bn[0][0]          
__________________________________________________________________________________________________
conv2_block3_2_conv (Conv2D)    (None, 19, 19, 64)   36928       conv2_block3_1_relu[0][0]        
__________________________________________________________________________________________________
conv2_block3_2_bn (BatchNormali (None, 19, 19, 64)   256         conv2_block3_2_conv[0][0]        
__________________________________________________________________________________________________
conv2_block3_2_relu (Activation (None, 19, 19, 64)   0           conv2_block3_2_bn[0][0]          
__________________________________________________________________________________________________
conv2_block3_3_conv (Conv2D)    (None, 19, 19, 256)  16640       conv2_block3_2_relu[0][0]        
__________________________________________________________________________________________________
conv2_block3_3_bn (BatchNormali (None, 19, 19, 256)  1024        conv2_block3_3_conv[0][0]        
__________________________________________________________________________________________________
conv2_block3_add (Add)          (None, 19, 19, 256)  0           conv2_block2_out[0][0]           
                                                                 conv2_block3_3_bn[0][0]          
__________________________________________________________________________________________________
conv2_block3_out (Activation)   (None, 19, 19, 256)  0           conv2_block3_add[0][0]           
__________________________________________________________________________________________________
conv3_block1_1_conv (Conv2D)    (None, 10, 10, 128)  32896       conv2_block3_out[0][0]           
__________________________________________________________________________________________________
conv3_block1_1_bn (BatchNormali (None, 10, 10, 128)  512         conv3_block1_1_conv[0][0]        
__________________________________________________________________________________________________
conv3_block1_1_relu (Activation (None, 10, 10, 128)  0           conv3_block1_1_bn[0][0]          
__________________________________________________________________________________________________
conv3_block1_2_conv (Conv2D)    (None, 10, 10, 128)  147584      conv3_block1_1_relu[0][0]        
__________________________________________________________________________________________________
conv3_block1_2_bn (BatchNormali (None, 10, 10, 128)  512         conv3_block1_2_conv[0][0]        
__________________________________________________________________________________________________
conv3_block1_2_relu (Activation (None, 10, 10, 128)  0           conv3_block1_2_bn[0][0]          
__________________________________________________________________________________________________
conv3_block1_0_conv (Conv2D)    (None, 10, 10, 512)  131584      conv2_block3_out[0][0]           
__________________________________________________________________________________________________
conv3_block1_3_conv (Conv2D)    (None, 10, 10, 512)  66048       conv3_block1_2_relu[0][0]        
__________________________________________________________________________________________________
conv3_block1_0_bn (BatchNormali (None, 10, 10, 512)  2048        conv3_block1_0_conv[0][0]        
__________________________________________________________________________________________________
conv3_block1_3_bn (BatchNormali (None, 10, 10, 512)  2048        conv3_block1_3_conv[0][0]        
__________________________________________________________________________________________________
conv3_block1_add (Add)          (None, 10, 10, 512)  0           conv3_block1_0_bn[0][0]          
                                                                 conv3_block1_3_bn[0][0]          
__________________________________________________________________________________________________
conv3_block1_out (Activation)   (None, 10, 10, 512)  0           conv3_block1_add[0][0]           
__________________________________________________________________________________________________
conv3_block2_1_conv (Conv2D)    (None, 10, 10, 128)  65664       conv3_block1_out[0][0]           
__________________________________________________________________________________________________
conv3_block2_1_bn (BatchNormali (None, 10, 10, 128)  512         conv3_block2_1_conv[0][0]        
__________________________________________________________________________________________________
conv3_block2_1_relu (Activation (None, 10, 10, 128)  0           conv3_block2_1_bn[0][0]          
__________________________________________________________________________________________________
conv3_block2_2_conv (Conv2D)    (None, 10, 10, 128)  147584      conv3_block2_1_relu[0][0]        
__________________________________________________________________________________________________
conv3_block2_2_bn (BatchNormali (None, 10, 10, 128)  512         conv3_block2_2_conv[0][0]        
__________________________________________________________________________________________________
conv3_block2_2_relu (Activation (None, 10, 10, 128)  0           conv3_block2_2_bn[0][0]          
__________________________________________________________________________________________________
conv3_block2_3_conv (Conv2D)    (None, 10, 10, 512)  66048       conv3_block2_2_relu[0][0]        
__________________________________________________________________________________________________
conv3_block2_3_bn (BatchNormali (None, 10, 10, 512)  2048        conv3_block2_3_conv[0][0]        
__________________________________________________________________________________________________
conv3_block2_add (Add)          (None, 10, 10, 512)  0           conv3_block1_out[0][0]           
                                                                 conv3_block2_3_bn[0][0]          
__________________________________________________________________________________________________
conv3_block2_out (Activation)   (None, 10, 10, 512)  0           conv3_block2_add[0][0]           
__________________________________________________________________________________________________
conv3_block3_1_conv (Conv2D)    (None, 10, 10, 128)  65664       conv3_block2_out[0][0]           
__________________________________________________________________________________________________
conv3_block3_1_bn (BatchNormali (None, 10, 10, 128)  512         conv3_block3_1_conv[0][0]        
__________________________________________________________________________________________________
conv3_block3_1_relu (Activation (None, 10, 10, 128)  0           conv3_block3_1_bn[0][0]          
__________________________________________________________________________________________________
conv3_block3_2_conv (Conv2D)    (None, 10, 10, 128)  147584      conv3_block3_1_relu[0][0]        
__________________________________________________________________________________________________
conv3_block3_2_bn (BatchNormali (None, 10, 10, 128)  512         conv3_block3_2_conv[0][0]        
__________________________________________________________________________________________________
conv3_block3_2_relu (Activation (None, 10, 10, 128)  0           conv3_block3_2_bn[0][0]          
__________________________________________________________________________________________________
conv3_block3_3_conv (Conv2D)    (None, 10, 10, 512)  66048       conv3_block3_2_relu[0][0]        
__________________________________________________________________________________________________
conv3_block3_3_bn (BatchNormali (None, 10, 10, 512)  2048        conv3_block3_3_conv[0][0]        
__________________________________________________________________________________________________
conv3_block3_add (Add)          (None, 10, 10, 512)  0           conv3_block2_out[0][0]           
                                                                 conv3_block3_3_bn[0][0]          
__________________________________________________________________________________________________
conv3_block3_out (Activation)   (None, 10, 10, 512)  0           conv3_block3_add[0][0]           
__________________________________________________________________________________________________
conv3_block4_1_conv (Conv2D)    (None, 10, 10, 128)  65664       conv3_block3_out[0][0]           
__________________________________________________________________________________________________
conv3_block4_1_bn (BatchNormali (None, 10, 10, 128)  512         conv3_block4_1_conv[0][0]        
__________________________________________________________________________________________________
conv3_block4_1_relu (Activation (None, 10, 10, 128)  0           conv3_block4_1_bn[0][0]          
__________________________________________________________________________________________________
conv3_block4_2_conv (Conv2D)    (None, 10, 10, 128)  147584      conv3_block4_1_relu[0][0]        
__________________________________________________________________________________________________
conv3_block4_2_bn (BatchNormali (None, 10, 10, 128)  512         conv3_block4_2_conv[0][0]        
__________________________________________________________________________________________________
conv3_block4_2_relu (Activation (None, 10, 10, 128)  0           conv3_block4_2_bn[0][0]          
__________________________________________________________________________________________________
conv3_block4_3_conv (Conv2D)    (None, 10, 10, 512)  66048       conv3_block4_2_relu[0][0]        
__________________________________________________________________________________________________
conv3_block4_3_bn (BatchNormali (None, 10, 10, 512)  2048        conv3_block4_3_conv[0][0]        
__________________________________________________________________________________________________
conv3_block4_add (Add)          (None, 10, 10, 512)  0           conv3_block3_out[0][0]           
                                                                 conv3_block4_3_bn[0][0]          
__________________________________________________________________________________________________
conv3_block4_out (Activation)   (None, 10, 10, 512)  0           conv3_block4_add[0][0]           
__________________________________________________________________________________________________
conv4_block1_1_conv (Conv2D)    (None, 5, 5, 256)    131328      conv3_block4_out[0][0]           
__________________________________________________________________________________________________
conv4_block1_1_bn (BatchNormali (None, 5, 5, 256)    1024        conv4_block1_1_conv[0][0]        
__________________________________________________________________________________________________
conv4_block1_1_relu (Activation (None, 5, 5, 256)    0           conv4_block1_1_bn[0][0]          
__________________________________________________________________________________________________
conv4_block1_2_conv (Conv2D)    (None, 5, 5, 256)    590080      conv4_block1_1_relu[0][0]        
__________________________________________________________________________________________________
conv4_block1_2_bn (BatchNormali (None, 5, 5, 256)    1024        conv4_block1_2_conv[0][0]        
__________________________________________________________________________________________________
conv4_block1_2_relu (Activation (None, 5, 5, 256)    0           conv4_block1_2_bn[0][0]          
__________________________________________________________________________________________________
conv4_block1_0_conv (Conv2D)    (None, 5, 5, 1024)   525312      conv3_block4_out[0][0]           
__________________________________________________________________________________________________
conv4_block1_3_conv (Conv2D)    (None, 5, 5, 1024)   263168      conv4_block1_2_relu[0][0]        
__________________________________________________________________________________________________
conv4_block1_0_bn (BatchNormali (None, 5, 5, 1024)   4096        conv4_block1_0_conv[0][0]        
__________________________________________________________________________________________________
conv4_block1_3_bn (BatchNormali (None, 5, 5, 1024)   4096        conv4_block1_3_conv[0][0]        
__________________________________________________________________________________________________
conv4_block1_add (Add)          (None, 5, 5, 1024)   0           conv4_block1_0_bn[0][0]          
                                                                 conv4_block1_3_bn[0][0]          
__________________________________________________________________________________________________
conv4_block1_out (Activation)   (None, 5, 5, 1024)   0           conv4_block1_add[0][0]           
__________________________________________________________________________________________________
conv4_block2_1_conv (Conv2D)    (None, 5, 5, 256)    262400      conv4_block1_out[0][0]           
__________________________________________________________________________________________________
conv4_block2_1_bn (BatchNormali (None, 5, 5, 256)    1024        conv4_block2_1_conv[0][0]        
__________________________________________________________________________________________________
conv4_block2_1_relu (Activation (None, 5, 5, 256)    0           conv4_block2_1_bn[0][0]          
__________________________________________________________________________________________________
conv4_block2_2_conv (Conv2D)    (None, 5, 5, 256)    590080      conv4_block2_1_relu[0][0]        
__________________________________________________________________________________________________
conv4_block2_2_bn (BatchNormali (None, 5, 5, 256)    1024        conv4_block2_2_conv[0][0]        
__________________________________________________________________________________________________
conv4_block2_2_relu (Activation (None, 5, 5, 256)    0           conv4_block2_2_bn[0][0]          
__________________________________________________________________________________________________
conv4_block2_3_conv (Conv2D)    (None, 5, 5, 1024)   263168      conv4_block2_2_relu[0][0]        
__________________________________________________________________________________________________
conv4_block2_3_bn (BatchNormali (None, 5, 5, 1024)   4096        conv4_block2_3_conv[0][0]        
__________________________________________________________________________________________________
conv4_block2_add (Add)          (None, 5, 5, 1024)   0           conv4_block1_out[0][0]           
                                                                 conv4_block2_3_bn[0][0]          
__________________________________________________________________________________________________
conv4_block2_out (Activation)   (None, 5, 5, 1024)   0           conv4_block2_add[0][0]           
__________________________________________________________________________________________________
conv4_block3_1_conv (Conv2D)    (None, 5, 5, 256)    262400      conv4_block2_out[0][0]           
__________________________________________________________________________________________________
conv4_block3_1_bn (BatchNormali (None, 5, 5, 256)    1024        conv4_block3_1_conv[0][0]        
__________________________________________________________________________________________________
conv4_block3_1_relu (Activation (None, 5, 5, 256)    0           conv4_block3_1_bn[0][0]          
__________________________________________________________________________________________________
conv4_block3_2_conv (Conv2D)    (None, 5, 5, 256)    590080      conv4_block3_1_relu[0][0]        
__________________________________________________________________________________________________
conv4_block3_2_bn (BatchNormali (None, 5, 5, 256)    1024        conv4_block3_2_conv[0][0]        
__________________________________________________________________________________________________
conv4_block3_2_relu (Activation (None, 5, 5, 256)    0           conv4_block3_2_bn[0][0]          
__________________________________________________________________________________________________
conv4_block3_3_conv (Conv2D)    (None, 5, 5, 1024)   263168      conv4_block3_2_relu[0][0]        
__________________________________________________________________________________________________
conv4_block3_3_bn (BatchNormali (None, 5, 5, 1024)   4096        conv4_block3_3_conv[0][0]        
__________________________________________________________________________________________________
conv4_block3_add (Add)          (None, 5, 5, 1024)   0           conv4_block2_out[0][0]           
                                                                 conv4_block3_3_bn[0][0]          
__________________________________________________________________________________________________
conv4_block3_out (Activation)   (None, 5, 5, 1024)   0           conv4_block3_add[0][0]           
__________________________________________________________________________________________________
conv4_block4_1_conv (Conv2D)    (None, 5, 5, 256)    262400      conv4_block3_out[0][0]           
__________________________________________________________________________________________________
conv4_block4_1_bn (BatchNormali (None, 5, 5, 256)    1024        conv4_block4_1_conv[0][0]        
__________________________________________________________________________________________________
conv4_block4_1_relu (Activation (None, 5, 5, 256)    0           conv4_block4_1_bn[0][0]          
__________________________________________________________________________________________________
conv4_block4_2_conv (Conv2D)    (None, 5, 5, 256)    590080      conv4_block4_1_relu[0][0]        
__________________________________________________________________________________________________
conv4_block4_2_bn (BatchNormali (None, 5, 5, 256)    1024        conv4_block4_2_conv[0][0]        
__________________________________________________________________________________________________
conv4_block4_2_relu (Activation (None, 5, 5, 256)    0           conv4_block4_2_bn[0][0]          
__________________________________________________________________________________________________
conv4_block4_3_conv (Conv2D)    (None, 5, 5, 1024)   263168      conv4_block4_2_relu[0][0]        
__________________________________________________________________________________________________
conv4_block4_3_bn (BatchNormali (None, 5, 5, 1024)   4096        conv4_block4_3_conv[0][0]        
__________________________________________________________________________________________________
conv4_block4_add (Add)          (None, 5, 5, 1024)   0           conv4_block3_out[0][0]           
                                                                 conv4_block4_3_bn[0][0]          
__________________________________________________________________________________________________
conv4_block4_out (Activation)   (None, 5, 5, 1024)   0           conv4_block4_add[0][0]           
__________________________________________________________________________________________________
conv4_block5_1_conv (Conv2D)    (None, 5, 5, 256)    262400      conv4_block4_out[0][0]           
__________________________________________________________________________________________________
conv4_block5_1_bn (BatchNormali (None, 5, 5, 256)    1024        conv4_block5_1_conv[0][0]        
__________________________________________________________________________________________________
conv4_block5_1_relu (Activation (None, 5, 5, 256)    0           conv4_block5_1_bn[0][0]          
__________________________________________________________________________________________________
conv4_block5_2_conv (Conv2D)    (None, 5, 5, 256)    590080      conv4_block5_1_relu[0][0]        
__________________________________________________________________________________________________
conv4_block5_2_bn (BatchNormali (None, 5, 5, 256)    1024        conv4_block5_2_conv[0][0]        
__________________________________________________________________________________________________
conv4_block5_2_relu (Activation (None, 5, 5, 256)    0           conv4_block5_2_bn[0][0]          
__________________________________________________________________________________________________
conv4_block5_3_conv (Conv2D)    (None, 5, 5, 1024)   263168      conv4_block5_2_relu[0][0]        
__________________________________________________________________________________________________
conv4_block5_3_bn (BatchNormali (None, 5, 5, 1024)   4096        conv4_block5_3_conv[0][0]        
__________________________________________________________________________________________________
conv4_block5_add (Add)          (None, 5, 5, 1024)   0           conv4_block4_out[0][0]           
                                                                 conv4_block5_3_bn[0][0]          
__________________________________________________________________________________________________
conv4_block5_out (Activation)   (None, 5, 5, 1024)   0           conv4_block5_add[0][0]           
__________________________________________________________________________________________________
conv4_block6_1_conv (Conv2D)    (None, 5, 5, 256)    262400      conv4_block5_out[0][0]           
__________________________________________________________________________________________________
conv4_block6_1_bn (BatchNormali (None, 5, 5, 256)    1024        conv4_block6_1_conv[0][0]        
__________________________________________________________________________________________________
conv4_block6_1_relu (Activation (None, 5, 5, 256)    0           conv4_block6_1_bn[0][0]          
__________________________________________________________________________________________________
conv4_block6_2_conv (Conv2D)    (None, 5, 5, 256)    590080      conv4_block6_1_relu[0][0]        
__________________________________________________________________________________________________
conv4_block6_2_bn (BatchNormali (None, 5, 5, 256)    1024        conv4_block6_2_conv[0][0]        
__________________________________________________________________________________________________
conv4_block6_2_relu (Activation (None, 5, 5, 256)    0           conv4_block6_2_bn[0][0]          
__________________________________________________________________________________________________
conv4_block6_3_conv (Conv2D)    (None, 5, 5, 1024)   263168      conv4_block6_2_relu[0][0]        
__________________________________________________________________________________________________
conv4_block6_3_bn (BatchNormali (None, 5, 5, 1024)   4096        conv4_block6_3_conv[0][0]        
__________________________________________________________________________________________________
conv4_block6_add (Add)          (None, 5, 5, 1024)   0           conv4_block5_out[0][0]           
                                                                 conv4_block6_3_bn[0][0]          
__________________________________________________________________________________________________
conv4_block6_out (Activation)   (None, 5, 5, 1024)   0           conv4_block6_add[0][0]           
__________________________________________________________________________________________________
conv4_block7_1_conv (Conv2D)    (None, 5, 5, 256)    262400      conv4_block6_out[0][0]           
__________________________________________________________________________________________________
conv4_block7_1_bn (BatchNormali (None, 5, 5, 256)    1024        conv4_block7_1_conv[0][0]        
__________________________________________________________________________________________________
conv4_block7_1_relu (Activation (None, 5, 5, 256)    0           conv4_block7_1_bn[0][0]          
__________________________________________________________________________________________________
conv4_block7_2_conv (Conv2D)    (None, 5, 5, 256)    590080      conv4_block7_1_relu[0][0]        
__________________________________________________________________________________________________
conv4_block7_2_bn (BatchNormali (None, 5, 5, 256)    1024        conv4_block7_2_conv[0][0]        
__________________________________________________________________________________________________
conv4_block7_2_relu (Activation (None, 5, 5, 256)    0           conv4_block7_2_bn[0][0]          
__________________________________________________________________________________________________
conv4_block7_3_conv (Conv2D)    (None, 5, 5, 1024)   263168      conv4_block7_2_relu[0][0]        
__________________________________________________________________________________________________
conv4_block7_3_bn (BatchNormali (None, 5, 5, 1024)   4096        conv4_block7_3_conv[0][0]        
__________________________________________________________________________________________________
conv4_block7_add (Add)          (None, 5, 5, 1024)   0           conv4_block6_out[0][0]           
                                                                 conv4_block7_3_bn[0][0]          
__________________________________________________________________________________________________
conv4_block7_out (Activation)   (None, 5, 5, 1024)   0           conv4_block7_add[0][0]           
__________________________________________________________________________________________________
conv4_block8_1_conv (Conv2D)    (None, 5, 5, 256)    262400      conv4_block7_out[0][0]           
__________________________________________________________________________________________________
conv4_block8_1_bn (BatchNormali (None, 5, 5, 256)    1024        conv4_block8_1_conv[0][0]        
__________________________________________________________________________________________________
conv4_block8_1_relu (Activation (None, 5, 5, 256)    0           conv4_block8_1_bn[0][0]          
__________________________________________________________________________________________________
conv4_block8_2_conv (Conv2D)    (None, 5, 5, 256)    590080      conv4_block8_1_relu[0][0]        
__________________________________________________________________________________________________
conv4_block8_2_bn (BatchNormali (None, 5, 5, 256)    1024        conv4_block8_2_conv[0][0]        
__________________________________________________________________________________________________
conv4_block8_2_relu (Activation (None, 5, 5, 256)    0           conv4_block8_2_bn[0][0]          
__________________________________________________________________________________________________
conv4_block8_3_conv (Conv2D)    (None, 5, 5, 1024)   263168      conv4_block8_2_relu[0][0]        
__________________________________________________________________________________________________
conv4_block8_3_bn (BatchNormali (None, 5, 5, 1024)   4096        conv4_block8_3_conv[0][0]        
__________________________________________________________________________________________________
conv4_block8_add (Add)          (None, 5, 5, 1024)   0           conv4_block7_out[0][0]           
                                                                 conv4_block8_3_bn[0][0]          
__________________________________________________________________________________________________
conv4_block8_out (Activation)   (None, 5, 5, 1024)   0           conv4_block8_add[0][0]           
__________________________________________________________________________________________________
conv4_block9_1_conv (Conv2D)    (None, 5, 5, 256)    262400      conv4_block8_out[0][0]           
__________________________________________________________________________________________________
conv4_block9_1_bn (BatchNormali (None, 5, 5, 256)    1024        conv4_block9_1_conv[0][0]        
__________________________________________________________________________________________________
conv4_block9_1_relu (Activation (None, 5, 5, 256)    0           conv4_block9_1_bn[0][0]          
__________________________________________________________________________________________________
conv4_block9_2_conv (Conv2D)    (None, 5, 5, 256)    590080      conv4_block9_1_relu[0][0]        
__________________________________________________________________________________________________
conv4_block9_2_bn (BatchNormali (None, 5, 5, 256)    1024        conv4_block9_2_conv[0][0]        
__________________________________________________________________________________________________
conv4_block9_2_relu (Activation (None, 5, 5, 256)    0           conv4_block9_2_bn[0][0]          
__________________________________________________________________________________________________
conv4_block9_3_conv (Conv2D)    (None, 5, 5, 1024)   263168      conv4_block9_2_relu[0][0]        
__________________________________________________________________________________________________
conv4_block9_3_bn (BatchNormali (None, 5, 5, 1024)   4096        conv4_block9_3_conv[0][0]        
__________________________________________________________________________________________________
conv4_block9_add (Add)          (None, 5, 5, 1024)   0           conv4_block8_out[0][0]           
                                                                 conv4_block9_3_bn[0][0]          
__________________________________________________________________________________________________
conv4_block9_out (Activation)   (None, 5, 5, 1024)   0           conv4_block9_add[0][0]           
__________________________________________________________________________________________________
conv4_block10_1_conv (Conv2D)   (None, 5, 5, 256)    262400      conv4_block9_out[0][0]           
__________________________________________________________________________________________________
conv4_block10_1_bn (BatchNormal (None, 5, 5, 256)    1024        conv4_block10_1_conv[0][0]       
__________________________________________________________________________________________________
conv4_block10_1_relu (Activatio (None, 5, 5, 256)    0           conv4_block10_1_bn[0][0]         
__________________________________________________________________________________________________
conv4_block10_2_conv (Conv2D)   (None, 5, 5, 256)    590080      conv4_block10_1_relu[0][0]       
__________________________________________________________________________________________________
conv4_block10_2_bn (BatchNormal (None, 5, 5, 256)    1024        conv4_block10_2_conv[0][0]       
__________________________________________________________________________________________________
conv4_block10_2_relu (Activatio (None, 5, 5, 256)    0           conv4_block10_2_bn[0][0]         
__________________________________________________________________________________________________
conv4_block10_3_conv (Conv2D)   (None, 5, 5, 1024)   263168      conv4_block10_2_relu[0][0]       
__________________________________________________________________________________________________
conv4_block10_3_bn (BatchNormal (None, 5, 5, 1024)   4096        conv4_block10_3_conv[0][0]       
__________________________________________________________________________________________________
conv4_block10_add (Add)         (None, 5, 5, 1024)   0           conv4_block9_out[0][0]           
                                                                 conv4_block10_3_bn[0][0]         
__________________________________________________________________________________________________
conv4_block10_out (Activation)  (None, 5, 5, 1024)   0           conv4_block10_add[0][0]          
__________________________________________________________________________________________________
conv4_block11_1_conv (Conv2D)   (None, 5, 5, 256)    262400      conv4_block10_out[0][0]          
__________________________________________________________________________________________________
conv4_block11_1_bn (BatchNormal (None, 5, 5, 256)    1024        conv4_block11_1_conv[0][0]       
__________________________________________________________________________________________________
conv4_block11_1_relu (Activatio (None, 5, 5, 256)    0           conv4_block11_1_bn[0][0]         
__________________________________________________________________________________________________
conv4_block11_2_conv (Conv2D)   (None, 5, 5, 256)    590080      conv4_block11_1_relu[0][0]       
__________________________________________________________________________________________________
conv4_block11_2_bn (BatchNormal (None, 5, 5, 256)    1024        conv4_block11_2_conv[0][0]       
__________________________________________________________________________________________________
conv4_block11_2_relu (Activatio (None, 5, 5, 256)    0           conv4_block11_2_bn[0][0]         
__________________________________________________________________________________________________
conv4_block11_3_conv (Conv2D)   (None, 5, 5, 1024)   263168      conv4_block11_2_relu[0][0]       
__________________________________________________________________________________________________
conv4_block11_3_bn (BatchNormal (None, 5, 5, 1024)   4096        conv4_block11_3_conv[0][0]       
__________________________________________________________________________________________________
conv4_block11_add (Add)         (None, 5, 5, 1024)   0           conv4_block10_out[0][0]          
                                                                 conv4_block11_3_bn[0][0]         
__________________________________________________________________________________________________
conv4_block11_out (Activation)  (None, 5, 5, 1024)   0           conv4_block11_add[0][0]          
__________________________________________________________________________________________________
conv4_block12_1_conv (Conv2D)   (None, 5, 5, 256)    262400      conv4_block11_out[0][0]          
__________________________________________________________________________________________________
conv4_block12_1_bn (BatchNormal (None, 5, 5, 256)    1024        conv4_block12_1_conv[0][0]       
__________________________________________________________________________________________________
conv4_block12_1_relu (Activatio (None, 5, 5, 256)    0           conv4_block12_1_bn[0][0]         
__________________________________________________________________________________________________
conv4_block12_2_conv (Conv2D)   (None, 5, 5, 256)    590080      conv4_block12_1_relu[0][0]       
__________________________________________________________________________________________________
conv4_block12_2_bn (BatchNormal (None, 5, 5, 256)    1024        conv4_block12_2_conv[0][0]       
__________________________________________________________________________________________________
conv4_block12_2_relu (Activatio (None, 5, 5, 256)    0           conv4_block12_2_bn[0][0]         
__________________________________________________________________________________________________
conv4_block12_3_conv (Conv2D)   (None, 5, 5, 1024)   263168      conv4_block12_2_relu[0][0]       
__________________________________________________________________________________________________
conv4_block12_3_bn (BatchNormal (None, 5, 5, 1024)   4096        conv4_block12_3_conv[0][0]       
__________________________________________________________________________________________________
conv4_block12_add (Add)         (None, 5, 5, 1024)   0           conv4_block11_out[0][0]          
                                                                 conv4_block12_3_bn[0][0]         
__________________________________________________________________________________________________
conv4_block12_out (Activation)  (None, 5, 5, 1024)   0           conv4_block12_add[0][0]          
__________________________________________________________________________________________________
conv4_block13_1_conv (Conv2D)   (None, 5, 5, 256)    262400      conv4_block12_out[0][0]          
__________________________________________________________________________________________________
conv4_block13_1_bn (BatchNormal (None, 5, 5, 256)    1024        conv4_block13_1_conv[0][0]       
__________________________________________________________________________________________________
conv4_block13_1_relu (Activatio (None, 5, 5, 256)    0           conv4_block13_1_bn[0][0]         
__________________________________________________________________________________________________
conv4_block13_2_conv (Conv2D)   (None, 5, 5, 256)    590080      conv4_block13_1_relu[0][0]       
__________________________________________________________________________________________________
conv4_block13_2_bn (BatchNormal (None, 5, 5, 256)    1024        conv4_block13_2_conv[0][0]       
__________________________________________________________________________________________________
conv4_block13_2_relu (Activatio (None, 5, 5, 256)    0           conv4_block13_2_bn[0][0]         
__________________________________________________________________________________________________
conv4_block13_3_conv (Conv2D)   (None, 5, 5, 1024)   263168      conv4_block13_2_relu[0][0]       
__________________________________________________________________________________________________
conv4_block13_3_bn (BatchNormal (None, 5, 5, 1024)   4096        conv4_block13_3_conv[0][0]       
__________________________________________________________________________________________________
conv4_block13_add (Add)         (None, 5, 5, 1024)   0           conv4_block12_out[0][0]          
                                                                 conv4_block13_3_bn[0][0]         
__________________________________________________________________________________________________
conv4_block13_out (Activation)  (None, 5, 5, 1024)   0           conv4_block13_add[0][0]          
__________________________________________________________________________________________________
conv4_block14_1_conv (Conv2D)   (None, 5, 5, 256)    262400      conv4_block13_out[0][0]          
__________________________________________________________________________________________________
conv4_block14_1_bn (BatchNormal (None, 5, 5, 256)    1024        conv4_block14_1_conv[0][0]       
__________________________________________________________________________________________________
conv4_block14_1_relu (Activatio (None, 5, 5, 256)    0           conv4_block14_1_bn[0][0]         
__________________________________________________________________________________________________
conv4_block14_2_conv (Conv2D)   (None, 5, 5, 256)    590080      conv4_block14_1_relu[0][0]       
__________________________________________________________________________________________________
conv4_block14_2_bn (BatchNormal (None, 5, 5, 256)    1024        conv4_block14_2_conv[0][0]       
__________________________________________________________________________________________________
conv4_block14_2_relu (Activatio (None, 5, 5, 256)    0           conv4_block14_2_bn[0][0]         
__________________________________________________________________________________________________
conv4_block14_3_conv (Conv2D)   (None, 5, 5, 1024)   263168      conv4_block14_2_relu[0][0]       
__________________________________________________________________________________________________
conv4_block14_3_bn (BatchNormal (None, 5, 5, 1024)   4096        conv4_block14_3_conv[0][0]       
__________________________________________________________________________________________________
conv4_block14_add (Add)         (None, 5, 5, 1024)   0           conv4_block13_out[0][0]          
                                                                 conv4_block14_3_bn[0][0]         
__________________________________________________________________________________________________
conv4_block14_out (Activation)  (None, 5, 5, 1024)   0           conv4_block14_add[0][0]          
__________________________________________________________________________________________________
conv4_block15_1_conv (Conv2D)   (None, 5, 5, 256)    262400      conv4_block14_out[0][0]          
__________________________________________________________________________________________________
conv4_block15_1_bn (BatchNormal (None, 5, 5, 256)    1024        conv4_block15_1_conv[0][0]       
__________________________________________________________________________________________________
conv4_block15_1_relu (Activatio (None, 5, 5, 256)    0           conv4_block15_1_bn[0][0]         
__________________________________________________________________________________________________
conv4_block15_2_conv (Conv2D)   (None, 5, 5, 256)    590080      conv4_block15_1_relu[0][0]       
__________________________________________________________________________________________________
conv4_block15_2_bn (BatchNormal (None, 5, 5, 256)    1024        conv4_block15_2_conv[0][0]       
__________________________________________________________________________________________________
conv4_block15_2_relu (Activatio (None, 5, 5, 256)    0           conv4_block15_2_bn[0][0]         
__________________________________________________________________________________________________
conv4_block15_3_conv (Conv2D)   (None, 5, 5, 1024)   263168      conv4_block15_2_relu[0][0]       
__________________________________________________________________________________________________
conv4_block15_3_bn (BatchNormal (None, 5, 5, 1024)   4096        conv4_block15_3_conv[0][0]       
__________________________________________________________________________________________________
conv4_block15_add (Add)         (None, 5, 5, 1024)   0           conv4_block14_out[0][0]          
                                                                 conv4_block15_3_bn[0][0]         
__________________________________________________________________________________________________
conv4_block15_out (Activation)  (None, 5, 5, 1024)   0           conv4_block15_add[0][0]          
__________________________________________________________________________________________________
conv4_block16_1_conv (Conv2D)   (None, 5, 5, 256)    262400      conv4_block15_out[0][0]          
__________________________________________________________________________________________________
conv4_block16_1_bn (BatchNormal (None, 5, 5, 256)    1024        conv4_block16_1_conv[0][0]       
__________________________________________________________________________________________________
conv4_block16_1_relu (Activatio (None, 5, 5, 256)    0           conv4_block16_1_bn[0][0]         
__________________________________________________________________________________________________
conv4_block16_2_conv (Conv2D)   (None, 5, 5, 256)    590080      conv4_block16_1_relu[0][0]       
__________________________________________________________________________________________________
conv4_block16_2_bn (BatchNormal (None, 5, 5, 256)    1024        conv4_block16_2_conv[0][0]       
__________________________________________________________________________________________________
conv4_block16_2_relu (Activatio (None, 5, 5, 256)    0           conv4_block16_2_bn[0][0]         
__________________________________________________________________________________________________
conv4_block16_3_conv (Conv2D)   (None, 5, 5, 1024)   263168      conv4_block16_2_relu[0][0]       
__________________________________________________________________________________________________
conv4_block16_3_bn (BatchNormal (None, 5, 5, 1024)   4096        conv4_block16_3_conv[0][0]       
__________________________________________________________________________________________________
conv4_block16_add (Add)         (None, 5, 5, 1024)   0           conv4_block15_out[0][0]          
                                                                 conv4_block16_3_bn[0][0]         
__________________________________________________________________________________________________
conv4_block16_out (Activation)  (None, 5, 5, 1024)   0           conv4_block16_add[0][0]          
__________________________________________________________________________________________________
conv4_block17_1_conv (Conv2D)   (None, 5, 5, 256)    262400      conv4_block16_out[0][0]          
__________________________________________________________________________________________________
conv4_block17_1_bn (BatchNormal (None, 5, 5, 256)    1024        conv4_block17_1_conv[0][0]       
__________________________________________________________________________________________________
conv4_block17_1_relu (Activatio (None, 5, 5, 256)    0           conv4_block17_1_bn[0][0]         
__________________________________________________________________________________________________
conv4_block17_2_conv (Conv2D)   (None, 5, 5, 256)    590080      conv4_block17_1_relu[0][0]       
__________________________________________________________________________________________________
conv4_block17_2_bn (BatchNormal (None, 5, 5, 256)    1024        conv4_block17_2_conv[0][0]       
__________________________________________________________________________________________________
conv4_block17_2_relu (Activatio (None, 5, 5, 256)    0           conv4_block17_2_bn[0][0]         
__________________________________________________________________________________________________
conv4_block17_3_conv (Conv2D)   (None, 5, 5, 1024)   263168      conv4_block17_2_relu[0][0]       
__________________________________________________________________________________________________
conv4_block17_3_bn (BatchNormal (None, 5, 5, 1024)   4096        conv4_block17_3_conv[0][0]       
__________________________________________________________________________________________________
conv4_block17_add (Add)         (None, 5, 5, 1024)   0           conv4_block16_out[0][0]          
                                                                 conv4_block17_3_bn[0][0]         
__________________________________________________________________________________________________
conv4_block17_out (Activation)  (None, 5, 5, 1024)   0           conv4_block17_add[0][0]          
__________________________________________________________________________________________________
conv4_block18_1_conv (Conv2D)   (None, 5, 5, 256)    262400      conv4_block17_out[0][0]          
__________________________________________________________________________________________________
conv4_block18_1_bn (BatchNormal (None, 5, 5, 256)    1024        conv4_block18_1_conv[0][0]       
__________________________________________________________________________________________________
conv4_block18_1_relu (Activatio (None, 5, 5, 256)    0           conv4_block18_1_bn[0][0]         
__________________________________________________________________________________________________
conv4_block18_2_conv (Conv2D)   (None, 5, 5, 256)    590080      conv4_block18_1_relu[0][0]       
__________________________________________________________________________________________________
conv4_block18_2_bn (BatchNormal (None, 5, 5, 256)    1024        conv4_block18_2_conv[0][0]       
__________________________________________________________________________________________________
conv4_block18_2_relu (Activatio (None, 5, 5, 256)    0           conv4_block18_2_bn[0][0]         
__________________________________________________________________________________________________
conv4_block18_3_conv (Conv2D)   (None, 5, 5, 1024)   263168      conv4_block18_2_relu[0][0]       
__________________________________________________________________________________________________
conv4_block18_3_bn (BatchNormal (None, 5, 5, 1024)   4096        conv4_block18_3_conv[0][0]       
__________________________________________________________________________________________________
conv4_block18_add (Add)         (None, 5, 5, 1024)   0           conv4_block17_out[0][0]          
                                                                 conv4_block18_3_bn[0][0]         
__________________________________________________________________________________________________
conv4_block18_out (Activation)  (None, 5, 5, 1024)   0           conv4_block18_add[0][0]          
__________________________________________________________________________________________________
conv4_block19_1_conv (Conv2D)   (None, 5, 5, 256)    262400      conv4_block18_out[0][0]          
__________________________________________________________________________________________________
conv4_block19_1_bn (BatchNormal (None, 5, 5, 256)    1024        conv4_block19_1_conv[0][0]       
__________________________________________________________________________________________________
conv4_block19_1_relu (Activatio (None, 5, 5, 256)    0           conv4_block19_1_bn[0][0]         
__________________________________________________________________________________________________
conv4_block19_2_conv (Conv2D)   (None, 5, 5, 256)    590080      conv4_block19_1_relu[0][0]       
__________________________________________________________________________________________________
conv4_block19_2_bn (BatchNormal (None, 5, 5, 256)    1024        conv4_block19_2_conv[0][0]       
__________________________________________________________________________________________________
conv4_block19_2_relu (Activatio (None, 5, 5, 256)    0           conv4_block19_2_bn[0][0]         
__________________________________________________________________________________________________
conv4_block19_3_conv (Conv2D)   (None, 5, 5, 1024)   263168      conv4_block19_2_relu[0][0]       
__________________________________________________________________________________________________
conv4_block19_3_bn (BatchNormal (None, 5, 5, 1024)   4096        conv4_block19_3_conv[0][0]       
__________________________________________________________________________________________________
conv4_block19_add (Add)         (None, 5, 5, 1024)   0           conv4_block18_out[0][0]          
                                                                 conv4_block19_3_bn[0][0]         
__________________________________________________________________________________________________
conv4_block19_out (Activation)  (None, 5, 5, 1024)   0           conv4_block19_add[0][0]          
__________________________________________________________________________________________________
conv4_block20_1_conv (Conv2D)   (None, 5, 5, 256)    262400      conv4_block19_out[0][0]          
__________________________________________________________________________________________________
conv4_block20_1_bn (BatchNormal (None, 5, 5, 256)    1024        conv4_block20_1_conv[0][0]       
__________________________________________________________________________________________________
conv4_block20_1_relu (Activatio (None, 5, 5, 256)    0           conv4_block20_1_bn[0][0]         
__________________________________________________________________________________________________
conv4_block20_2_conv (Conv2D)   (None, 5, 5, 256)    590080      conv4_block20_1_relu[0][0]       
__________________________________________________________________________________________________
conv4_block20_2_bn (BatchNormal (None, 5, 5, 256)    1024        conv4_block20_2_conv[0][0]       
__________________________________________________________________________________________________
conv4_block20_2_relu (Activatio (None, 5, 5, 256)    0           conv4_block20_2_bn[0][0]         
__________________________________________________________________________________________________
conv4_block20_3_conv (Conv2D)   (None, 5, 5, 1024)   263168      conv4_block20_2_relu[0][0]       
__________________________________________________________________________________________________
conv4_block20_3_bn (BatchNormal (None, 5, 5, 1024)   4096        conv4_block20_3_conv[0][0]       
__________________________________________________________________________________________________
conv4_block20_add (Add)         (None, 5, 5, 1024)   0           conv4_block19_out[0][0]          
                                                                 conv4_block20_3_bn[0][0]         
__________________________________________________________________________________________________
conv4_block20_out (Activation)  (None, 5, 5, 1024)   0           conv4_block20_add[0][0]          
__________________________________________________________________________________________________
conv4_block21_1_conv (Conv2D)   (None, 5, 5, 256)    262400      conv4_block20_out[0][0]          
__________________________________________________________________________________________________
conv4_block21_1_bn (BatchNormal (None, 5, 5, 256)    1024        conv4_block21_1_conv[0][0]       
__________________________________________________________________________________________________
conv4_block21_1_relu (Activatio (None, 5, 5, 256)    0           conv4_block21_1_bn[0][0]         
__________________________________________________________________________________________________
conv4_block21_2_conv (Conv2D)   (None, 5, 5, 256)    590080      conv4_block21_1_relu[0][0]       
__________________________________________________________________________________________________
conv4_block21_2_bn (BatchNormal (None, 5, 5, 256)    1024        conv4_block21_2_conv[0][0]       
__________________________________________________________________________________________________
conv4_block21_2_relu (Activatio (None, 5, 5, 256)    0           conv4_block21_2_bn[0][0]         
__________________________________________________________________________________________________
conv4_block21_3_conv (Conv2D)   (None, 5, 5, 1024)   263168      conv4_block21_2_relu[0][0]       
__________________________________________________________________________________________________
conv4_block21_3_bn (BatchNormal (None, 5, 5, 1024)   4096        conv4_block21_3_conv[0][0]       
__________________________________________________________________________________________________
conv4_block21_add (Add)         (None, 5, 5, 1024)   0           conv4_block20_out[0][0]          
                                                                 conv4_block21_3_bn[0][0]         
__________________________________________________________________________________________________
conv4_block21_out (Activation)  (None, 5, 5, 1024)   0           conv4_block21_add[0][0]          
__________________________________________________________________________________________________
conv4_block22_1_conv (Conv2D)   (None, 5, 5, 256)    262400      conv4_block21_out[0][0]          
__________________________________________________________________________________________________
conv4_block22_1_bn (BatchNormal (None, 5, 5, 256)    1024        conv4_block22_1_conv[0][0]       
__________________________________________________________________________________________________
conv4_block22_1_relu (Activatio (None, 5, 5, 256)    0           conv4_block22_1_bn[0][0]         
__________________________________________________________________________________________________
conv4_block22_2_conv (Conv2D)   (None, 5, 5, 256)    590080      conv4_block22_1_relu[0][0]       
__________________________________________________________________________________________________
conv4_block22_2_bn (BatchNormal (None, 5, 5, 256)    1024        conv4_block22_2_conv[0][0]       
__________________________________________________________________________________________________
conv4_block22_2_relu (Activatio (None, 5, 5, 256)    0           conv4_block22_2_bn[0][0]         
__________________________________________________________________________________________________
conv4_block22_3_conv (Conv2D)   (None, 5, 5, 1024)   263168      conv4_block22_2_relu[0][0]       
__________________________________________________________________________________________________
conv4_block22_3_bn (BatchNormal (None, 5, 5, 1024)   4096        conv4_block22_3_conv[0][0]       
__________________________________________________________________________________________________
conv4_block22_add (Add)         (None, 5, 5, 1024)   0           conv4_block21_out[0][0]          
                                                                 conv4_block22_3_bn[0][0]         
__________________________________________________________________________________________________
conv4_block22_out (Activation)  (None, 5, 5, 1024)   0           conv4_block22_add[0][0]          
__________________________________________________________________________________________________
conv4_block23_1_conv (Conv2D)   (None, 5, 5, 256)    262400      conv4_block22_out[0][0]          
__________________________________________________________________________________________________
conv4_block23_1_bn (BatchNormal (None, 5, 5, 256)    1024        conv4_block23_1_conv[0][0]       
__________________________________________________________________________________________________
conv4_block23_1_relu (Activatio (None, 5, 5, 256)    0           conv4_block23_1_bn[0][0]         
__________________________________________________________________________________________________
conv4_block23_2_conv (Conv2D)   (None, 5, 5, 256)    590080      conv4_block23_1_relu[0][0]       
__________________________________________________________________________________________________
conv4_block23_2_bn (BatchNormal (None, 5, 5, 256)    1024        conv4_block23_2_conv[0][0]       
__________________________________________________________________________________________________
conv4_block23_2_relu (Activatio (None, 5, 5, 256)    0           conv4_block23_2_bn[0][0]         
__________________________________________________________________________________________________
conv4_block23_3_conv (Conv2D)   (None, 5, 5, 1024)   263168      conv4_block23_2_relu[0][0]       
__________________________________________________________________________________________________
conv4_block23_3_bn (BatchNormal (None, 5, 5, 1024)   4096        conv4_block23_3_conv[0][0]       
__________________________________________________________________________________________________
conv4_block23_add (Add)         (None, 5, 5, 1024)   0           conv4_block22_out[0][0]          
                                                                 conv4_block23_3_bn[0][0]         
__________________________________________________________________________________________________
conv4_block23_out (Activation)  (None, 5, 5, 1024)   0           conv4_block23_add[0][0]          
__________________________________________________________________________________________________
conv5_block1_1_conv (Conv2D)    (None, 3, 3, 512)    524800      conv4_block23_out[0][0]          
__________________________________________________________________________________________________
conv5_block1_1_bn (BatchNormali (None, 3, 3, 512)    2048        conv5_block1_1_conv[0][0]        
__________________________________________________________________________________________________
conv5_block1_1_relu (Activation (None, 3, 3, 512)    0           conv5_block1_1_bn[0][0]          
__________________________________________________________________________________________________
conv5_block1_2_conv (Conv2D)    (None, 3, 3, 512)    2359808     conv5_block1_1_relu[0][0]        
__________________________________________________________________________________________________
conv5_block1_2_bn (BatchNormali (None, 3, 3, 512)    2048        conv5_block1_2_conv[0][0]        
__________________________________________________________________________________________________
conv5_block1_2_relu (Activation (None, 3, 3, 512)    0           conv5_block1_2_bn[0][0]          
__________________________________________________________________________________________________
conv5_block1_0_conv (Conv2D)    (None, 3, 3, 2048)   2099200     conv4_block23_out[0][0]          
__________________________________________________________________________________________________
conv5_block1_3_conv (Conv2D)    (None, 3, 3, 2048)   1050624     conv5_block1_2_relu[0][0]        
__________________________________________________________________________________________________
conv5_block1_0_bn (BatchNormali (None, 3, 3, 2048)   8192        conv5_block1_0_conv[0][0]        
__________________________________________________________________________________________________
conv5_block1_3_bn (BatchNormali (None, 3, 3, 2048)   8192        conv5_block1_3_conv[0][0]        
__________________________________________________________________________________________________
conv5_block1_add (Add)          (None, 3, 3, 2048)   0           conv5_block1_0_bn[0][0]          
                                                                 conv5_block1_3_bn[0][0]          
__________________________________________________________________________________________________
conv5_block1_out (Activation)   (None, 3, 3, 2048)   0           conv5_block1_add[0][0]           
__________________________________________________________________________________________________
conv5_block2_1_conv (Conv2D)    (None, 3, 3, 512)    1049088     conv5_block1_out[0][0]           
__________________________________________________________________________________________________
conv5_block2_1_bn (BatchNormali (None, 3, 3, 512)    2048        conv5_block2_1_conv[0][0]        
__________________________________________________________________________________________________
conv5_block2_1_relu (Activation (None, 3, 3, 512)    0           conv5_block2_1_bn[0][0]          
__________________________________________________________________________________________________
conv5_block2_2_conv (Conv2D)    (None, 3, 3, 512)    2359808     conv5_block2_1_relu[0][0]        
__________________________________________________________________________________________________
conv5_block2_2_bn (BatchNormali (None, 3, 3, 512)    2048        conv5_block2_2_conv[0][0]        
__________________________________________________________________________________________________
conv5_block2_2_relu (Activation (None, 3, 3, 512)    0           conv5_block2_2_bn[0][0]          
__________________________________________________________________________________________________
conv5_block2_3_conv (Conv2D)    (None, 3, 3, 2048)   1050624     conv5_block2_2_relu[0][0]        
__________________________________________________________________________________________________
conv5_block2_3_bn (BatchNormali (None, 3, 3, 2048)   8192        conv5_block2_3_conv[0][0]        
__________________________________________________________________________________________________
conv5_block2_add (Add)          (None, 3, 3, 2048)   0           conv5_block1_out[0][0]           
                                                                 conv5_block2_3_bn[0][0]          
__________________________________________________________________________________________________
conv5_block2_out (Activation)   (None, 3, 3, 2048)   0           conv5_block2_add[0][0]           
__________________________________________________________________________________________________
conv5_block3_1_conv (Conv2D)    (None, 3, 3, 512)    1049088     conv5_block2_out[0][0]           
__________________________________________________________________________________________________
conv5_block3_1_bn (BatchNormali (None, 3, 3, 512)    2048        conv5_block3_1_conv[0][0]        
__________________________________________________________________________________________________
conv5_block3_1_relu (Activation (None, 3, 3, 512)    0           conv5_block3_1_bn[0][0]          
__________________________________________________________________________________________________
conv5_block3_2_conv (Conv2D)    (None, 3, 3, 512)    2359808     conv5_block3_1_relu[0][0]        
__________________________________________________________________________________________________
conv5_block3_2_bn (BatchNormali (None, 3, 3, 512)    2048        conv5_block3_2_conv[0][0]        
__________________________________________________________________________________________________
conv5_block3_2_relu (Activation (None, 3, 3, 512)    0           conv5_block3_2_bn[0][0]          
__________________________________________________________________________________________________
conv5_block3_3_conv (Conv2D)    (None, 3, 3, 2048)   1050624     conv5_block3_2_relu[0][0]        
__________________________________________________________________________________________________
conv5_block3_3_bn (BatchNormali (None, 3, 3, 2048)   8192        conv5_block3_3_conv[0][0]        
__________________________________________________________________________________________________
conv5_block3_add (Add)          (None, 3, 3, 2048)   0           conv5_block2_out[0][0]           
                                                                 conv5_block3_3_bn[0][0]          
__________________________________________________________________________________________________
conv5_block3_out (Activation)   (None, 3, 3, 2048)   0           conv5_block3_add[0][0]           
__________________________________________________________________________________________________
flatten (Flatten)               (None, 18432)        0           conv5_block3_out[0][0]           
__________________________________________________________________________________________________
fc1 (Dense)                     (None, 4096)         75501568    flatten[0][0]                    
__________________________________________________________________________________________________
fc2 (Dense)                     (None, 4096)         16781312    fc1[0][0]                        
__________________________________________________________________________________________________
predictions (Dense)             (None, 10)           40970       fc2[0][0]                        
==================================================================================================
Total params: 134,982,026
Trainable params: 134,876,682
Non-trainable params: 105,344
__________________________________________________________________________________________________
Start fitting ensemble models
Length split part:  16667
Labels in this part of split:  [1667, 1656, 1712, 1682, 1675, 1579, 1703, 1687, 1681, 1625]
…
2020-05-25 14:23:58.447126: I tensorflow/core/profiler/internal/gpu/device_tracer.cc:88]  GpuTracer has collected 0 callback api events and 0 activity events.
Epoch 00029: early stopping
ResNet152
Model: "model"
__________________________________________________________________________________________________
Layer (type)                    Output Shape         Param #     Connected to                     
==================================================================================================
input_1 (InputLayer)            [(None, 75, 75, 3)]  0                                            
__________________________________________________________________________________________________
conv1_pad (ZeroPadding2D)       (None, 81, 81, 3)    0           input_1[0][0]                    
__________________________________________________________________________________________________
conv1_conv (Conv2D)             (None, 38, 38, 64)   9472        conv1_pad[0][0]                  
__________________________________________________________________________________________________
conv1_bn (BatchNormalization)   (None, 38, 38, 64)   256         conv1_conv[0][0]                 
__________________________________________________________________________________________________
conv1_relu (Activation)         (None, 38, 38, 64)   0           conv1_bn[0][0]                   
__________________________________________________________________________________________________
pool1_pad (ZeroPadding2D)       (None, 40, 40, 64)   0           conv1_relu[0][0]                 
…
conv4_block36_2_conv (Conv2D)   (None, 5, 5, 256)    590080      conv4_block36_1_relu[0][0]       
__________________________________________________________________________________________________
conv4_block36_2_bn (BatchNormal (None, 5, 5, 256)    1024        conv4_block36_2_conv[0][0]       
__________________________________________________________________________________________________
conv4_block36_2_relu (Activatio (None, 5, 5, 256)    0           conv4_block36_2_bn[0][0]         
__________________________________________________________________________________________________
conv4_block36_3_conv (Conv2D)   (None, 5, 5, 1024)   263168      conv4_block36_2_relu[0][0]       
__________________________________________________________________________________________________
conv4_block36_3_bn (BatchNormal (None, 5, 5, 1024)   4096        conv4_block36_3_conv[0][0]       
__________________________________________________________________________________________________
conv4_block36_add (Add)         (None, 5, 5, 1024)   0           conv4_block35_out[0][0]          
                                                                 conv4_block36_3_bn[0][0]         
__________________________________________________________________________________________________
conv4_block36_out (Activation)  (None, 5, 5, 1024)   0           conv4_block36_add[0][0]          
__________________________________________________________________________________________________
conv5_block1_1_conv (Conv2D)    (None, 3, 3, 512)    524800      conv4_block36_out[0][0]          
__________________________________________________________________________________________________
conv5_block1_1_bn (BatchNormali (None, 3, 3, 512)    2048        conv5_block1_1_conv[0][0]        
__________________________________________________________________________________________________
conv5_block1_1_relu (Activation (None, 3, 3, 512)    0           conv5_block1_1_bn[0][0]          
__________________________________________________________________________________________________
conv5_block1_2_conv (Conv2D)    (None, 3, 3, 512)    2359808     conv5_block1_1_relu[0][0]        
__________________________________________________________________________________________________
conv5_block1_2_bn (BatchNormali (None, 3, 3, 512)    2048        conv5_block1_2_conv[0][0]        
__________________________________________________________________________________________________
conv5_block1_2_relu (Activation (None, 3, 3, 512)    0           conv5_block1_2_bn[0][0]          
__________________________________________________________________________________________________
conv5_block1_0_conv (Conv2D)    (None, 3, 3, 2048)   2099200     conv4_block36_out[0][0]          
__________________________________________________________________________________________________
conv5_block1_3_conv (Conv2D)    (None, 3, 3, 2048)   1050624     conv5_block1_2_relu[0][0]        
__________________________________________________________________________________________________
conv5_block1_0_bn (BatchNormali (None, 3, 3, 2048)   8192        conv5_block1_0_conv[0][0]        
__________________________________________________________________________________________________
conv5_block1_3_bn (BatchNormali (None, 3, 3, 2048)   8192        conv5_block1_3_conv[0][0]        
__________________________________________________________________________________________________
conv5_block1_add (Add)          (None, 3, 3, 2048)   0           conv5_block1_0_bn[0][0]          
                                                                 conv5_block1_3_bn[0][0]          
__________________________________________________________________________________________________
conv5_block1_out (Activation)   (None, 3, 3, 2048)   0           conv5_block1_add[0][0]           
__________________________________________________________________________________________________
conv5_block2_1_conv (Conv2D)    (None, 3, 3, 512)    1049088     conv5_block1_out[0][0]           
__________________________________________________________________________________________________
conv5_block2_1_bn (BatchNormali (None, 3, 3, 512)    2048        conv5_block2_1_conv[0][0]        
__________________________________________________________________________________________________
conv5_block2_1_relu (Activation (None, 3, 3, 512)    0           conv5_block2_1_bn[0][0]          
__________________________________________________________________________________________________
conv5_block2_2_conv (Conv2D)    (None, 3, 3, 512)    2359808     conv5_block2_1_relu[0][0]        
__________________________________________________________________________________________________
conv5_block2_2_bn (BatchNormali (None, 3, 3, 512)    2048        conv5_block2_2_conv[0][0]        
__________________________________________________________________________________________________
conv5_block2_2_relu (Activation (None, 3, 3, 512)    0           conv5_block2_2_bn[0][0]          
__________________________________________________________________________________________________
conv5_block2_3_conv (Conv2D)    (None, 3, 3, 2048)   1050624     conv5_block2_2_relu[0][0]        
__________________________________________________________________________________________________
conv5_block2_3_bn (BatchNormali (None, 3, 3, 2048)   8192        conv5_block2_3_conv[0][0]        
__________________________________________________________________________________________________
conv5_block2_add (Add)          (None, 3, 3, 2048)   0           conv5_block1_out[0][0]           
                                                                 conv5_block2_3_bn[0][0]          
__________________________________________________________________________________________________
conv5_block2_out (Activation)   (None, 3, 3, 2048)   0           conv5_block2_add[0][0]           
__________________________________________________________________________________________________
conv5_block3_1_conv (Conv2D)    (None, 3, 3, 512)    1049088     conv5_block2_out[0][0]           
__________________________________________________________________________________________________
conv5_block3_1_bn (BatchNormali (None, 3, 3, 512)    2048        conv5_block3_1_conv[0][0]        
__________________________________________________________________________________________________
conv5_block3_1_relu (Activation (None, 3, 3, 512)    0           conv5_block3_1_bn[0][0]          
__________________________________________________________________________________________________
conv5_block3_2_conv (Conv2D)    (None, 3, 3, 512)    2359808     conv5_block3_1_relu[0][0]        
__________________________________________________________________________________________________
conv5_block3_2_bn (BatchNormali (None, 3, 3, 512)    2048        conv5_block3_2_conv[0][0]        
__________________________________________________________________________________________________
conv5_block3_2_relu (Activation (None, 3, 3, 512)    0           conv5_block3_2_bn[0][0]          
__________________________________________________________________________________________________
conv5_block3_3_conv (Conv2D)    (None, 3, 3, 2048)   1050624     conv5_block3_2_relu[0][0]        
__________________________________________________________________________________________________
conv5_block3_3_bn (BatchNormali (None, 3, 3, 2048)   8192        conv5_block3_3_conv[0][0]        
__________________________________________________________________________________________________
conv5_block3_add (Add)          (None, 3, 3, 2048)   0           conv5_block2_out[0][0]           
                                                                 conv5_block3_3_bn[0][0]          
__________________________________________________________________________________________________
conv5_block3_out (Activation)   (None, 3, 3, 2048)   0           conv5_block3_add[0][0]           
__________________________________________________________________________________________________
flatten (Flatten)               (None, 18432)        0           conv5_block3_out[0][0]           
__________________________________________________________________________________________________
fc1 (Dense)                     (None, 4096)         75501568    flatten[0][0]                    
__________________________________________________________________________________________________
fc2 (Dense)                     (None, 4096)         16781312    fc1[0][0]                        
__________________________________________________________________________________________________
predictions (Dense)             (None, 10)           40970       fc2[0][0]                        
==================================================================================================
Total params: 150,694,794
Trainable params: 150,543,370
Non-trainable params: 151,424
__________________________________________________________________________________________________
Start fitting ensemble models
Length split part:  16667
Labels in this part of split:  [1667, 1656, 1712, 1682, 1675, 1579, 1703, 1687, 1681, 1625]
…
2020-05-25 16:08:38.529909: I tensorflow/core/profiler/internal/gpu/device_tracer.cc:88]  GpuTracer has collected 0 callback api events and 0 activity events.
Epoch 00037: early stopping
ResNet50V2
Model: "model"
__________________________________________________________________________________________________
Layer (type)                    Output Shape         Param #     Connected to                     
==================================================================================================
input_1 (InputLayer)            [(None, 75, 75, 3)]  0                                            
__________________________________________________________________________________________________
conv1_pad (ZeroPadding2D)       (None, 81, 81, 3)    0           input_1[0][0]                    
__________________________________________________________________________________________________
conv1_conv (Conv2D)             (None, 38, 38, 64)   9472        conv1_pad[0][0]                  
__________________________________________________________________________________________________
pool1_pad (ZeroPadding2D)       (None, 40, 40, 64)   0           conv1_conv[0][0]                 
__________________________________________________________________________________________________
pool1_pool (MaxPooling2D)       (None, 19, 19, 64)   0           pool1_pad[0][0]                  
__________________________________________________________________________________________________
conv2_block1_preact_bn (BatchNo (None, 19, 19, 64)   256         pool1_pool[0][0]                 
__________________________________________________________________________________________________
conv2_block1_preact_relu (Activ (None, 19, 19, 64)   0           conv2_block1_preact_bn[0][0]     
__________________________________________________________________________________________________
conv2_block1_1_conv (Conv2D)    (None, 19, 19, 64)   4096        conv2_block1_preact_relu[0][0]   
__________________________________________________________________________________________________
conv2_block1_1_bn (BatchNormali (None, 19, 19, 64)   256         conv2_block1_1_conv[0][0]        
__________________________________________________________________________________________________
conv2_block1_1_relu (Activation (None, 19, 19, 64)   0           conv2_block1_1_bn[0][0]          
__________________________________________________________________________________________________
conv2_block1_2_pad (ZeroPadding (None, 21, 21, 64)   0           conv2_block1_1_relu[0][0]        
__________________________________________________________________________________________________
conv2_block1_2_conv (Conv2D)    (None, 19, 19, 64)   36864       conv2_block1_2_pad[0][0]         
__________________________________________________________________________________________________
conv2_block1_2_bn (BatchNormali (None, 19, 19, 64)   256         conv2_block1_2_conv[0][0]        
__________________________________________________________________________________________________
conv2_block1_2_relu (Activation (None, 19, 19, 64)   0           conv2_block1_2_bn[0][0]          
__________________________________________________________________________________________________
conv2_block1_0_conv (Conv2D)    (None, 19, 19, 256)  16640       conv2_block1_preact_relu[0][0]   
__________________________________________________________________________________________________
conv2_block1_3_conv (Conv2D)    (None, 19, 19, 256)  16640       conv2_block1_2_relu[0][0]        
__________________________________________________________________________________________________
conv2_block1_out (Add)          (None, 19, 19, 256)  0           conv2_block1_0_conv[0][0]        
                                                                 conv2_block1_3_conv[0][0]        
__________________________________________________________________________________________________
conv2_block2_preact_bn (BatchNo (None, 19, 19, 256)  1024        conv2_block1_out[0][0]           
__________________________________________________________________________________________________
conv2_block2_preact_relu (Activ (None, 19, 19, 256)  0           conv2_block2_preact_bn[0][0]     
__________________________________________________________________________________________________
conv2_block2_1_conv (Conv2D)    (None, 19, 19, 64)   16384       conv2_block2_preact_relu[0][0]   
__________________________________________________________________________________________________
conv2_block2_1_bn (BatchNormali (None, 19, 19, 64)   256         conv2_block2_1_conv[0][0]        
__________________________________________________________________________________________________
conv2_block2_1_relu (Activation (None, 19, 19, 64)   0           conv2_block2_1_bn[0][0]          
__________________________________________________________________________________________________
conv2_block2_2_pad (ZeroPadding (None, 21, 21, 64)   0           conv2_block2_1_relu[0][0]        
__________________________________________________________________________________________________
conv2_block2_2_conv (Conv2D)    (None, 19, 19, 64)   36864       conv2_block2_2_pad[0][0]         
__________________________________________________________________________________________________
conv2_block2_2_bn (BatchNormali (None, 19, 19, 64)   256         conv2_block2_2_conv[0][0]        
__________________________________________________________________________________________________
conv2_block2_2_relu (Activation (None, 19, 19, 64)   0           conv2_block2_2_bn[0][0]          
__________________________________________________________________________________________________
conv2_block2_3_conv (Conv2D)    (None, 19, 19, 256)  16640       conv2_block2_2_relu[0][0]        
__________________________________________________________________________________________________
conv2_block2_out (Add)          (None, 19, 19, 256)  0           conv2_block1_out[0][0]           
                                                                 conv2_block2_3_conv[0][0]        
__________________________________________________________________________________________________
conv2_block3_preact_bn (BatchNo (None, 19, 19, 256)  1024        conv2_block2_out[0][0]           
__________________________________________________________________________________________________
conv2_block3_preact_relu (Activ (None, 19, 19, 256)  0           conv2_block3_preact_bn[0][0]     
__________________________________________________________________________________________________
conv2_block3_1_conv (Conv2D)    (None, 19, 19, 64)   16384       conv2_block3_preact_relu[0][0]   
__________________________________________________________________________________________________
conv2_block3_1_bn (BatchNormali (None, 19, 19, 64)   256         conv2_block3_1_conv[0][0]        
__________________________________________________________________________________________________
conv2_block3_1_relu (Activation (None, 19, 19, 64)   0           conv2_block3_1_bn[0][0]          
__________________________________________________________________________________________________
conv2_block3_2_pad (ZeroPadding (None, 21, 21, 64)   0           conv2_block3_1_relu[0][0]        
__________________________________________________________________________________________________
conv2_block3_2_conv (Conv2D)    (None, 10, 10, 64)   36864       conv2_block3_2_pad[0][0]         
__________________________________________________________________________________________________
conv2_block3_2_bn (BatchNormali (None, 10, 10, 64)   256         conv2_block3_2_conv[0][0]        
__________________________________________________________________________________________________
conv2_block3_2_relu (Activation (None, 10, 10, 64)   0           conv2_block3_2_bn[0][0]          
__________________________________________________________________________________________________
max_pooling2d (MaxPooling2D)    (None, 10, 10, 256)  0           conv2_block2_out[0][0]           
__________________________________________________________________________________________________
conv2_block3_3_conv (Conv2D)    (None, 10, 10, 256)  16640       conv2_block3_2_relu[0][0]        
__________________________________________________________________________________________________
conv2_block3_out (Add)          (None, 10, 10, 256)  0           max_pooling2d[0][0]              
                                                                 conv2_block3_3_conv[0][0]        
__________________________________________________________________________________________________
conv3_block1_preact_bn (BatchNo (None, 10, 10, 256)  1024        conv2_block3_out[0][0]           
__________________________________________________________________________________________________
conv3_block1_preact_relu (Activ (None, 10, 10, 256)  0           conv3_block1_preact_bn[0][0]     
__________________________________________________________________________________________________
conv3_block1_1_conv (Conv2D)    (None, 10, 10, 128)  32768       conv3_block1_preact_relu[0][0]   
__________________________________________________________________________________________________
conv3_block1_1_bn (BatchNormali (None, 10, 10, 128)  512         conv3_block1_1_conv[0][0]        
__________________________________________________________________________________________________
conv3_block1_1_relu (Activation (None, 10, 10, 128)  0           conv3_block1_1_bn[0][0]          
__________________________________________________________________________________________________
conv3_block1_2_pad (ZeroPadding (None, 12, 12, 128)  0           conv3_block1_1_relu[0][0]        
__________________________________________________________________________________________________
conv3_block1_2_conv (Conv2D)    (None, 10, 10, 128)  147456      conv3_block1_2_pad[0][0]         
__________________________________________________________________________________________________
conv3_block1_2_bn (BatchNormali (None, 10, 10, 128)  512         conv3_block1_2_conv[0][0]        
__________________________________________________________________________________________________
conv3_block1_2_relu (Activation (None, 10, 10, 128)  0           conv3_block1_2_bn[0][0]          
__________________________________________________________________________________________________
conv3_block1_0_conv (Conv2D)    (None, 10, 10, 512)  131584      conv3_block1_preact_relu[0][0]   
__________________________________________________________________________________________________
conv3_block1_3_conv (Conv2D)    (None, 10, 10, 512)  66048       conv3_block1_2_relu[0][0]        
__________________________________________________________________________________________________
conv3_block1_out (Add)          (None, 10, 10, 512)  0           conv3_block1_0_conv[0][0]        
                                                                 conv3_block1_3_conv[0][0]        
__________________________________________________________________________________________________
conv3_block2_preact_bn (BatchNo (None, 10, 10, 512)  2048        conv3_block1_out[0][0]           
__________________________________________________________________________________________________
conv3_block2_preact_relu (Activ (None, 10, 10, 512)  0           conv3_block2_preact_bn[0][0]     
__________________________________________________________________________________________________
conv3_block2_1_conv (Conv2D)    (None, 10, 10, 128)  65536       conv3_block2_preact_relu[0][0]   
__________________________________________________________________________________________________
conv3_block2_1_bn (BatchNormali (None, 10, 10, 128)  512         conv3_block2_1_conv[0][0]        
__________________________________________________________________________________________________
conv3_block2_1_relu (Activation (None, 10, 10, 128)  0           conv3_block2_1_bn[0][0]          
__________________________________________________________________________________________________
conv3_block2_2_pad (ZeroPadding (None, 12, 12, 128)  0           conv3_block2_1_relu[0][0]        
__________________________________________________________________________________________________
conv3_block2_2_conv (Conv2D)    (None, 10, 10, 128)  147456      conv3_block2_2_pad[0][0]         
__________________________________________________________________________________________________
conv3_block2_2_bn (BatchNormali (None, 10, 10, 128)  512         conv3_block2_2_conv[0][0]        
__________________________________________________________________________________________________
conv3_block2_2_relu (Activation (None, 10, 10, 128)  0           conv3_block2_2_bn[0][0]          
__________________________________________________________________________________________________
conv3_block2_3_conv (Conv2D)    (None, 10, 10, 512)  66048       conv3_block2_2_relu[0][0]        
__________________________________________________________________________________________________
conv3_block2_out (Add)          (None, 10, 10, 512)  0           conv3_block1_out[0][0]           
                                                                 conv3_block2_3_conv[0][0]        
__________________________________________________________________________________________________
conv3_block3_preact_bn (BatchNo (None, 10, 10, 512)  2048        conv3_block2_out[0][0]           
__________________________________________________________________________________________________
conv3_block3_preact_relu (Activ (None, 10, 10, 512)  0           conv3_block3_preact_bn[0][0]     
__________________________________________________________________________________________________
conv3_block3_1_conv (Conv2D)    (None, 10, 10, 128)  65536       conv3_block3_preact_relu[0][0]   
__________________________________________________________________________________________________
conv3_block3_1_bn (BatchNormali (None, 10, 10, 128)  512         conv3_block3_1_conv[0][0]        
__________________________________________________________________________________________________
conv3_block3_1_relu (Activation (None, 10, 10, 128)  0           conv3_block3_1_bn[0][0]          
__________________________________________________________________________________________________
conv3_block3_2_pad (ZeroPadding (None, 12, 12, 128)  0           conv3_block3_1_relu[0][0]        
__________________________________________________________________________________________________
conv3_block3_2_conv (Conv2D)    (None, 10, 10, 128)  147456      conv3_block3_2_pad[0][0]         
__________________________________________________________________________________________________
conv3_block3_2_bn (BatchNormali (None, 10, 10, 128)  512         conv3_block3_2_conv[0][0]        
__________________________________________________________________________________________________
conv3_block3_2_relu (Activation (None, 10, 10, 128)  0           conv3_block3_2_bn[0][0]          
__________________________________________________________________________________________________
conv3_block3_3_conv (Conv2D)    (None, 10, 10, 512)  66048       conv3_block3_2_relu[0][0]        
__________________________________________________________________________________________________
conv3_block3_out (Add)          (None, 10, 10, 512)  0           conv3_block2_out[0][0]           
                                                                 conv3_block3_3_conv[0][0]        
__________________________________________________________________________________________________
conv3_block4_preact_bn (BatchNo (None, 10, 10, 512)  2048        conv3_block3_out[0][0]           
__________________________________________________________________________________________________
conv3_block4_preact_relu (Activ (None, 10, 10, 512)  0           conv3_block4_preact_bn[0][0]     
__________________________________________________________________________________________________
conv3_block4_1_conv (Conv2D)    (None, 10, 10, 128)  65536       conv3_block4_preact_relu[0][0]   
__________________________________________________________________________________________________
conv3_block4_1_bn (BatchNormali (None, 10, 10, 128)  512         conv3_block4_1_conv[0][0]        
__________________________________________________________________________________________________
conv3_block4_1_relu (Activation (None, 10, 10, 128)  0           conv3_block4_1_bn[0][0]          
__________________________________________________________________________________________________
conv3_block4_2_pad (ZeroPadding (None, 12, 12, 128)  0           conv3_block4_1_relu[0][0]        
__________________________________________________________________________________________________
conv3_block4_2_conv (Conv2D)    (None, 5, 5, 128)    147456      conv3_block4_2_pad[0][0]         
__________________________________________________________________________________________________
conv3_block4_2_bn (BatchNormali (None, 5, 5, 128)    512         conv3_block4_2_conv[0][0]        
__________________________________________________________________________________________________
conv3_block4_2_relu (Activation (None, 5, 5, 128)    0           conv3_block4_2_bn[0][0]          
__________________________________________________________________________________________________
max_pooling2d_1 (MaxPooling2D)  (None, 5, 5, 512)    0           conv3_block3_out[0][0]           
__________________________________________________________________________________________________
conv3_block4_3_conv (Conv2D)    (None, 5, 5, 512)    66048       conv3_block4_2_relu[0][0]        
__________________________________________________________________________________________________
conv3_block4_out (Add)          (None, 5, 5, 512)    0           max_pooling2d_1[0][0]            
                                                                 conv3_block4_3_conv[0][0]        
__________________________________________________________________________________________________
conv4_block1_preact_bn (BatchNo (None, 5, 5, 512)    2048        conv3_block4_out[0][0]           
__________________________________________________________________________________________________
conv4_block1_preact_relu (Activ (None, 5, 5, 512)    0           conv4_block1_preact_bn[0][0]     
__________________________________________________________________________________________________
conv4_block1_1_conv (Conv2D)    (None, 5, 5, 256)    131072      conv4_block1_preact_relu[0][0]   
__________________________________________________________________________________________________
conv4_block1_1_bn (BatchNormali (None, 5, 5, 256)    1024        conv4_block1_1_conv[0][0]        
__________________________________________________________________________________________________
conv4_block1_1_relu (Activation (None, 5, 5, 256)    0           conv4_block1_1_bn[0][0]          
__________________________________________________________________________________________________
conv4_block1_2_pad (ZeroPadding (None, 7, 7, 256)    0           conv4_block1_1_relu[0][0]        
__________________________________________________________________________________________________
conv4_block1_2_conv (Conv2D)    (None, 5, 5, 256)    589824      conv4_block1_2_pad[0][0]         
__________________________________________________________________________________________________
conv4_block1_2_bn (BatchNormali (None, 5, 5, 256)    1024        conv4_block1_2_conv[0][0]        
__________________________________________________________________________________________________
conv4_block1_2_relu (Activation (None, 5, 5, 256)    0           conv4_block1_2_bn[0][0]          
__________________________________________________________________________________________________
conv4_block1_0_conv (Conv2D)    (None, 5, 5, 1024)   525312      conv4_block1_preact_relu[0][0]   
__________________________________________________________________________________________________
conv4_block1_3_conv (Conv2D)    (None, 5, 5, 1024)   263168      conv4_block1_2_relu[0][0]        
__________________________________________________________________________________________________
conv4_block1_out (Add)          (None, 5, 5, 1024)   0           conv4_block1_0_conv[0][0]        
                                                                 conv4_block1_3_conv[0][0]        
__________________________________________________________________________________________________
conv4_block2_preact_bn (BatchNo (None, 5, 5, 1024)   4096        conv4_block1_out[0][0]           
__________________________________________________________________________________________________
conv4_block2_preact_relu (Activ (None, 5, 5, 1024)   0           conv4_block2_preact_bn[0][0]     
__________________________________________________________________________________________________
conv4_block2_1_conv (Conv2D)    (None, 5, 5, 256)    262144      conv4_block2_preact_relu[0][0]   
__________________________________________________________________________________________________
conv4_block2_1_bn (BatchNormali (None, 5, 5, 256)    1024        conv4_block2_1_conv[0][0]        
__________________________________________________________________________________________________
conv4_block2_1_relu (Activation (None, 5, 5, 256)    0           conv4_block2_1_bn[0][0]          
__________________________________________________________________________________________________
conv4_block2_2_pad (ZeroPadding (None, 7, 7, 256)    0           conv4_block2_1_relu[0][0]        
__________________________________________________________________________________________________
conv4_block2_2_conv (Conv2D)    (None, 5, 5, 256)    589824      conv4_block2_2_pad[0][0]         
__________________________________________________________________________________________________
conv4_block2_2_bn (BatchNormali (None, 5, 5, 256)    1024        conv4_block2_2_conv[0][0]        
__________________________________________________________________________________________________
conv4_block2_2_relu (Activation (None, 5, 5, 256)    0           conv4_block2_2_bn[0][0]          
__________________________________________________________________________________________________
conv4_block2_3_conv (Conv2D)    (None, 5, 5, 1024)   263168      conv4_block2_2_relu[0][0]        
__________________________________________________________________________________________________
conv4_block2_out (Add)          (None, 5, 5, 1024)   0           conv4_block1_out[0][0]           
                                                                 conv4_block2_3_conv[0][0]        
__________________________________________________________________________________________________
conv4_block3_preact_bn (BatchNo (None, 5, 5, 1024)   4096        conv4_block2_out[0][0]           
__________________________________________________________________________________________________
conv4_block3_preact_relu (Activ (None, 5, 5, 1024)   0           conv4_block3_preact_bn[0][0]     
__________________________________________________________________________________________________
conv4_block3_1_conv (Conv2D)    (None, 5, 5, 256)    262144      conv4_block3_preact_relu[0][0]   
__________________________________________________________________________________________________
conv4_block3_1_bn (BatchNormali (None, 5, 5, 256)    1024        conv4_block3_1_conv[0][0]        
__________________________________________________________________________________________________
conv4_block3_1_relu (Activation (None, 5, 5, 256)    0           conv4_block3_1_bn[0][0]          
__________________________________________________________________________________________________
conv4_block3_2_pad (ZeroPadding (None, 7, 7, 256)    0           conv4_block3_1_relu[0][0]        
__________________________________________________________________________________________________
conv4_block3_2_conv (Conv2D)    (None, 5, 5, 256)    589824      conv4_block3_2_pad[0][0]         
__________________________________________________________________________________________________
conv4_block3_2_bn (BatchNormali (None, 5, 5, 256)    1024        conv4_block3_2_conv[0][0]        
__________________________________________________________________________________________________
conv4_block3_2_relu (Activation (None, 5, 5, 256)    0           conv4_block3_2_bn[0][0]          
__________________________________________________________________________________________________
conv4_block3_3_conv (Conv2D)    (None, 5, 5, 1024)   263168      conv4_block3_2_relu[0][0]        
__________________________________________________________________________________________________
conv4_block3_out (Add)          (None, 5, 5, 1024)   0           conv4_block2_out[0][0]           
                                                                 conv4_block3_3_conv[0][0]        
__________________________________________________________________________________________________
conv4_block4_preact_bn (BatchNo (None, 5, 5, 1024)   4096        conv4_block3_out[0][0]           
__________________________________________________________________________________________________
conv4_block4_preact_relu (Activ (None, 5, 5, 1024)   0           conv4_block4_preact_bn[0][0]     
__________________________________________________________________________________________________
conv4_block4_1_conv (Conv2D)    (None, 5, 5, 256)    262144      conv4_block4_preact_relu[0][0]   
__________________________________________________________________________________________________
conv4_block4_1_bn (BatchNormali (None, 5, 5, 256)    1024        conv4_block4_1_conv[0][0]        
__________________________________________________________________________________________________
conv4_block4_1_relu (Activation (None, 5, 5, 256)    0           conv4_block4_1_bn[0][0]          
__________________________________________________________________________________________________
conv4_block4_2_pad (ZeroPadding (None, 7, 7, 256)    0           conv4_block4_1_relu[0][0]        
__________________________________________________________________________________________________
conv4_block4_2_conv (Conv2D)    (None, 5, 5, 256)    589824      conv4_block4_2_pad[0][0]         
__________________________________________________________________________________________________
conv4_block4_2_bn (BatchNormali (None, 5, 5, 256)    1024        conv4_block4_2_conv[0][0]        
__________________________________________________________________________________________________
conv4_block4_2_relu (Activation (None, 5, 5, 256)    0           conv4_block4_2_bn[0][0]          
__________________________________________________________________________________________________
conv4_block4_3_conv (Conv2D)    (None, 5, 5, 1024)   263168      conv4_block4_2_relu[0][0]        
__________________________________________________________________________________________________
conv4_block4_out (Add)          (None, 5, 5, 1024)   0           conv4_block3_out[0][0]           
                                                                 conv4_block4_3_conv[0][0]        
__________________________________________________________________________________________________
conv4_block5_preact_bn (BatchNo (None, 5, 5, 1024)   4096        conv4_block4_out[0][0]           
__________________________________________________________________________________________________
conv4_block5_preact_relu (Activ (None, 5, 5, 1024)   0           conv4_block5_preact_bn[0][0]     
__________________________________________________________________________________________________
conv4_block5_1_conv (Conv2D)    (None, 5, 5, 256)    262144      conv4_block5_preact_relu[0][0]   
__________________________________________________________________________________________________
conv4_block5_1_bn (BatchNormali (None, 5, 5, 256)    1024        conv4_block5_1_conv[0][0]        
__________________________________________________________________________________________________
conv4_block5_1_relu (Activation (None, 5, 5, 256)    0           conv4_block5_1_bn[0][0]          
__________________________________________________________________________________________________
conv4_block5_2_pad (ZeroPadding (None, 7, 7, 256)    0           conv4_block5_1_relu[0][0]        
__________________________________________________________________________________________________
conv4_block5_2_conv (Conv2D)    (None, 5, 5, 256)    589824      conv4_block5_2_pad[0][0]         
__________________________________________________________________________________________________
conv4_block5_2_bn (BatchNormali (None, 5, 5, 256)    1024        conv4_block5_2_conv[0][0]        
__________________________________________________________________________________________________
conv4_block5_2_relu (Activation (None, 5, 5, 256)    0           conv4_block5_2_bn[0][0]          
__________________________________________________________________________________________________
conv4_block5_3_conv (Conv2D)    (None, 5, 5, 1024)   263168      conv4_block5_2_relu[0][0]        
__________________________________________________________________________________________________
conv4_block5_out (Add)          (None, 5, 5, 1024)   0           conv4_block4_out[0][0]           
                                                                 conv4_block5_3_conv[0][0]        
__________________________________________________________________________________________________
conv4_block6_preact_bn (BatchNo (None, 5, 5, 1024)   4096        conv4_block5_out[0][0]           
__________________________________________________________________________________________________
conv4_block6_preact_relu (Activ (None, 5, 5, 1024)   0           conv4_block6_preact_bn[0][0]     
__________________________________________________________________________________________________
conv4_block6_1_conv (Conv2D)    (None, 5, 5, 256)    262144      conv4_block6_preact_relu[0][0]   
__________________________________________________________________________________________________
conv4_block6_1_bn (BatchNormali (None, 5, 5, 256)    1024        conv4_block6_1_conv[0][0]        
__________________________________________________________________________________________________
conv4_block6_1_relu (Activation (None, 5, 5, 256)    0           conv4_block6_1_bn[0][0]          
__________________________________________________________________________________________________
conv4_block6_2_pad (ZeroPadding (None, 7, 7, 256)    0           conv4_block6_1_relu[0][0]        
__________________________________________________________________________________________________
conv4_block6_2_conv (Conv2D)    (None, 3, 3, 256)    589824      conv4_block6_2_pad[0][0]         
__________________________________________________________________________________________________
conv4_block6_2_bn (BatchNormali (None, 3, 3, 256)    1024        conv4_block6_2_conv[0][0]        
__________________________________________________________________________________________________
conv4_block6_2_relu (Activation (None, 3, 3, 256)    0           conv4_block6_2_bn[0][0]          
__________________________________________________________________________________________________
max_pooling2d_2 (MaxPooling2D)  (None, 3, 3, 1024)   0           conv4_block5_out[0][0]           
__________________________________________________________________________________________________
conv4_block6_3_conv (Conv2D)    (None, 3, 3, 1024)   263168      conv4_block6_2_relu[0][0]        
__________________________________________________________________________________________________
conv4_block6_out (Add)          (None, 3, 3, 1024)   0           max_pooling2d_2[0][0]            
                                                                 conv4_block6_3_conv[0][0]        
__________________________________________________________________________________________________
conv5_block1_preact_bn (BatchNo (None, 3, 3, 1024)   4096        conv4_block6_out[0][0]           
__________________________________________________________________________________________________
conv5_block1_preact_relu (Activ (None, 3, 3, 1024)   0           conv5_block1_preact_bn[0][0]     
__________________________________________________________________________________________________
conv5_block1_1_conv (Conv2D)    (None, 3, 3, 512)    524288      conv5_block1_preact_relu[0][0]   
__________________________________________________________________________________________________
conv5_block1_1_bn (BatchNormali (None, 3, 3, 512)    2048        conv5_block1_1_conv[0][0]        
__________________________________________________________________________________________________
conv5_block1_1_relu (Activation (None, 3, 3, 512)    0           conv5_block1_1_bn[0][0]          
__________________________________________________________________________________________________
conv5_block1_2_pad (ZeroPadding (None, 5, 5, 512)    0           conv5_block1_1_relu[0][0]        
__________________________________________________________________________________________________
conv5_block1_2_conv (Conv2D)    (None, 3, 3, 512)    2359296     conv5_block1_2_pad[0][0]         
__________________________________________________________________________________________________
conv5_block1_2_bn (BatchNormali (None, 3, 3, 512)    2048        conv5_block1_2_conv[0][0]        
__________________________________________________________________________________________________
conv5_block1_2_relu (Activation (None, 3, 3, 512)    0           conv5_block1_2_bn[0][0]          
__________________________________________________________________________________________________
conv5_block1_0_conv (Conv2D)    (None, 3, 3, 2048)   2099200     conv5_block1_preact_relu[0][0]   
__________________________________________________________________________________________________
conv5_block1_3_conv (Conv2D)    (None, 3, 3, 2048)   1050624     conv5_block1_2_relu[0][0]        
__________________________________________________________________________________________________
conv5_block1_out (Add)          (None, 3, 3, 2048)   0           conv5_block1_0_conv[0][0]        
                                                                 conv5_block1_3_conv[0][0]        
__________________________________________________________________________________________________
conv5_block2_preact_bn (BatchNo (None, 3, 3, 2048)   8192        conv5_block1_out[0][0]           
__________________________________________________________________________________________________
conv5_block2_preact_relu (Activ (None, 3, 3, 2048)   0           conv5_block2_preact_bn[0][0]     
__________________________________________________________________________________________________
conv5_block2_1_conv (Conv2D)    (None, 3, 3, 512)    1048576     conv5_block2_preact_relu[0][0]   
__________________________________________________________________________________________________
conv5_block2_1_bn (BatchNormali (None, 3, 3, 512)    2048        conv5_block2_1_conv[0][0]        
__________________________________________________________________________________________________
conv5_block2_1_relu (Activation (None, 3, 3, 512)    0           conv5_block2_1_bn[0][0]          
__________________________________________________________________________________________________
conv5_block2_2_pad (ZeroPadding (None, 5, 5, 512)    0           conv5_block2_1_relu[0][0]        
__________________________________________________________________________________________________
conv5_block2_2_conv (Conv2D)    (None, 3, 3, 512)    2359296     conv5_block2_2_pad[0][0]         
__________________________________________________________________________________________________
conv5_block2_2_bn (BatchNormali (None, 3, 3, 512)    2048        conv5_block2_2_conv[0][0]        
__________________________________________________________________________________________________
conv5_block2_2_relu (Activation (None, 3, 3, 512)    0           conv5_block2_2_bn[0][0]          
__________________________________________________________________________________________________
conv5_block2_3_conv (Conv2D)    (None, 3, 3, 2048)   1050624     conv5_block2_2_relu[0][0]        
__________________________________________________________________________________________________
conv5_block2_out (Add)          (None, 3, 3, 2048)   0           conv5_block1_out[0][0]           
                                                                 conv5_block2_3_conv[0][0]        
__________________________________________________________________________________________________
conv5_block3_preact_bn (BatchNo (None, 3, 3, 2048)   8192        conv5_block2_out[0][0]           
__________________________________________________________________________________________________
conv5_block3_preact_relu (Activ (None, 3, 3, 2048)   0           conv5_block3_preact_bn[0][0]     
__________________________________________________________________________________________________
conv5_block3_1_conv (Conv2D)    (None, 3, 3, 512)    1048576     conv5_block3_preact_relu[0][0]   
__________________________________________________________________________________________________
conv5_block3_1_bn (BatchNormali (None, 3, 3, 512)    2048        conv5_block3_1_conv[0][0]        
__________________________________________________________________________________________________
conv5_block3_1_relu (Activation (None, 3, 3, 512)    0           conv5_block3_1_bn[0][0]          
__________________________________________________________________________________________________
conv5_block3_2_pad (ZeroPadding (None, 5, 5, 512)    0           conv5_block3_1_relu[0][0]        
__________________________________________________________________________________________________
conv5_block3_2_conv (Conv2D)    (None, 3, 3, 512)    2359296     conv5_block3_2_pad[0][0]         
__________________________________________________________________________________________________
conv5_block3_2_bn (BatchNormali (None, 3, 3, 512)    2048        conv5_block3_2_conv[0][0]        
__________________________________________________________________________________________________
conv5_block3_2_relu (Activation (None, 3, 3, 512)    0           conv5_block3_2_bn[0][0]          
__________________________________________________________________________________________________
conv5_block3_3_conv (Conv2D)    (None, 3, 3, 2048)   1050624     conv5_block3_2_relu[0][0]        
__________________________________________________________________________________________________
conv5_block3_out (Add)          (None, 3, 3, 2048)   0           conv5_block2_out[0][0]           
                                                                 conv5_block3_3_conv[0][0]        
__________________________________________________________________________________________________
post_bn (BatchNormalization)    (None, 3, 3, 2048)   8192        conv5_block3_out[0][0]           
__________________________________________________________________________________________________
post_relu (Activation)          (None, 3, 3, 2048)   0           post_bn[0][0]                    
__________________________________________________________________________________________________
flatten (Flatten)               (None, 18432)        0           post_relu[0][0]                  
__________________________________________________________________________________________________
fc1 (Dense)                     (None, 4096)         75501568    flatten[0][0]                    
__________________________________________________________________________________________________
fc2 (Dense)                     (None, 4096)         16781312    fc1[0][0]                        
__________________________________________________________________________________________________
predictions (Dense)             (None, 10)           40970       fc2[0][0]                        
==================================================================================================
Total params: 115,888,650
Trainable params: 115,843,210
Non-trainable params: 45,440
__________________________________________________________________________________________________
Start fitting ensemble models
Length split part:  16667
Labels in this part of split:  [1667, 1656, 1712, 1682, 1675, 1579, 1703, 1687, 1681, 1625]
…
