…
          N_ENSEMBLE_MEMBERS = 3, MIN_DELTA = 0.005, Early_monitor = val_accuracy
x_train shape: (4193, 256, 256, 3)
4193 train samples
346 test samples
Total labels in train set:  [840, 840, 839, 838, 836]
Labels in validation set:  [119, 22, 28, 7, 3]
Labels in test set:  [202, 58, 70, 10, 6]
Xception
Model: "model"
__________________________________________________________________________________________________
Layer (type)                    Output Shape         Param #     Connected to                     
==================================================================================================
input_1 (InputLayer)            [(None, 256, 256, 3) 0                                            
__________________________________________________________________________________________________
block1_conv1 (Conv2D)           (None, 127, 127, 32) 864         input_1[0][0]                    
__________________________________________________________________________________________________
block1_conv1_bn (BatchNormaliza (None, 127, 127, 32) 128         block1_conv1[0][0]               
__________________________________________________________________________________________________
block1_conv1_act (Activation)   (None, 127, 127, 32) 0           block1_conv1_bn[0][0]            
__________________________________________________________________________________________________
block1_conv2 (Conv2D)           (None, 125, 125, 64) 18432       block1_conv1_act[0][0]           
__________________________________________________________________________________________________
block1_conv2_bn (BatchNormaliza (None, 125, 125, 64) 256         block1_conv2[0][0]               
__________________________________________________________________________________________________
block1_conv2_act (Activation)   (None, 125, 125, 64) 0           block1_conv2_bn[0][0]            
__________________________________________________________________________________________________
block2_sepconv1 (SeparableConv2 (None, 125, 125, 128 8768        block1_conv2_act[0][0]           
__________________________________________________________________________________________________
block2_sepconv1_bn (BatchNormal (None, 125, 125, 128 512         block2_sepconv1[0][0]            
…
block2_sepconv2_act (Activation (None, 125, 125, 128 0           block2_sepconv1_bn[0][0]         
__________________________________________________________________________________________________
block2_sepconv2 (SeparableConv2 (None, 125, 125, 128 17536       block2_sepconv2_act[0][0]        
__________________________________________________________________________________________________
block2_sepconv2_bn (BatchNormal (None, 125, 125, 128 512         block2_sepconv2[0][0]            
__________________________________________________________________________________________________
conv2d (Conv2D)                 (None, 63, 63, 128)  8192        block1_conv2_act[0][0]           
__________________________________________________________________________________________________
block2_pool (MaxPooling2D)      (None, 63, 63, 128)  0           block2_sepconv2_bn[0][0]         
__________________________________________________________________________________________________
batch_normalization (BatchNorma (None, 63, 63, 128)  512         conv2d[0][0]                     
__________________________________________________________________________________________________
add (Add)                       (None, 63, 63, 128)  0           block2_pool[0][0]                
                                                                 batch_normalization[0][0]        
__________________________________________________________________________________________________
block3_sepconv1_act (Activation (None, 63, 63, 128)  0           add[0][0]                        
__________________________________________________________________________________________________
block3_sepconv1 (SeparableConv2 (None, 63, 63, 256)  33920       block3_sepconv1_act[0][0]        
__________________________________________________________________________________________________
block3_sepconv1_bn (BatchNormal (None, 63, 63, 256)  1024        block3_sepconv1[0][0]            
__________________________________________________________________________________________________
block3_sepconv2_act (Activation (None, 63, 63, 256)  0           block3_sepconv1_bn[0][0]         
__________________________________________________________________________________________________
block3_sepconv2 (SeparableConv2 (None, 63, 63, 256)  67840       block3_sepconv2_act[0][0]        
__________________________________________________________________________________________________
block3_sepconv2_bn (BatchNormal (None, 63, 63, 256)  1024        block3_sepconv2[0][0]            
__________________________________________________________________________________________________
conv2d_1 (Conv2D)               (None, 32, 32, 256)  32768       add[0][0]                        
__________________________________________________________________________________________________
block3_pool (MaxPooling2D)      (None, 32, 32, 256)  0           block3_sepconv2_bn[0][0]         
__________________________________________________________________________________________________
batch_normalization_1 (BatchNor (None, 32, 32, 256)  1024        conv2d_1[0][0]                   
__________________________________________________________________________________________________
add_1 (Add)                     (None, 32, 32, 256)  0           block3_pool[0][0]                
                                                                 batch_normalization_1[0][0]      
__________________________________________________________________________________________________
block4_sepconv1_act (Activation (None, 32, 32, 256)  0           add_1[0][0]                      
__________________________________________________________________________________________________
block4_sepconv1 (SeparableConv2 (None, 32, 32, 728)  188672      block4_sepconv1_act[0][0]        
__________________________________________________________________________________________________
block4_sepconv1_bn (BatchNormal (None, 32, 32, 728)  2912        block4_sepconv1[0][0]            
__________________________________________________________________________________________________
block4_sepconv2_act (Activation (None, 32, 32, 728)  0           block4_sepconv1_bn[0][0]         
__________________________________________________________________________________________________
block4_sepconv2 (SeparableConv2 (None, 32, 32, 728)  536536      block4_sepconv2_act[0][0]        
__________________________________________________________________________________________________
block4_sepconv2_bn (BatchNormal (None, 32, 32, 728)  2912        block4_sepconv2[0][0]            
__________________________________________________________________________________________________
conv2d_2 (Conv2D)               (None, 16, 16, 728)  186368      add_1[0][0]                      
__________________________________________________________________________________________________
block4_pool (MaxPooling2D)      (None, 16, 16, 728)  0           block4_sepconv2_bn[0][0]         
__________________________________________________________________________________________________
batch_normalization_2 (BatchNor (None, 16, 16, 728)  2912        conv2d_2[0][0]                   
__________________________________________________________________________________________________
add_2 (Add)                     (None, 16, 16, 728)  0           block4_pool[0][0]                
                                                                 batch_normalization_2[0][0]      
__________________________________________________________________________________________________
block5_sepconv1_act (Activation (None, 16, 16, 728)  0           add_2[0][0]                      
__________________________________________________________________________________________________
block5_sepconv1 (SeparableConv2 (None, 16, 16, 728)  536536      block5_sepconv1_act[0][0]        
__________________________________________________________________________________________________
block5_sepconv1_bn (BatchNormal (None, 16, 16, 728)  2912        block5_sepconv1[0][0]            
__________________________________________________________________________________________________
block5_sepconv2_act (Activation (None, 16, 16, 728)  0           block5_sepconv1_bn[0][0]         
__________________________________________________________________________________________________
block5_sepconv2 (SeparableConv2 (None, 16, 16, 728)  536536      block5_sepconv2_act[0][0]        
__________________________________________________________________________________________________
block5_sepconv2_bn (BatchNormal (None, 16, 16, 728)  2912        block5_sepconv2[0][0]            
__________________________________________________________________________________________________
block5_sepconv3_act (Activation (None, 16, 16, 728)  0           block5_sepconv2_bn[0][0]         
__________________________________________________________________________________________________
block5_sepconv3 (SeparableConv2 (None, 16, 16, 728)  536536      block5_sepconv3_act[0][0]        
__________________________________________________________________________________________________
block5_sepconv3_bn (BatchNormal (None, 16, 16, 728)  2912        block5_sepconv3[0][0]            
__________________________________________________________________________________________________
add_3 (Add)                     (None, 16, 16, 728)  0           block5_sepconv3_bn[0][0]         
                                                                 add_2[0][0]                      
__________________________________________________________________________________________________
block6_sepconv1_act (Activation (None, 16, 16, 728)  0           add_3[0][0]                      
__________________________________________________________________________________________________
block6_sepconv1 (SeparableConv2 (None, 16, 16, 728)  536536      block6_sepconv1_act[0][0]        
__________________________________________________________________________________________________
block6_sepconv1_bn (BatchNormal (None, 16, 16, 728)  2912        block6_sepconv1[0][0]            
__________________________________________________________________________________________________
block6_sepconv2_act (Activation (None, 16, 16, 728)  0           block6_sepconv1_bn[0][0]         
__________________________________________________________________________________________________
block6_sepconv2 (SeparableConv2 (None, 16, 16, 728)  536536      block6_sepconv2_act[0][0]        
__________________________________________________________________________________________________
block6_sepconv2_bn (BatchNormal (None, 16, 16, 728)  2912        block6_sepconv2[0][0]            
__________________________________________________________________________________________________
block6_sepconv3_act (Activation (None, 16, 16, 728)  0           block6_sepconv2_bn[0][0]         
__________________________________________________________________________________________________
block6_sepconv3 (SeparableConv2 (None, 16, 16, 728)  536536      block6_sepconv3_act[0][0]        
__________________________________________________________________________________________________
block6_sepconv3_bn (BatchNormal (None, 16, 16, 728)  2912        block6_sepconv3[0][0]            
__________________________________________________________________________________________________
add_4 (Add)                     (None, 16, 16, 728)  0           block6_sepconv3_bn[0][0]         
                                                                 add_3[0][0]                      
__________________________________________________________________________________________________
block7_sepconv1_act (Activation (None, 16, 16, 728)  0           add_4[0][0]                      
__________________________________________________________________________________________________
block7_sepconv1 (SeparableConv2 (None, 16, 16, 728)  536536      block7_sepconv1_act[0][0]        
__________________________________________________________________________________________________
block7_sepconv1_bn (BatchNormal (None, 16, 16, 728)  2912        block7_sepconv1[0][0]            
__________________________________________________________________________________________________
block7_sepconv2_act (Activation (None, 16, 16, 728)  0           block7_sepconv1_bn[0][0]         
__________________________________________________________________________________________________
block7_sepconv2 (SeparableConv2 (None, 16, 16, 728)  536536      block7_sepconv2_act[0][0]        
__________________________________________________________________________________________________
block7_sepconv2_bn (BatchNormal (None, 16, 16, 728)  2912        block7_sepconv2[0][0]            
__________________________________________________________________________________________________
block7_sepconv3_act (Activation (None, 16, 16, 728)  0           block7_sepconv2_bn[0][0]         
__________________________________________________________________________________________________
block7_sepconv3 (SeparableConv2 (None, 16, 16, 728)  536536      block7_sepconv3_act[0][0]        
__________________________________________________________________________________________________
block7_sepconv3_bn (BatchNormal (None, 16, 16, 728)  2912        block7_sepconv3[0][0]            
__________________________________________________________________________________________________
add_5 (Add)                     (None, 16, 16, 728)  0           block7_sepconv3_bn[0][0]         
                                                                 add_4[0][0]                      
__________________________________________________________________________________________________
block8_sepconv1_act (Activation (None, 16, 16, 728)  0           add_5[0][0]                      
__________________________________________________________________________________________________
block8_sepconv1 (SeparableConv2 (None, 16, 16, 728)  536536      block8_sepconv1_act[0][0]        
__________________________________________________________________________________________________
block8_sepconv1_bn (BatchNormal (None, 16, 16, 728)  2912        block8_sepconv1[0][0]            
__________________________________________________________________________________________________
block8_sepconv2_act (Activation (None, 16, 16, 728)  0           block8_sepconv1_bn[0][0]         
__________________________________________________________________________________________________
block8_sepconv2 (SeparableConv2 (None, 16, 16, 728)  536536      block8_sepconv2_act[0][0]        
__________________________________________________________________________________________________
block8_sepconv2_bn (BatchNormal (None, 16, 16, 728)  2912        block8_sepconv2[0][0]            
__________________________________________________________________________________________________
block8_sepconv3_act (Activation (None, 16, 16, 728)  0           block8_sepconv2_bn[0][0]         
__________________________________________________________________________________________________
block8_sepconv3 (SeparableConv2 (None, 16, 16, 728)  536536      block8_sepconv3_act[0][0]        
__________________________________________________________________________________________________
block8_sepconv3_bn (BatchNormal (None, 16, 16, 728)  2912        block8_sepconv3[0][0]            
__________________________________________________________________________________________________
add_6 (Add)                     (None, 16, 16, 728)  0           block8_sepconv3_bn[0][0]         
                                                                 add_5[0][0]                      
__________________________________________________________________________________________________
block9_sepconv1_act (Activation (None, 16, 16, 728)  0           add_6[0][0]                      
__________________________________________________________________________________________________
block9_sepconv1 (SeparableConv2 (None, 16, 16, 728)  536536      block9_sepconv1_act[0][0]        
__________________________________________________________________________________________________
block9_sepconv1_bn (BatchNormal (None, 16, 16, 728)  2912        block9_sepconv1[0][0]            
__________________________________________________________________________________________________
block9_sepconv2_act (Activation (None, 16, 16, 728)  0           block9_sepconv1_bn[0][0]         
__________________________________________________________________________________________________
block9_sepconv2 (SeparableConv2 (None, 16, 16, 728)  536536      block9_sepconv2_act[0][0]        
__________________________________________________________________________________________________
block9_sepconv2_bn (BatchNormal (None, 16, 16, 728)  2912        block9_sepconv2[0][0]            
__________________________________________________________________________________________________
block9_sepconv3_act (Activation (None, 16, 16, 728)  0           block9_sepconv2_bn[0][0]         
__________________________________________________________________________________________________
block9_sepconv3 (SeparableConv2 (None, 16, 16, 728)  536536      block9_sepconv3_act[0][0]        
__________________________________________________________________________________________________
block9_sepconv3_bn (BatchNormal (None, 16, 16, 728)  2912        block9_sepconv3[0][0]            
__________________________________________________________________________________________________
add_7 (Add)                     (None, 16, 16, 728)  0           block9_sepconv3_bn[0][0]         
                                                                 add_6[0][0]                      
__________________________________________________________________________________________________
block10_sepconv1_act (Activatio (None, 16, 16, 728)  0           add_7[0][0]                      
__________________________________________________________________________________________________
block10_sepconv1 (SeparableConv (None, 16, 16, 728)  536536      block10_sepconv1_act[0][0]       
__________________________________________________________________________________________________
block10_sepconv1_bn (BatchNorma (None, 16, 16, 728)  2912        block10_sepconv1[0][0]           
__________________________________________________________________________________________________
block10_sepconv2_act (Activatio (None, 16, 16, 728)  0           block10_sepconv1_bn[0][0]        
__________________________________________________________________________________________________
block10_sepconv2 (SeparableConv (None, 16, 16, 728)  536536      block10_sepconv2_act[0][0]       
__________________________________________________________________________________________________
block10_sepconv2_bn (BatchNorma (None, 16, 16, 728)  2912        block10_sepconv2[0][0]           
__________________________________________________________________________________________________
block10_sepconv3_act (Activatio (None, 16, 16, 728)  0           block10_sepconv2_bn[0][0]        
__________________________________________________________________________________________________
block10_sepconv3 (SeparableConv (None, 16, 16, 728)  536536      block10_sepconv3_act[0][0]       
__________________________________________________________________________________________________
block10_sepconv3_bn (BatchNorma (None, 16, 16, 728)  2912        block10_sepconv3[0][0]           
__________________________________________________________________________________________________
add_8 (Add)                     (None, 16, 16, 728)  0           block10_sepconv3_bn[0][0]        
                                                                 add_7[0][0]                      
__________________________________________________________________________________________________
block11_sepconv1_act (Activatio (None, 16, 16, 728)  0           add_8[0][0]                      
__________________________________________________________________________________________________
block11_sepconv1 (SeparableConv (None, 16, 16, 728)  536536      block11_sepconv1_act[0][0]       
__________________________________________________________________________________________________
block11_sepconv1_bn (BatchNorma (None, 16, 16, 728)  2912        block11_sepconv1[0][0]           
__________________________________________________________________________________________________
block11_sepconv2_act (Activatio (None, 16, 16, 728)  0           block11_sepconv1_bn[0][0]        
__________________________________________________________________________________________________
block11_sepconv2 (SeparableConv (None, 16, 16, 728)  536536      block11_sepconv2_act[0][0]       
__________________________________________________________________________________________________
block11_sepconv2_bn (BatchNorma (None, 16, 16, 728)  2912        block11_sepconv2[0][0]           
__________________________________________________________________________________________________
block11_sepconv3_act (Activatio (None, 16, 16, 728)  0           block11_sepconv2_bn[0][0]        
__________________________________________________________________________________________________
block11_sepconv3 (SeparableConv (None, 16, 16, 728)  536536      block11_sepconv3_act[0][0]       
__________________________________________________________________________________________________
block11_sepconv3_bn (BatchNorma (None, 16, 16, 728)  2912        block11_sepconv3[0][0]           
__________________________________________________________________________________________________
add_9 (Add)                     (None, 16, 16, 728)  0           block11_sepconv3_bn[0][0]        
                                                                 add_8[0][0]                      
__________________________________________________________________________________________________
block12_sepconv1_act (Activatio (None, 16, 16, 728)  0           add_9[0][0]                      
__________________________________________________________________________________________________
block12_sepconv1 (SeparableConv (None, 16, 16, 728)  536536      block12_sepconv1_act[0][0]       
__________________________________________________________________________________________________
block12_sepconv1_bn (BatchNorma (None, 16, 16, 728)  2912        block12_sepconv1[0][0]           
__________________________________________________________________________________________________
block12_sepconv2_act (Activatio (None, 16, 16, 728)  0           block12_sepconv1_bn[0][0]        
__________________________________________________________________________________________________
block12_sepconv2 (SeparableConv (None, 16, 16, 728)  536536      block12_sepconv2_act[0][0]       
__________________________________________________________________________________________________
block12_sepconv2_bn (BatchNorma (None, 16, 16, 728)  2912        block12_sepconv2[0][0]           
__________________________________________________________________________________________________
block12_sepconv3_act (Activatio (None, 16, 16, 728)  0           block12_sepconv2_bn[0][0]        
__________________________________________________________________________________________________
block12_sepconv3 (SeparableConv (None, 16, 16, 728)  536536      block12_sepconv3_act[0][0]       
__________________________________________________________________________________________________
block12_sepconv3_bn (BatchNorma (None, 16, 16, 728)  2912        block12_sepconv3[0][0]           
__________________________________________________________________________________________________
add_10 (Add)                    (None, 16, 16, 728)  0           block12_sepconv3_bn[0][0]        
                                                                 add_9[0][0]                      
__________________________________________________________________________________________________
block13_sepconv1_act (Activatio (None, 16, 16, 728)  0           add_10[0][0]                     
__________________________________________________________________________________________________
block13_sepconv1 (SeparableConv (None, 16, 16, 728)  536536      block13_sepconv1_act[0][0]       
__________________________________________________________________________________________________
block13_sepconv1_bn (BatchNorma (None, 16, 16, 728)  2912        block13_sepconv1[0][0]           
__________________________________________________________________________________________________
block13_sepconv2_act (Activatio (None, 16, 16, 728)  0           block13_sepconv1_bn[0][0]        
__________________________________________________________________________________________________
block13_sepconv2 (SeparableConv (None, 16, 16, 1024) 752024      block13_sepconv2_act[0][0]       
__________________________________________________________________________________________________
block13_sepconv2_bn (BatchNorma (None, 16, 16, 1024) 4096        block13_sepconv2[0][0]           
__________________________________________________________________________________________________
conv2d_3 (Conv2D)               (None, 8, 8, 1024)   745472      add_10[0][0]                     
__________________________________________________________________________________________________
block13_pool (MaxPooling2D)     (None, 8, 8, 1024)   0           block13_sepconv2_bn[0][0]        
__________________________________________________________________________________________________
batch_normalization_3 (BatchNor (None, 8, 8, 1024)   4096        conv2d_3[0][0]                   
__________________________________________________________________________________________________
add_11 (Add)                    (None, 8, 8, 1024)   0           block13_pool[0][0]               
                                                                 batch_normalization_3[0][0]      
__________________________________________________________________________________________________
block14_sepconv1 (SeparableConv (None, 8, 8, 1536)   1582080     add_11[0][0]                     
__________________________________________________________________________________________________
block14_sepconv1_bn (BatchNorma (None, 8, 8, 1536)   6144        block14_sepconv1[0][0]           
__________________________________________________________________________________________________
block14_sepconv1_act (Activatio (None, 8, 8, 1536)   0           block14_sepconv1_bn[0][0]        
__________________________________________________________________________________________________
block14_sepconv2 (SeparableConv (None, 8, 8, 2048)   3159552     block14_sepconv1_act[0][0]       
__________________________________________________________________________________________________
block14_sepconv2_bn (BatchNorma (None, 8, 8, 2048)   8192        block14_sepconv2[0][0]           
__________________________________________________________________________________________________
block14_sepconv2_act (Activatio (None, 8, 8, 2048)   0           block14_sepconv2_bn[0][0]        
__________________________________________________________________________________________________
flatten (Flatten)               (None, 131072)       0           block14_sepconv2_act[0][0]       
__________________________________________________________________________________________________
fc1 (Dense)                     (None, 4096)         536875008   flatten[0][0]                    
__________________________________________________________________________________________________
fc2 (Dense)                     (None, 4096)         16781312    fc1[0][0]                        
__________________________________________________________________________________________________
predictions (Dense)             (None, 5)            20485       fc2[0][0]                        
==================================================================================================
Total params: 574,538,285
Trainable params: 574,483,757
Non-trainable params: 54,528
__________________________________________________________________________________________________
Start fitting ensemble models
Random seed for replication: 73
Length split part:  1398
…
2020-05-25 12:00:58.914597: E tensorflow/core/profiler/internal/gpu/cupti_tracer.cc:1329] function cupti_interface_->EnableCallback( 0 , subscriber_, CUPTI_CB_DOMAIN_DRIVER_API, cbid)failed with error CUPTI_ERROR_INVALID_PARAMETER
2020-05-25 12:00:58.914713: I tensorflow/core/profiler/internal/gpu/device_tracer.cc:88]  GpuTracer has collected 0 callback api events and 0 activity events.
Epoch 00033: early stopping
VGG16
Model: "model"
_________________________________________________________________
Layer (type)                 Output Shape              Param #   
=================================================================
input_1 (InputLayer)         [(None, 256, 256, 3)]     0         
_________________________________________________________________
block1_conv1 (Conv2D)        (None, 256, 256, 64)      1792      
_________________________________________________________________
block1_conv2 (Conv2D)        (None, 256, 256, 64)      36928     
_________________________________________________________________
block1_pool (MaxPooling2D)   (None, 128, 128, 64)      0         
_________________________________________________________________
block2_conv1 (Conv2D)        (None, 128, 128, 128)     73856     
_________________________________________________________________
block2_conv2 (Conv2D)        (None, 128, 128, 128)     147584    
_________________________________________________________________
block2_pool (MaxPooling2D)   (None, 64, 64, 128)       0         
_________________________________________________________________
block3_conv1 (Conv2D)        (None, 64, 64, 256)       295168    
_________________________________________________________________
block3_conv2 (Conv2D)        (None, 64, 64, 256)       590080    
_________________________________________________________________
block3_conv3 (Conv2D)        (None, 64, 64, 256)       590080    
_________________________________________________________________
block3_pool (MaxPooling2D)   (None, 32, 32, 256)       0         
_________________________________________________________________
block4_conv1 (Conv2D)        (None, 32, 32, 512)       1180160   
_________________________________________________________________
block4_conv2 (Conv2D)        (None, 32, 32, 512)       2359808   
_________________________________________________________________
block4_conv3 (Conv2D)        (None, 32, 32, 512)       2359808   
_________________________________________________________________
block4_pool (MaxPooling2D)   (None, 16, 16, 512)       0         
_________________________________________________________________
block5_conv1 (Conv2D)        (None, 16, 16, 512)       2359808   
_________________________________________________________________
block5_conv2 (Conv2D)        (None, 16, 16, 512)       2359808   
_________________________________________________________________
block5_conv3 (Conv2D)        (None, 16, 16, 512)       2359808   
_________________________________________________________________
block5_pool (MaxPooling2D)   (None, 8, 8, 512)         0         
_________________________________________________________________
flatten (Flatten)            (None, 32768)             0         
_________________________________________________________________
fc1 (Dense)                  (None, 4096)              134221824 
_________________________________________________________________
fc2 (Dense)                  (None, 4096)              16781312  
_________________________________________________________________
predictions (Dense)          (None, 5)                 20485     
=================================================================
Total params: 165,738,309
Trainable params: 165,738,309
Non-trainable params: 0
_________________________________________________________________
Start fitting ensemble models
Random seed for replication: 72
Length split part:  1398
Labels in this part of split:  [284, 283, 265, 287, 279]
Train for 44 steps, validate for 6 steps
…
2020-05-25 12:12:55.574262: E tensorflow/core/profiler/internal/gpu/cupti_tracer.cc:1329] function cupti_interface_->EnableCallback( 0 , subscriber_, CUPTI_CB_DOMAIN_DRIVER_API, cbid)failed with error CUPTI_ERROR_INVALID_PARAMETER
2020-05-25 12:12:55.574371: I tensorflow/core/profiler/internal/gpu/device_tracer.cc:88]  GpuTracer has collected 0 callback api events and 0 activity events.
Epoch 00021: early stopping
VGG19
Model: "model"
_________________________________________________________________
Layer (type)                 Output Shape              Param #   
=================================================================
input_1 (InputLayer)         [(None, 256, 256, 3)]     0         
_________________________________________________________________
block1_conv1 (Conv2D)        (None, 256, 256, 64)      1792      
_________________________________________________________________
block1_conv2 (Conv2D)        (None, 256, 256, 64)      36928     
_________________________________________________________________
block1_pool (MaxPooling2D)   (None, 128, 128, 64)      0         
_________________________________________________________________
block2_conv1 (Conv2D)        (None, 128, 128, 128)     73856     
_________________________________________________________________
block2_conv2 (Conv2D)        (None, 128, 128, 128)     147584    
_________________________________________________________________
block2_pool (MaxPooling2D)   (None, 64, 64, 128)       0         
_________________________________________________________________
block3_conv1 (Conv2D)        (None, 64, 64, 256)       295168    
_________________________________________________________________
block3_conv2 (Conv2D)        (None, 64, 64, 256)       590080    
_________________________________________________________________
block3_conv3 (Conv2D)        (None, 64, 64, 256)       590080    
_________________________________________________________________
block3_conv4 (Conv2D)        (None, 64, 64, 256)       590080    
_________________________________________________________________
block3_pool (MaxPooling2D)   (None, 32, 32, 256)       0         
_________________________________________________________________
block4_conv1 (Conv2D)        (None, 32, 32, 512)       1180160   
_________________________________________________________________
block4_conv2 (Conv2D)        (None, 32, 32, 512)       2359808   
_________________________________________________________________
block4_conv3 (Conv2D)        (None, 32, 32, 512)       2359808   
_________________________________________________________________
block4_conv4 (Conv2D)        (None, 32, 32, 512)       2359808   
_________________________________________________________________
block4_pool (MaxPooling2D)   (None, 16, 16, 512)       0         
_________________________________________________________________
block5_conv1 (Conv2D)        (None, 16, 16, 512)       2359808   
_________________________________________________________________
block5_conv2 (Conv2D)        (None, 16, 16, 512)       2359808   
_________________________________________________________________
block5_conv3 (Conv2D)        (None, 16, 16, 512)       2359808   
_________________________________________________________________
block5_conv4 (Conv2D)        (None, 16, 16, 512)       2359808   
_________________________________________________________________
block5_pool (MaxPooling2D)   (None, 8, 8, 512)         0         
_________________________________________________________________
flatten (Flatten)            (None, 32768)             0         
_________________________________________________________________
fc1 (Dense)                  (None, 4096)              134221824 
_________________________________________________________________
fc2 (Dense)                  (None, 4096)              16781312  
_________________________________________________________________
predictions (Dense)          (None, 5)                 20485     
=================================================================
Total params: 171,048,005
Trainable params: 171,048,005
Non-trainable params: 0
_________________________________________________________________
Start fitting ensemble models
Random seed for replication: 93
Length split part:  1398
Labels in this part of split:  [261, 299, 264, 286, 288]
Train for 44 steps, validate for 6 steps
…
2020-05-25 12:30:05.622874: E tensorflow/core/profiler/internal/gpu/cupti_tracer.cc:1329] function cupti_interface_->EnableCallback( 0 , subscriber_, CUPTI_CB_DOMAIN_DRIVER_API, cbid)failed with error CUPTI_ERROR_INVALID_PARAMETER
2020-05-25 12:30:05.622973: I tensorflow/core/profiler/internal/gpu/device_tracer.cc:88]  GpuTracer has collected 0 callback api events and 0 activity events.
Epoch 00021: early stopping
ResNet50
Model: "model"
__________________________________________________________________________________________________
Layer (type)                    Output Shape         Param #     Connected to                     
==================================================================================================
input_1 (InputLayer)            [(None, 256, 256, 3) 0                                            
__________________________________________________________________________________________________
conv1_pad (ZeroPadding2D)       (None, 262, 262, 3)  0           input_1[0][0]                    
__________________________________________________________________________________________________
conv1_conv (Conv2D)             (None, 128, 128, 64) 9472        conv1_pad[0][0]                  
__________________________________________________________________________________________________
conv1_bn (BatchNormalization)   (None, 128, 128, 64) 256         conv1_conv[0][0]                 
__________________________________________________________________________________________________
conv1_relu (Activation)         (None, 128, 128, 64) 0           conv1_bn[0][0]                   
__________________________________________________________________________________________________
pool1_pad (ZeroPadding2D)       (None, 130, 130, 64) 0           conv1_relu[0][0]                 
__________________________________________________________________________________________________
pool1_pool (MaxPooling2D)       (None, 64, 64, 64)   0           pool1_pad[0][0]                  
__________________________________________________________________________________________________
conv2_block1_1_conv (Conv2D)    (None, 64, 64, 64)   4160        pool1_pool[0][0]                 
__________________________________________________________________________________________________
conv2_block1_1_bn (BatchNormali (None, 64, 64, 64)   256         conv2_block1_1_conv[0][0]        
__________________________________________________________________________________________________
conv2_block1_1_relu (Activation (None, 64, 64, 64)   0           conv2_block1_1_bn[0][0]          
__________________________________________________________________________________________________
conv2_block1_2_conv (Conv2D)    (None, 64, 64, 64)   36928       conv2_block1_1_relu[0][0]        
__________________________________________________________________________________________________
conv2_block1_2_bn (BatchNormali (None, 64, 64, 64)   256         conv2_block1_2_conv[0][0]        
__________________________________________________________________________________________________
conv2_block1_2_relu (Activation (None, 64, 64, 64)   0           conv2_block1_2_bn[0][0]          
__________________________________________________________________________________________________
conv2_block1_0_conv (Conv2D)    (None, 64, 64, 256)  16640       pool1_pool[0][0]                 
__________________________________________________________________________________________________
conv2_block1_3_conv (Conv2D)    (None, 64, 64, 256)  16640       conv2_block1_2_relu[0][0]        
__________________________________________________________________________________________________
conv2_block1_0_bn (BatchNormali (None, 64, 64, 256)  1024        conv2_block1_0_conv[0][0]        
__________________________________________________________________________________________________
conv2_block1_3_bn (BatchNormali (None, 64, 64, 256)  1024        conv2_block1_3_conv[0][0]        
__________________________________________________________________________________________________
conv2_block1_add (Add)          (None, 64, 64, 256)  0           conv2_block1_0_bn[0][0]          
                                                                 conv2_block1_3_bn[0][0]          
__________________________________________________________________________________________________
conv2_block1_out (Activation)   (None, 64, 64, 256)  0           conv2_block1_add[0][0]           
__________________________________________________________________________________________________
conv2_block2_1_conv (Conv2D)    (None, 64, 64, 64)   16448       conv2_block1_out[0][0]           
__________________________________________________________________________________________________
conv2_block2_1_bn (BatchNormali (None, 64, 64, 64)   256         conv2_block2_1_conv[0][0]        
__________________________________________________________________________________________________
conv2_block2_1_relu (Activation (None, 64, 64, 64)   0           conv2_block2_1_bn[0][0]          
__________________________________________________________________________________________________
conv2_block2_2_conv (Conv2D)    (None, 64, 64, 64)   36928       conv2_block2_1_relu[0][0]        
__________________________________________________________________________________________________
conv2_block2_2_bn (BatchNormali (None, 64, 64, 64)   256         conv2_block2_2_conv[0][0]        
__________________________________________________________________________________________________
conv2_block2_2_relu (Activation (None, 64, 64, 64)   0           conv2_block2_2_bn[0][0]          
__________________________________________________________________________________________________
conv2_block2_3_conv (Conv2D)    (None, 64, 64, 256)  16640       conv2_block2_2_relu[0][0]        
__________________________________________________________________________________________________
conv2_block2_3_bn (BatchNormali (None, 64, 64, 256)  1024        conv2_block2_3_conv[0][0]        
__________________________________________________________________________________________________
conv2_block2_add (Add)          (None, 64, 64, 256)  0           conv2_block1_out[0][0]           
                                                                 conv2_block2_3_bn[0][0]          
__________________________________________________________________________________________________
conv2_block2_out (Activation)   (None, 64, 64, 256)  0           conv2_block2_add[0][0]           
__________________________________________________________________________________________________
conv2_block3_1_conv (Conv2D)    (None, 64, 64, 64)   16448       conv2_block2_out[0][0]           
__________________________________________________________________________________________________
conv2_block3_1_bn (BatchNormali (None, 64, 64, 64)   256         conv2_block3_1_conv[0][0]        
__________________________________________________________________________________________________
conv2_block3_1_relu (Activation (None, 64, 64, 64)   0           conv2_block3_1_bn[0][0]          
__________________________________________________________________________________________________
conv2_block3_2_conv (Conv2D)    (None, 64, 64, 64)   36928       conv2_block3_1_relu[0][0]        
__________________________________________________________________________________________________
conv2_block3_2_bn (BatchNormali (None, 64, 64, 64)   256         conv2_block3_2_conv[0][0]        
__________________________________________________________________________________________________
conv2_block3_2_relu (Activation (None, 64, 64, 64)   0           conv2_block3_2_bn[0][0]          
__________________________________________________________________________________________________
conv2_block3_3_conv (Conv2D)    (None, 64, 64, 256)  16640       conv2_block3_2_relu[0][0]        
__________________________________________________________________________________________________
conv2_block3_3_bn (BatchNormali (None, 64, 64, 256)  1024        conv2_block3_3_conv[0][0]        
__________________________________________________________________________________________________
conv2_block3_add (Add)          (None, 64, 64, 256)  0           conv2_block2_out[0][0]           
                                                                 conv2_block3_3_bn[0][0]          
__________________________________________________________________________________________________
conv2_block3_out (Activation)   (None, 64, 64, 256)  0           conv2_block3_add[0][0]           
__________________________________________________________________________________________________
conv3_block1_1_conv (Conv2D)    (None, 32, 32, 128)  32896       conv2_block3_out[0][0]           
__________________________________________________________________________________________________
conv3_block1_1_bn (BatchNormali (None, 32, 32, 128)  512         conv3_block1_1_conv[0][0]        
__________________________________________________________________________________________________
conv3_block1_1_relu (Activation (None, 32, 32, 128)  0           conv3_block1_1_bn[0][0]          
__________________________________________________________________________________________________
conv3_block1_2_conv (Conv2D)    (None, 32, 32, 128)  147584      conv3_block1_1_relu[0][0]        
__________________________________________________________________________________________________
conv3_block1_2_bn (BatchNormali (None, 32, 32, 128)  512         conv3_block1_2_conv[0][0]        
__________________________________________________________________________________________________
conv3_block1_2_relu (Activation (None, 32, 32, 128)  0           conv3_block1_2_bn[0][0]          
__________________________________________________________________________________________________
conv3_block1_0_conv (Conv2D)    (None, 32, 32, 512)  131584      conv2_block3_out[0][0]           
__________________________________________________________________________________________________
conv3_block1_3_conv (Conv2D)    (None, 32, 32, 512)  66048       conv3_block1_2_relu[0][0]        
__________________________________________________________________________________________________
conv3_block1_0_bn (BatchNormali (None, 32, 32, 512)  2048        conv3_block1_0_conv[0][0]        
__________________________________________________________________________________________________
conv3_block1_3_bn (BatchNormali (None, 32, 32, 512)  2048        conv3_block1_3_conv[0][0]        
__________________________________________________________________________________________________
conv3_block1_add (Add)          (None, 32, 32, 512)  0           conv3_block1_0_bn[0][0]          
                                                                 conv3_block1_3_bn[0][0]          
__________________________________________________________________________________________________
conv3_block1_out (Activation)   (None, 32, 32, 512)  0           conv3_block1_add[0][0]           
__________________________________________________________________________________________________
conv3_block2_1_conv (Conv2D)    (None, 32, 32, 128)  65664       conv3_block1_out[0][0]           
__________________________________________________________________________________________________
conv3_block2_1_bn (BatchNormali (None, 32, 32, 128)  512         conv3_block2_1_conv[0][0]        
__________________________________________________________________________________________________
conv3_block2_1_relu (Activation (None, 32, 32, 128)  0           conv3_block2_1_bn[0][0]          
__________________________________________________________________________________________________
conv3_block2_2_conv (Conv2D)    (None, 32, 32, 128)  147584      conv3_block2_1_relu[0][0]        
__________________________________________________________________________________________________
conv3_block2_2_bn (BatchNormali (None, 32, 32, 128)  512         conv3_block2_2_conv[0][0]        
__________________________________________________________________________________________________
conv3_block2_2_relu (Activation (None, 32, 32, 128)  0           conv3_block2_2_bn[0][0]          
__________________________________________________________________________________________________
conv3_block2_3_conv (Conv2D)    (None, 32, 32, 512)  66048       conv3_block2_2_relu[0][0]        
__________________________________________________________________________________________________
conv3_block2_3_bn (BatchNormali (None, 32, 32, 512)  2048        conv3_block2_3_conv[0][0]        
__________________________________________________________________________________________________
conv3_block2_add (Add)          (None, 32, 32, 512)  0           conv3_block1_out[0][0]           
                                                                 conv3_block2_3_bn[0][0]          
__________________________________________________________________________________________________
conv3_block2_out (Activation)   (None, 32, 32, 512)  0           conv3_block2_add[0][0]           
__________________________________________________________________________________________________
conv3_block3_1_conv (Conv2D)    (None, 32, 32, 128)  65664       conv3_block2_out[0][0]           
__________________________________________________________________________________________________
conv3_block3_1_bn (BatchNormali (None, 32, 32, 128)  512         conv3_block3_1_conv[0][0]        
__________________________________________________________________________________________________
conv3_block3_1_relu (Activation (None, 32, 32, 128)  0           conv3_block3_1_bn[0][0]          
__________________________________________________________________________________________________
conv3_block3_2_conv (Conv2D)    (None, 32, 32, 128)  147584      conv3_block3_1_relu[0][0]        
__________________________________________________________________________________________________
conv3_block3_2_bn (BatchNormali (None, 32, 32, 128)  512         conv3_block3_2_conv[0][0]        
__________________________________________________________________________________________________
conv3_block3_2_relu (Activation (None, 32, 32, 128)  0           conv3_block3_2_bn[0][0]          
__________________________________________________________________________________________________
conv3_block3_3_conv (Conv2D)    (None, 32, 32, 512)  66048       conv3_block3_2_relu[0][0]        
__________________________________________________________________________________________________
conv3_block3_3_bn (BatchNormali (None, 32, 32, 512)  2048        conv3_block3_3_conv[0][0]        
__________________________________________________________________________________________________
conv3_block3_add (Add)          (None, 32, 32, 512)  0           conv3_block2_out[0][0]           
                                                                 conv3_block3_3_bn[0][0]          
__________________________________________________________________________________________________
conv3_block3_out (Activation)   (None, 32, 32, 512)  0           conv3_block3_add[0][0]           
__________________________________________________________________________________________________
conv3_block4_1_conv (Conv2D)    (None, 32, 32, 128)  65664       conv3_block3_out[0][0]           
__________________________________________________________________________________________________
conv3_block4_1_bn (BatchNormali (None, 32, 32, 128)  512         conv3_block4_1_conv[0][0]        
__________________________________________________________________________________________________
conv3_block4_1_relu (Activation (None, 32, 32, 128)  0           conv3_block4_1_bn[0][0]          
__________________________________________________________________________________________________
conv3_block4_2_conv (Conv2D)    (None, 32, 32, 128)  147584      conv3_block4_1_relu[0][0]        
__________________________________________________________________________________________________
conv3_block4_2_bn (BatchNormali (None, 32, 32, 128)  512         conv3_block4_2_conv[0][0]        
__________________________________________________________________________________________________
conv3_block4_2_relu (Activation (None, 32, 32, 128)  0           conv3_block4_2_bn[0][0]          
__________________________________________________________________________________________________
conv3_block4_3_conv (Conv2D)    (None, 32, 32, 512)  66048       conv3_block4_2_relu[0][0]        
__________________________________________________________________________________________________
conv3_block4_3_bn (BatchNormali (None, 32, 32, 512)  2048        conv3_block4_3_conv[0][0]        
__________________________________________________________________________________________________
conv3_block4_add (Add)          (None, 32, 32, 512)  0           conv3_block3_out[0][0]           
                                                                 conv3_block4_3_bn[0][0]          
__________________________________________________________________________________________________
conv3_block4_out (Activation)   (None, 32, 32, 512)  0           conv3_block4_add[0][0]           
__________________________________________________________________________________________________
conv4_block1_1_conv (Conv2D)    (None, 16, 16, 256)  131328      conv3_block4_out[0][0]           
__________________________________________________________________________________________________
conv4_block1_1_bn (BatchNormali (None, 16, 16, 256)  1024        conv4_block1_1_conv[0][0]        
__________________________________________________________________________________________________
conv4_block1_1_relu (Activation (None, 16, 16, 256)  0           conv4_block1_1_bn[0][0]          
__________________________________________________________________________________________________
conv4_block1_2_conv (Conv2D)    (None, 16, 16, 256)  590080      conv4_block1_1_relu[0][0]        
__________________________________________________________________________________________________
conv4_block1_2_bn (BatchNormali (None, 16, 16, 256)  1024        conv4_block1_2_conv[0][0]        
__________________________________________________________________________________________________
conv4_block1_2_relu (Activation (None, 16, 16, 256)  0           conv4_block1_2_bn[0][0]          
__________________________________________________________________________________________________
conv4_block1_0_conv (Conv2D)    (None, 16, 16, 1024) 525312      conv3_block4_out[0][0]           
__________________________________________________________________________________________________
conv4_block1_3_conv (Conv2D)    (None, 16, 16, 1024) 263168      conv4_block1_2_relu[0][0]        
__________________________________________________________________________________________________
conv4_block1_0_bn (BatchNormali (None, 16, 16, 1024) 4096        conv4_block1_0_conv[0][0]        
__________________________________________________________________________________________________
conv4_block1_3_bn (BatchNormali (None, 16, 16, 1024) 4096        conv4_block1_3_conv[0][0]        
__________________________________________________________________________________________________
conv4_block1_add (Add)          (None, 16, 16, 1024) 0           conv4_block1_0_bn[0][0]          
                                                                 conv4_block1_3_bn[0][0]          
__________________________________________________________________________________________________
conv4_block1_out (Activation)   (None, 16, 16, 1024) 0           conv4_block1_add[0][0]           
__________________________________________________________________________________________________
conv4_block2_1_conv (Conv2D)    (None, 16, 16, 256)  262400      conv4_block1_out[0][0]           
__________________________________________________________________________________________________
conv4_block2_1_bn (BatchNormali (None, 16, 16, 256)  1024        conv4_block2_1_conv[0][0]        
__________________________________________________________________________________________________
conv4_block2_1_relu (Activation (None, 16, 16, 256)  0           conv4_block2_1_bn[0][0]          
__________________________________________________________________________________________________
conv4_block2_2_conv (Conv2D)    (None, 16, 16, 256)  590080      conv4_block2_1_relu[0][0]        
__________________________________________________________________________________________________
conv4_block2_2_bn (BatchNormali (None, 16, 16, 256)  1024        conv4_block2_2_conv[0][0]        
__________________________________________________________________________________________________
conv4_block2_2_relu (Activation (None, 16, 16, 256)  0           conv4_block2_2_bn[0][0]          
__________________________________________________________________________________________________
conv4_block2_3_conv (Conv2D)    (None, 16, 16, 1024) 263168      conv4_block2_2_relu[0][0]        
__________________________________________________________________________________________________
conv4_block2_3_bn (BatchNormali (None, 16, 16, 1024) 4096        conv4_block2_3_conv[0][0]        
__________________________________________________________________________________________________
conv4_block2_add (Add)          (None, 16, 16, 1024) 0           conv4_block1_out[0][0]           
                                                                 conv4_block2_3_bn[0][0]          
__________________________________________________________________________________________________
conv4_block2_out (Activation)   (None, 16, 16, 1024) 0           conv4_block2_add[0][0]           
__________________________________________________________________________________________________
conv4_block3_1_conv (Conv2D)    (None, 16, 16, 256)  262400      conv4_block2_out[0][0]           
__________________________________________________________________________________________________
conv4_block3_1_bn (BatchNormali (None, 16, 16, 256)  1024        conv4_block3_1_conv[0][0]        
__________________________________________________________________________________________________
conv4_block3_1_relu (Activation (None, 16, 16, 256)  0           conv4_block3_1_bn[0][0]          
__________________________________________________________________________________________________
conv4_block3_2_conv (Conv2D)    (None, 16, 16, 256)  590080      conv4_block3_1_relu[0][0]        
__________________________________________________________________________________________________
conv4_block3_2_bn (BatchNormali (None, 16, 16, 256)  1024        conv4_block3_2_conv[0][0]        
__________________________________________________________________________________________________
conv4_block3_2_relu (Activation (None, 16, 16, 256)  0           conv4_block3_2_bn[0][0]          
__________________________________________________________________________________________________
conv4_block3_3_conv (Conv2D)    (None, 16, 16, 1024) 263168      conv4_block3_2_relu[0][0]        
__________________________________________________________________________________________________
conv4_block3_3_bn (BatchNormali (None, 16, 16, 1024) 4096        conv4_block3_3_conv[0][0]        
__________________________________________________________________________________________________
conv4_block3_add (Add)          (None, 16, 16, 1024) 0           conv4_block2_out[0][0]           
                                                                 conv4_block3_3_bn[0][0]          
__________________________________________________________________________________________________
conv4_block3_out (Activation)   (None, 16, 16, 1024) 0           conv4_block3_add[0][0]           
__________________________________________________________________________________________________
conv4_block4_1_conv (Conv2D)    (None, 16, 16, 256)  262400      conv4_block3_out[0][0]           
__________________________________________________________________________________________________
conv4_block4_1_bn (BatchNormali (None, 16, 16, 256)  1024        conv4_block4_1_conv[0][0]        
__________________________________________________________________________________________________
conv4_block4_1_relu (Activation (None, 16, 16, 256)  0           conv4_block4_1_bn[0][0]          
__________________________________________________________________________________________________
conv4_block4_2_conv (Conv2D)    (None, 16, 16, 256)  590080      conv4_block4_1_relu[0][0]        
__________________________________________________________________________________________________
conv4_block4_2_bn (BatchNormali (None, 16, 16, 256)  1024        conv4_block4_2_conv[0][0]        
__________________________________________________________________________________________________
conv4_block4_2_relu (Activation (None, 16, 16, 256)  0           conv4_block4_2_bn[0][0]          
__________________________________________________________________________________________________
conv4_block4_3_conv (Conv2D)    (None, 16, 16, 1024) 263168      conv4_block4_2_relu[0][0]        
__________________________________________________________________________________________________
conv4_block4_3_bn (BatchNormali (None, 16, 16, 1024) 4096        conv4_block4_3_conv[0][0]        
__________________________________________________________________________________________________
conv4_block4_add (Add)          (None, 16, 16, 1024) 0           conv4_block3_out[0][0]           
                                                                 conv4_block4_3_bn[0][0]          
__________________________________________________________________________________________________
conv4_block4_out (Activation)   (None, 16, 16, 1024) 0           conv4_block4_add[0][0]           
__________________________________________________________________________________________________
conv4_block5_1_conv (Conv2D)    (None, 16, 16, 256)  262400      conv4_block4_out[0][0]           
__________________________________________________________________________________________________
conv4_block5_1_bn (BatchNormali (None, 16, 16, 256)  1024        conv4_block5_1_conv[0][0]        
__________________________________________________________________________________________________
conv4_block5_1_relu (Activation (None, 16, 16, 256)  0           conv4_block5_1_bn[0][0]          
__________________________________________________________________________________________________
conv4_block5_2_conv (Conv2D)    (None, 16, 16, 256)  590080      conv4_block5_1_relu[0][0]        
__________________________________________________________________________________________________
conv4_block5_2_bn (BatchNormali (None, 16, 16, 256)  1024        conv4_block5_2_conv[0][0]        
__________________________________________________________________________________________________
conv4_block5_2_relu (Activation (None, 16, 16, 256)  0           conv4_block5_2_bn[0][0]          
__________________________________________________________________________________________________
conv4_block5_3_conv (Conv2D)    (None, 16, 16, 1024) 263168      conv4_block5_2_relu[0][0]        
__________________________________________________________________________________________________
conv4_block5_3_bn (BatchNormali (None, 16, 16, 1024) 4096        conv4_block5_3_conv[0][0]        
__________________________________________________________________________________________________
conv4_block5_add (Add)          (None, 16, 16, 1024) 0           conv4_block4_out[0][0]           
                                                                 conv4_block5_3_bn[0][0]          
__________________________________________________________________________________________________
conv4_block5_out (Activation)   (None, 16, 16, 1024) 0           conv4_block5_add[0][0]           
__________________________________________________________________________________________________
conv4_block6_1_conv (Conv2D)    (None, 16, 16, 256)  262400      conv4_block5_out[0][0]           
__________________________________________________________________________________________________
conv4_block6_1_bn (BatchNormali (None, 16, 16, 256)  1024        conv4_block6_1_conv[0][0]        
__________________________________________________________________________________________________
conv4_block6_1_relu (Activation (None, 16, 16, 256)  0           conv4_block6_1_bn[0][0]          
__________________________________________________________________________________________________
conv4_block6_2_conv (Conv2D)    (None, 16, 16, 256)  590080      conv4_block6_1_relu[0][0]        
__________________________________________________________________________________________________
conv4_block6_2_bn (BatchNormali (None, 16, 16, 256)  1024        conv4_block6_2_conv[0][0]        
__________________________________________________________________________________________________
conv4_block6_2_relu (Activation (None, 16, 16, 256)  0           conv4_block6_2_bn[0][0]          
__________________________________________________________________________________________________
conv4_block6_3_conv (Conv2D)    (None, 16, 16, 1024) 263168      conv4_block6_2_relu[0][0]        
__________________________________________________________________________________________________
conv4_block6_3_bn (BatchNormali (None, 16, 16, 1024) 4096        conv4_block6_3_conv[0][0]        
__________________________________________________________________________________________________
conv4_block6_add (Add)          (None, 16, 16, 1024) 0           conv4_block5_out[0][0]           
                                                                 conv4_block6_3_bn[0][0]          
__________________________________________________________________________________________________
conv4_block6_out (Activation)   (None, 16, 16, 1024) 0           conv4_block6_add[0][0]           
__________________________________________________________________________________________________
conv5_block1_1_conv (Conv2D)    (None, 8, 8, 512)    524800      conv4_block6_out[0][0]           
__________________________________________________________________________________________________
conv5_block1_1_bn (BatchNormali (None, 8, 8, 512)    2048        conv5_block1_1_conv[0][0]        
__________________________________________________________________________________________________
conv5_block1_1_relu (Activation (None, 8, 8, 512)    0           conv5_block1_1_bn[0][0]          
__________________________________________________________________________________________________
conv5_block1_2_conv (Conv2D)    (None, 8, 8, 512)    2359808     conv5_block1_1_relu[0][0]        
__________________________________________________________________________________________________
conv5_block1_2_bn (BatchNormali (None, 8, 8, 512)    2048        conv5_block1_2_conv[0][0]        
__________________________________________________________________________________________________
conv5_block1_2_relu (Activation (None, 8, 8, 512)    0           conv5_block1_2_bn[0][0]          
__________________________________________________________________________________________________
conv5_block1_0_conv (Conv2D)    (None, 8, 8, 2048)   2099200     conv4_block6_out[0][0]           
__________________________________________________________________________________________________
conv5_block1_3_conv (Conv2D)    (None, 8, 8, 2048)   1050624     conv5_block1_2_relu[0][0]        
__________________________________________________________________________________________________
conv5_block1_0_bn (BatchNormali (None, 8, 8, 2048)   8192        conv5_block1_0_conv[0][0]        
__________________________________________________________________________________________________
conv5_block1_3_bn (BatchNormali (None, 8, 8, 2048)   8192        conv5_block1_3_conv[0][0]        
__________________________________________________________________________________________________
conv5_block1_add (Add)          (None, 8, 8, 2048)   0           conv5_block1_0_bn[0][0]          
                                                                 conv5_block1_3_bn[0][0]          
__________________________________________________________________________________________________
conv5_block1_out (Activation)   (None, 8, 8, 2048)   0           conv5_block1_add[0][0]           
__________________________________________________________________________________________________
conv5_block2_1_conv (Conv2D)    (None, 8, 8, 512)    1049088     conv5_block1_out[0][0]           
__________________________________________________________________________________________________
conv5_block2_1_bn (BatchNormali (None, 8, 8, 512)    2048        conv5_block2_1_conv[0][0]        
__________________________________________________________________________________________________
conv5_block2_1_relu (Activation (None, 8, 8, 512)    0           conv5_block2_1_bn[0][0]          
__________________________________________________________________________________________________
conv5_block2_2_conv (Conv2D)    (None, 8, 8, 512)    2359808     conv5_block2_1_relu[0][0]        
__________________________________________________________________________________________________
conv5_block2_2_bn (BatchNormali (None, 8, 8, 512)    2048        conv5_block2_2_conv[0][0]        
__________________________________________________________________________________________________
conv5_block2_2_relu (Activation (None, 8, 8, 512)    0           conv5_block2_2_bn[0][0]          
__________________________________________________________________________________________________
conv5_block2_3_conv (Conv2D)    (None, 8, 8, 2048)   1050624     conv5_block2_2_relu[0][0]        
__________________________________________________________________________________________________
conv5_block2_3_bn (BatchNormali (None, 8, 8, 2048)   8192        conv5_block2_3_conv[0][0]        
__________________________________________________________________________________________________
conv5_block2_add (Add)          (None, 8, 8, 2048)   0           conv5_block1_out[0][0]           
                                                                 conv5_block2_3_bn[0][0]          
__________________________________________________________________________________________________
conv5_block2_out (Activation)   (None, 8, 8, 2048)   0           conv5_block2_add[0][0]           
__________________________________________________________________________________________________
conv5_block3_1_conv (Conv2D)    (None, 8, 8, 512)    1049088     conv5_block2_out[0][0]           
__________________________________________________________________________________________________
conv5_block3_1_bn (BatchNormali (None, 8, 8, 512)    2048        conv5_block3_1_conv[0][0]        
__________________________________________________________________________________________________
conv5_block3_1_relu (Activation (None, 8, 8, 512)    0           conv5_block3_1_bn[0][0]          
__________________________________________________________________________________________________
conv5_block3_2_conv (Conv2D)    (None, 8, 8, 512)    2359808     conv5_block3_1_relu[0][0]        
__________________________________________________________________________________________________
conv5_block3_2_bn (BatchNormali (None, 8, 8, 512)    2048        conv5_block3_2_conv[0][0]        
__________________________________________________________________________________________________
conv5_block3_2_relu (Activation (None, 8, 8, 512)    0           conv5_block3_2_bn[0][0]          
__________________________________________________________________________________________________
conv5_block3_3_conv (Conv2D)    (None, 8, 8, 2048)   1050624     conv5_block3_2_relu[0][0]        
__________________________________________________________________________________________________
conv5_block3_3_bn (BatchNormali (None, 8, 8, 2048)   8192        conv5_block3_3_conv[0][0]        
__________________________________________________________________________________________________
conv5_block3_add (Add)          (None, 8, 8, 2048)   0           conv5_block2_out[0][0]           
                                                                 conv5_block3_3_bn[0][0]          
__________________________________________________________________________________________________
conv5_block3_out (Activation)   (None, 8, 8, 2048)   0           conv5_block3_add[0][0]           
__________________________________________________________________________________________________
flatten (Flatten)               (None, 131072)       0           conv5_block3_out[0][0]           
__________________________________________________________________________________________________
fc1 (Dense)                     (None, 4096)         536875008   flatten[0][0]                    
__________________________________________________________________________________________________
fc2 (Dense)                     (None, 4096)         16781312    fc1[0][0]                        
__________________________________________________________________________________________________
predictions (Dense)             (None, 5)            20485       fc2[0][0]                        
==================================================================================================
Total params: 577,264,517
Trainable params: 577,211,397
Non-trainable params: 53,120
__________________________________________________________________________________________________
Start fitting ensemble models
Random seed for replication: 189
Length split part:  1398
…
2020-05-25 12:42:44.728113: E tensorflow/core/profiler/internal/gpu/cupti_tracer.cc:1329] function cupti_interface_->EnableCallback( 0 , subscriber_, CUPTI_CB_DOMAIN_DRIVER_API, cbid)failed with error CUPTI_ERROR_INVALID_PARAMETER
2020-05-25 12:42:44.732023: I tensorflow/core/profiler/internal/gpu/device_tracer.cc:88]  GpuTracer has collected 0 callback api events and 0 activity events.
Epoch 00022: early stopping
ResNet101
Model: "model"
__________________________________________________________________________________________________
Layer (type)                    Output Shape         Param #     Connected to                     
==================================================================================================
input_1 (InputLayer)            [(None, 256, 256, 3) 0                                            
__________________________________________________________________________________________________
conv1_pad (ZeroPadding2D)       (None, 262, 262, 3)  0           input_1[0][0]                    
__________________________________________________________________________________________________
conv1_conv (Conv2D)             (None, 128, 128, 64) 9472        conv1_pad[0][0]                  
__________________________________________________________________________________________________
conv1_bn (BatchNormalization)   (None, 128, 128, 64) 256         conv1_conv[0][0]                 
__________________________________________________________________________________________________
conv1_relu (Activation)         (None, 128, 128, 64) 0           conv1_bn[0][0]                   
__________________________________________________________________________________________________
pool1_pad (ZeroPadding2D)       (None, 130, 130, 64) 0           conv1_relu[0][0]                 
__________________________________________________________________________________________________
pool1_pool (MaxPooling2D)       (None, 64, 64, 64)   0           pool1_pad[0][0]                  
__________________________________________________________________________________________________
conv2_block1_1_conv (Conv2D)    (None, 64, 64, 64)   4160        pool1_pool[0][0]                 
__________________________________________________________________________________________________
conv2_block1_1_bn (BatchNormali (None, 64, 64, 64)   256         conv2_block1_1_conv[0][0]        
__________________________________________________________________________________________________
conv2_block1_1_relu (Activation (None, 64, 64, 64)   0           conv2_block1_1_bn[0][0]          
__________________________________________________________________________________________________
conv2_block1_2_conv (Conv2D)    (None, 64, 64, 64)   36928       conv2_block1_1_relu[0][0]        
__________________________________________________________________________________________________
conv2_block1_2_bn (BatchNormali (None, 64, 64, 64)   256         conv2_block1_2_conv[0][0]        
__________________________________________________________________________________________________
conv2_block1_2_relu (Activation (None, 64, 64, 64)   0           conv2_block1_2_bn[0][0]          
__________________________________________________________________________________________________
conv2_block1_0_conv (Conv2D)    (None, 64, 64, 256)  16640       pool1_pool[0][0]                 
__________________________________________________________________________________________________
conv2_block1_3_conv (Conv2D)    (None, 64, 64, 256)  16640       conv2_block1_2_relu[0][0]        
__________________________________________________________________________________________________
conv2_block1_0_bn (BatchNormali (None, 64, 64, 256)  1024        conv2_block1_0_conv[0][0]        
__________________________________________________________________________________________________
conv2_block1_3_bn (BatchNormali (None, 64, 64, 256)  1024        conv2_block1_3_conv[0][0]        
__________________________________________________________________________________________________
conv2_block1_add (Add)          (None, 64, 64, 256)  0           conv2_block1_0_bn[0][0]          
                                                                 conv2_block1_3_bn[0][0]          
__________________________________________________________________________________________________
conv2_block1_out (Activation)   (None, 64, 64, 256)  0           conv2_block1_add[0][0]           
__________________________________________________________________________________________________
conv2_block2_1_conv (Conv2D)    (None, 64, 64, 64)   16448       conv2_block1_out[0][0]           
__________________________________________________________________________________________________
conv2_block2_1_bn (BatchNormali (None, 64, 64, 64)   256         conv2_block2_1_conv[0][0]        
__________________________________________________________________________________________________
conv2_block2_1_relu (Activation (None, 64, 64, 64)   0           conv2_block2_1_bn[0][0]          
__________________________________________________________________________________________________
conv2_block2_2_conv (Conv2D)    (None, 64, 64, 64)   36928       conv2_block2_1_relu[0][0]        
__________________________________________________________________________________________________
conv2_block2_2_bn (BatchNormali (None, 64, 64, 64)   256         conv2_block2_2_conv[0][0]        
__________________________________________________________________________________________________
conv2_block2_2_relu (Activation (None, 64, 64, 64)   0           conv2_block2_2_bn[0][0]          
__________________________________________________________________________________________________
conv2_block2_3_conv (Conv2D)    (None, 64, 64, 256)  16640       conv2_block2_2_relu[0][0]        
__________________________________________________________________________________________________
conv2_block2_3_bn (BatchNormali (None, 64, 64, 256)  1024        conv2_block2_3_conv[0][0]        
__________________________________________________________________________________________________
conv2_block2_add (Add)          (None, 64, 64, 256)  0           conv2_block1_out[0][0]           
                                                                 conv2_block2_3_bn[0][0]          
__________________________________________________________________________________________________
conv2_block2_out (Activation)   (None, 64, 64, 256)  0           conv2_block2_add[0][0]           
__________________________________________________________________________________________________
conv2_block3_1_conv (Conv2D)    (None, 64, 64, 64)   16448       conv2_block2_out[0][0]           
__________________________________________________________________________________________________
conv2_block3_1_bn (BatchNormali (None, 64, 64, 64)   256         conv2_block3_1_conv[0][0]        
__________________________________________________________________________________________________
conv2_block3_1_relu (Activation (None, 64, 64, 64)   0           conv2_block3_1_bn[0][0]          
__________________________________________________________________________________________________
conv2_block3_2_conv (Conv2D)    (None, 64, 64, 64)   36928       conv2_block3_1_relu[0][0]        
__________________________________________________________________________________________________
conv2_block3_2_bn (BatchNormali (None, 64, 64, 64)   256         conv2_block3_2_conv[0][0]        
__________________________________________________________________________________________________
conv2_block3_2_relu (Activation (None, 64, 64, 64)   0           conv2_block3_2_bn[0][0]          
__________________________________________________________________________________________________
conv2_block3_3_conv (Conv2D)    (None, 64, 64, 256)  16640       conv2_block3_2_relu[0][0]        
__________________________________________________________________________________________________
conv2_block3_3_bn (BatchNormali (None, 64, 64, 256)  1024        conv2_block3_3_conv[0][0]        
__________________________________________________________________________________________________
conv2_block3_add (Add)          (None, 64, 64, 256)  0           conv2_block2_out[0][0]           
                                                                 conv2_block3_3_bn[0][0]          
__________________________________________________________________________________________________
conv2_block3_out (Activation)   (None, 64, 64, 256)  0           conv2_block3_add[0][0]           
__________________________________________________________________________________________________
conv3_block1_1_conv (Conv2D)    (None, 32, 32, 128)  32896       conv2_block3_out[0][0]           
__________________________________________________________________________________________________
conv3_block1_1_bn (BatchNormali (None, 32, 32, 128)  512         conv3_block1_1_conv[0][0]        
__________________________________________________________________________________________________
conv3_block1_1_relu (Activation (None, 32, 32, 128)  0           conv3_block1_1_bn[0][0]          
__________________________________________________________________________________________________
conv3_block1_2_conv (Conv2D)    (None, 32, 32, 128)  147584      conv3_block1_1_relu[0][0]        
__________________________________________________________________________________________________
conv3_block1_2_bn (BatchNormali (None, 32, 32, 128)  512         conv3_block1_2_conv[0][0]        
__________________________________________________________________________________________________
conv3_block1_2_relu (Activation (None, 32, 32, 128)  0           conv3_block1_2_bn[0][0]          
__________________________________________________________________________________________________
conv3_block1_0_conv (Conv2D)    (None, 32, 32, 512)  131584      conv2_block3_out[0][0]           
__________________________________________________________________________________________________
conv3_block1_3_conv (Conv2D)    (None, 32, 32, 512)  66048       conv3_block1_2_relu[0][0]        
__________________________________________________________________________________________________
conv3_block1_0_bn (BatchNormali (None, 32, 32, 512)  2048        conv3_block1_0_conv[0][0]        
__________________________________________________________________________________________________
conv3_block1_3_bn (BatchNormali (None, 32, 32, 512)  2048        conv3_block1_3_conv[0][0]        
__________________________________________________________________________________________________
conv3_block1_add (Add)          (None, 32, 32, 512)  0           conv3_block1_0_bn[0][0]          
                                                                 conv3_block1_3_bn[0][0]          
__________________________________________________________________________________________________
conv3_block1_out (Activation)   (None, 32, 32, 512)  0           conv3_block1_add[0][0]           
__________________________________________________________________________________________________
conv3_block2_1_conv (Conv2D)    (None, 32, 32, 128)  65664       conv3_block1_out[0][0]           
__________________________________________________________________________________________________
conv3_block2_1_bn (BatchNormali (None, 32, 32, 128)  512         conv3_block2_1_conv[0][0]        
__________________________________________________________________________________________________
conv3_block2_1_relu (Activation (None, 32, 32, 128)  0           conv3_block2_1_bn[0][0]          
__________________________________________________________________________________________________
conv3_block2_2_conv (Conv2D)    (None, 32, 32, 128)  147584      conv3_block2_1_relu[0][0]        
__________________________________________________________________________________________________
conv3_block2_2_bn (BatchNormali (None, 32, 32, 128)  512         conv3_block2_2_conv[0][0]        
__________________________________________________________________________________________________
conv3_block2_2_relu (Activation (None, 32, 32, 128)  0           conv3_block2_2_bn[0][0]          
__________________________________________________________________________________________________
conv3_block2_3_conv (Conv2D)    (None, 32, 32, 512)  66048       conv3_block2_2_relu[0][0]        
__________________________________________________________________________________________________
conv3_block2_3_bn (BatchNormali (None, 32, 32, 512)  2048        conv3_block2_3_conv[0][0]        
__________________________________________________________________________________________________
conv3_block2_add (Add)          (None, 32, 32, 512)  0           conv3_block1_out[0][0]           
                                                                 conv3_block2_3_bn[0][0]          
__________________________________________________________________________________________________
conv3_block2_out (Activation)   (None, 32, 32, 512)  0           conv3_block2_add[0][0]           
__________________________________________________________________________________________________
conv3_block3_1_conv (Conv2D)    (None, 32, 32, 128)  65664       conv3_block2_out[0][0]           
__________________________________________________________________________________________________
conv3_block3_1_bn (BatchNormali (None, 32, 32, 128)  512         conv3_block3_1_conv[0][0]        
__________________________________________________________________________________________________
conv3_block3_1_relu (Activation (None, 32, 32, 128)  0           conv3_block3_1_bn[0][0]          
__________________________________________________________________________________________________
conv3_block3_2_conv (Conv2D)    (None, 32, 32, 128)  147584      conv3_block3_1_relu[0][0]        
__________________________________________________________________________________________________
conv3_block3_2_bn (BatchNormali (None, 32, 32, 128)  512         conv3_block3_2_conv[0][0]        
__________________________________________________________________________________________________
conv3_block3_2_relu (Activation (None, 32, 32, 128)  0           conv3_block3_2_bn[0][0]          
__________________________________________________________________________________________________
conv3_block3_3_conv (Conv2D)    (None, 32, 32, 512)  66048       conv3_block3_2_relu[0][0]        
__________________________________________________________________________________________________
conv3_block3_3_bn (BatchNormali (None, 32, 32, 512)  2048        conv3_block3_3_conv[0][0]        
__________________________________________________________________________________________________
conv3_block3_add (Add)          (None, 32, 32, 512)  0           conv3_block2_out[0][0]           
                                                                 conv3_block3_3_bn[0][0]          
__________________________________________________________________________________________________
conv3_block3_out (Activation)   (None, 32, 32, 512)  0           conv3_block3_add[0][0]           
__________________________________________________________________________________________________
conv3_block4_1_conv (Conv2D)    (None, 32, 32, 128)  65664       conv3_block3_out[0][0]           
__________________________________________________________________________________________________
conv3_block4_1_bn (BatchNormali (None, 32, 32, 128)  512         conv3_block4_1_conv[0][0]        
__________________________________________________________________________________________________
conv3_block4_1_relu (Activation (None, 32, 32, 128)  0           conv3_block4_1_bn[0][0]          
__________________________________________________________________________________________________
conv3_block4_2_conv (Conv2D)    (None, 32, 32, 128)  147584      conv3_block4_1_relu[0][0]        
__________________________________________________________________________________________________
conv3_block4_2_bn (BatchNormali (None, 32, 32, 128)  512         conv3_block4_2_conv[0][0]        
__________________________________________________________________________________________________
conv3_block4_2_relu (Activation (None, 32, 32, 128)  0           conv3_block4_2_bn[0][0]          
__________________________________________________________________________________________________
conv3_block4_3_conv (Conv2D)    (None, 32, 32, 512)  66048       conv3_block4_2_relu[0][0]        
__________________________________________________________________________________________________
conv3_block4_3_bn (BatchNormali (None, 32, 32, 512)  2048        conv3_block4_3_conv[0][0]        
__________________________________________________________________________________________________
conv3_block4_add (Add)          (None, 32, 32, 512)  0           conv3_block3_out[0][0]           
                                                                 conv3_block4_3_bn[0][0]          
__________________________________________________________________________________________________
conv3_block4_out (Activation)   (None, 32, 32, 512)  0           conv3_block4_add[0][0]           
__________________________________________________________________________________________________
conv4_block1_1_conv (Conv2D)    (None, 16, 16, 256)  131328      conv3_block4_out[0][0]           
__________________________________________________________________________________________________
conv4_block1_1_bn (BatchNormali (None, 16, 16, 256)  1024        conv4_block1_1_conv[0][0]        
__________________________________________________________________________________________________
conv4_block1_1_relu (Activation (None, 16, 16, 256)  0           conv4_block1_1_bn[0][0]          
__________________________________________________________________________________________________
conv4_block1_2_conv (Conv2D)    (None, 16, 16, 256)  590080      conv4_block1_1_relu[0][0]        
__________________________________________________________________________________________________
conv4_block1_2_bn (BatchNormali (None, 16, 16, 256)  1024        conv4_block1_2_conv[0][0]        
__________________________________________________________________________________________________
conv4_block1_2_relu (Activation (None, 16, 16, 256)  0           conv4_block1_2_bn[0][0]          
__________________________________________________________________________________________________
conv4_block1_0_conv (Conv2D)    (None, 16, 16, 1024) 525312      conv3_block4_out[0][0]           
__________________________________________________________________________________________________
conv4_block1_3_conv (Conv2D)    (None, 16, 16, 1024) 263168      conv4_block1_2_relu[0][0]        
__________________________________________________________________________________________________
conv4_block1_0_bn (BatchNormali (None, 16, 16, 1024) 4096        conv4_block1_0_conv[0][0]        
__________________________________________________________________________________________________
conv4_block1_3_bn (BatchNormali (None, 16, 16, 1024) 4096        conv4_block1_3_conv[0][0]        
__________________________________________________________________________________________________
conv4_block1_add (Add)          (None, 16, 16, 1024) 0           conv4_block1_0_bn[0][0]          
                                                                 conv4_block1_3_bn[0][0]          
__________________________________________________________________________________________________
conv4_block1_out (Activation)   (None, 16, 16, 1024) 0           conv4_block1_add[0][0]           
__________________________________________________________________________________________________
conv4_block2_1_conv (Conv2D)    (None, 16, 16, 256)  262400      conv4_block1_out[0][0]           
__________________________________________________________________________________________________
conv4_block2_1_bn (BatchNormali (None, 16, 16, 256)  1024        conv4_block2_1_conv[0][0]        
__________________________________________________________________________________________________
conv4_block2_1_relu (Activation (None, 16, 16, 256)  0           conv4_block2_1_bn[0][0]          
__________________________________________________________________________________________________
conv4_block2_2_conv (Conv2D)    (None, 16, 16, 256)  590080      conv4_block2_1_relu[0][0]        
__________________________________________________________________________________________________
conv4_block2_2_bn (BatchNormali (None, 16, 16, 256)  1024        conv4_block2_2_conv[0][0]        
__________________________________________________________________________________________________
conv4_block2_2_relu (Activation (None, 16, 16, 256)  0           conv4_block2_2_bn[0][0]          
__________________________________________________________________________________________________
conv4_block2_3_conv (Conv2D)    (None, 16, 16, 1024) 263168      conv4_block2_2_relu[0][0]        
__________________________________________________________________________________________________
conv4_block2_3_bn (BatchNormali (None, 16, 16, 1024) 4096        conv4_block2_3_conv[0][0]        
__________________________________________________________________________________________________
conv4_block2_add (Add)          (None, 16, 16, 1024) 0           conv4_block1_out[0][0]           
                                                                 conv4_block2_3_bn[0][0]          
__________________________________________________________________________________________________
conv4_block2_out (Activation)   (None, 16, 16, 1024) 0           conv4_block2_add[0][0]           
__________________________________________________________________________________________________
conv4_block3_1_conv (Conv2D)    (None, 16, 16, 256)  262400      conv4_block2_out[0][0]           
__________________________________________________________________________________________________
conv4_block3_1_bn (BatchNormali (None, 16, 16, 256)  1024        conv4_block3_1_conv[0][0]        
__________________________________________________________________________________________________
conv4_block3_1_relu (Activation (None, 16, 16, 256)  0           conv4_block3_1_bn[0][0]          
__________________________________________________________________________________________________
conv4_block3_2_conv (Conv2D)    (None, 16, 16, 256)  590080      conv4_block3_1_relu[0][0]        
__________________________________________________________________________________________________
conv4_block3_2_bn (BatchNormali (None, 16, 16, 256)  1024        conv4_block3_2_conv[0][0]        
__________________________________________________________________________________________________
conv4_block3_2_relu (Activation (None, 16, 16, 256)  0           conv4_block3_2_bn[0][0]          
__________________________________________________________________________________________________
conv4_block3_3_conv (Conv2D)    (None, 16, 16, 1024) 263168      conv4_block3_2_relu[0][0]        
__________________________________________________________________________________________________
conv4_block3_3_bn (BatchNormali (None, 16, 16, 1024) 4096        conv4_block3_3_conv[0][0]        
__________________________________________________________________________________________________
conv4_block3_add (Add)          (None, 16, 16, 1024) 0           conv4_block2_out[0][0]           
                                                                 conv4_block3_3_bn[0][0]          
__________________________________________________________________________________________________
conv4_block3_out (Activation)   (None, 16, 16, 1024) 0           conv4_block3_add[0][0]           
__________________________________________________________________________________________________
conv4_block4_1_conv (Conv2D)    (None, 16, 16, 256)  262400      conv4_block3_out[0][0]           
__________________________________________________________________________________________________
conv4_block4_1_bn (BatchNormali (None, 16, 16, 256)  1024        conv4_block4_1_conv[0][0]        
__________________________________________________________________________________________________
conv4_block4_1_relu (Activation (None, 16, 16, 256)  0           conv4_block4_1_bn[0][0]          
__________________________________________________________________________________________________
conv4_block4_2_conv (Conv2D)    (None, 16, 16, 256)  590080      conv4_block4_1_relu[0][0]        
__________________________________________________________________________________________________
conv4_block4_2_bn (BatchNormali (None, 16, 16, 256)  1024        conv4_block4_2_conv[0][0]        
__________________________________________________________________________________________________
conv4_block4_2_relu (Activation (None, 16, 16, 256)  0           conv4_block4_2_bn[0][0]          
__________________________________________________________________________________________________
conv4_block4_3_conv (Conv2D)    (None, 16, 16, 1024) 263168      conv4_block4_2_relu[0][0]        
__________________________________________________________________________________________________
conv4_block4_3_bn (BatchNormali (None, 16, 16, 1024) 4096        conv4_block4_3_conv[0][0]        
__________________________________________________________________________________________________
conv4_block4_add (Add)          (None, 16, 16, 1024) 0           conv4_block3_out[0][0]           
                                                                 conv4_block4_3_bn[0][0]          
__________________________________________________________________________________________________
conv4_block4_out (Activation)   (None, 16, 16, 1024) 0           conv4_block4_add[0][0]           
__________________________________________________________________________________________________
conv4_block5_1_conv (Conv2D)    (None, 16, 16, 256)  262400      conv4_block4_out[0][0]           
__________________________________________________________________________________________________
conv4_block5_1_bn (BatchNormali (None, 16, 16, 256)  1024        conv4_block5_1_conv[0][0]        
__________________________________________________________________________________________________
conv4_block5_1_relu (Activation (None, 16, 16, 256)  0           conv4_block5_1_bn[0][0]          
__________________________________________________________________________________________________
conv4_block5_2_conv (Conv2D)    (None, 16, 16, 256)  590080      conv4_block5_1_relu[0][0]        
__________________________________________________________________________________________________
conv4_block5_2_bn (BatchNormali (None, 16, 16, 256)  1024        conv4_block5_2_conv[0][0]        
__________________________________________________________________________________________________
conv4_block5_2_relu (Activation (None, 16, 16, 256)  0           conv4_block5_2_bn[0][0]          
__________________________________________________________________________________________________
conv4_block5_3_conv (Conv2D)    (None, 16, 16, 1024) 263168      conv4_block5_2_relu[0][0]        
__________________________________________________________________________________________________
conv4_block5_3_bn (BatchNormali (None, 16, 16, 1024) 4096        conv4_block5_3_conv[0][0]        
__________________________________________________________________________________________________
conv4_block5_add (Add)          (None, 16, 16, 1024) 0           conv4_block4_out[0][0]           
                                                                 conv4_block5_3_bn[0][0]          
__________________________________________________________________________________________________
conv4_block5_out (Activation)   (None, 16, 16, 1024) 0           conv4_block5_add[0][0]           
__________________________________________________________________________________________________
conv4_block6_1_conv (Conv2D)    (None, 16, 16, 256)  262400      conv4_block5_out[0][0]           
__________________________________________________________________________________________________
conv4_block6_1_bn (BatchNormali (None, 16, 16, 256)  1024        conv4_block6_1_conv[0][0]        
__________________________________________________________________________________________________
conv4_block6_1_relu (Activation (None, 16, 16, 256)  0           conv4_block6_1_bn[0][0]          
__________________________________________________________________________________________________
conv4_block6_2_conv (Conv2D)    (None, 16, 16, 256)  590080      conv4_block6_1_relu[0][0]        
__________________________________________________________________________________________________
conv4_block6_2_bn (BatchNormali (None, 16, 16, 256)  1024        conv4_block6_2_conv[0][0]        
__________________________________________________________________________________________________
conv4_block6_2_relu (Activation (None, 16, 16, 256)  0           conv4_block6_2_bn[0][0]          
__________________________________________________________________________________________________
conv4_block6_3_conv (Conv2D)    (None, 16, 16, 1024) 263168      conv4_block6_2_relu[0][0]        
__________________________________________________________________________________________________
conv4_block6_3_bn (BatchNormali (None, 16, 16, 1024) 4096        conv4_block6_3_conv[0][0]        
__________________________________________________________________________________________________
conv4_block6_add (Add)          (None, 16, 16, 1024) 0           conv4_block5_out[0][0]           
                                                                 conv4_block6_3_bn[0][0]          
__________________________________________________________________________________________________
conv4_block6_out (Activation)   (None, 16, 16, 1024) 0           conv4_block6_add[0][0]           
__________________________________________________________________________________________________
conv4_block7_1_conv (Conv2D)    (None, 16, 16, 256)  262400      conv4_block6_out[0][0]           
__________________________________________________________________________________________________
conv4_block7_1_bn (BatchNormali (None, 16, 16, 256)  1024        conv4_block7_1_conv[0][0]        
__________________________________________________________________________________________________
conv4_block7_1_relu (Activation (None, 16, 16, 256)  0           conv4_block7_1_bn[0][0]          
__________________________________________________________________________________________________
conv4_block7_2_conv (Conv2D)    (None, 16, 16, 256)  590080      conv4_block7_1_relu[0][0]        
__________________________________________________________________________________________________
conv4_block7_2_bn (BatchNormali (None, 16, 16, 256)  1024        conv4_block7_2_conv[0][0]        
__________________________________________________________________________________________________
conv4_block7_2_relu (Activation (None, 16, 16, 256)  0           conv4_block7_2_bn[0][0]          
__________________________________________________________________________________________________
conv4_block7_3_conv (Conv2D)    (None, 16, 16, 1024) 263168      conv4_block7_2_relu[0][0]        
__________________________________________________________________________________________________
conv4_block7_3_bn (BatchNormali (None, 16, 16, 1024) 4096        conv4_block7_3_conv[0][0]        
__________________________________________________________________________________________________
conv4_block7_add (Add)          (None, 16, 16, 1024) 0           conv4_block6_out[0][0]           
                                                                 conv4_block7_3_bn[0][0]          
__________________________________________________________________________________________________
conv4_block7_out (Activation)   (None, 16, 16, 1024) 0           conv4_block7_add[0][0]           
__________________________________________________________________________________________________
conv4_block8_1_conv (Conv2D)    (None, 16, 16, 256)  262400      conv4_block7_out[0][0]           
__________________________________________________________________________________________________
conv4_block8_1_bn (BatchNormali (None, 16, 16, 256)  1024        conv4_block8_1_conv[0][0]        
__________________________________________________________________________________________________
conv4_block8_1_relu (Activation (None, 16, 16, 256)  0           conv4_block8_1_bn[0][0]          
__________________________________________________________________________________________________
conv4_block8_2_conv (Conv2D)    (None, 16, 16, 256)  590080      conv4_block8_1_relu[0][0]        
__________________________________________________________________________________________________
conv4_block8_2_bn (BatchNormali (None, 16, 16, 256)  1024        conv4_block8_2_conv[0][0]        
__________________________________________________________________________________________________
conv4_block8_2_relu (Activation (None, 16, 16, 256)  0           conv4_block8_2_bn[0][0]          
__________________________________________________________________________________________________
conv4_block8_3_conv (Conv2D)    (None, 16, 16, 1024) 263168      conv4_block8_2_relu[0][0]        
__________________________________________________________________________________________________
conv4_block8_3_bn (BatchNormali (None, 16, 16, 1024) 4096        conv4_block8_3_conv[0][0]        
__________________________________________________________________________________________________
conv4_block8_add (Add)          (None, 16, 16, 1024) 0           conv4_block7_out[0][0]           
                                                                 conv4_block8_3_bn[0][0]          
__________________________________________________________________________________________________
conv4_block8_out (Activation)   (None, 16, 16, 1024) 0           conv4_block8_add[0][0]           
__________________________________________________________________________________________________
conv4_block9_1_conv (Conv2D)    (None, 16, 16, 256)  262400      conv4_block8_out[0][0]           
__________________________________________________________________________________________________
conv4_block9_1_bn (BatchNormali (None, 16, 16, 256)  1024        conv4_block9_1_conv[0][0]        
__________________________________________________________________________________________________
conv4_block9_1_relu (Activation (None, 16, 16, 256)  0           conv4_block9_1_bn[0][0]          
__________________________________________________________________________________________________
conv4_block9_2_conv (Conv2D)    (None, 16, 16, 256)  590080      conv4_block9_1_relu[0][0]        
__________________________________________________________________________________________________
conv4_block9_2_bn (BatchNormali (None, 16, 16, 256)  1024        conv4_block9_2_conv[0][0]        
__________________________________________________________________________________________________
conv4_block9_2_relu (Activation (None, 16, 16, 256)  0           conv4_block9_2_bn[0][0]          
__________________________________________________________________________________________________
conv4_block9_3_conv (Conv2D)    (None, 16, 16, 1024) 263168      conv4_block9_2_relu[0][0]        
__________________________________________________________________________________________________
conv4_block9_3_bn (BatchNormali (None, 16, 16, 1024) 4096        conv4_block9_3_conv[0][0]        
__________________________________________________________________________________________________
conv4_block9_add (Add)          (None, 16, 16, 1024) 0           conv4_block8_out[0][0]           
                                                                 conv4_block9_3_bn[0][0]          
__________________________________________________________________________________________________
conv4_block9_out (Activation)   (None, 16, 16, 1024) 0           conv4_block9_add[0][0]           
__________________________________________________________________________________________________
conv4_block10_1_conv (Conv2D)   (None, 16, 16, 256)  262400      conv4_block9_out[0][0]           
__________________________________________________________________________________________________
conv4_block10_1_bn (BatchNormal (None, 16, 16, 256)  1024        conv4_block10_1_conv[0][0]       
__________________________________________________________________________________________________
conv4_block10_1_relu (Activatio (None, 16, 16, 256)  0           conv4_block10_1_bn[0][0]         
__________________________________________________________________________________________________
conv4_block10_2_conv (Conv2D)   (None, 16, 16, 256)  590080      conv4_block10_1_relu[0][0]       
__________________________________________________________________________________________________
conv4_block10_2_bn (BatchNormal (None, 16, 16, 256)  1024        conv4_block10_2_conv[0][0]       
__________________________________________________________________________________________________
conv4_block10_2_relu (Activatio (None, 16, 16, 256)  0           conv4_block10_2_bn[0][0]         
__________________________________________________________________________________________________
conv4_block10_3_conv (Conv2D)   (None, 16, 16, 1024) 263168      conv4_block10_2_relu[0][0]       
__________________________________________________________________________________________________
conv4_block10_3_bn (BatchNormal (None, 16, 16, 1024) 4096        conv4_block10_3_conv[0][0]       
__________________________________________________________________________________________________
conv4_block10_add (Add)         (None, 16, 16, 1024) 0           conv4_block9_out[0][0]           
                                                                 conv4_block10_3_bn[0][0]         
__________________________________________________________________________________________________
conv4_block10_out (Activation)  (None, 16, 16, 1024) 0           conv4_block10_add[0][0]          
__________________________________________________________________________________________________
conv4_block11_1_conv (Conv2D)   (None, 16, 16, 256)  262400      conv4_block10_out[0][0]          
__________________________________________________________________________________________________
conv4_block11_1_bn (BatchNormal (None, 16, 16, 256)  1024        conv4_block11_1_conv[0][0]       
__________________________________________________________________________________________________
conv4_block11_1_relu (Activatio (None, 16, 16, 256)  0           conv4_block11_1_bn[0][0]         
__________________________________________________________________________________________________
conv4_block11_2_conv (Conv2D)   (None, 16, 16, 256)  590080      conv4_block11_1_relu[0][0]       
__________________________________________________________________________________________________
conv4_block11_2_bn (BatchNormal (None, 16, 16, 256)  1024        conv4_block11_2_conv[0][0]       
__________________________________________________________________________________________________
conv4_block11_2_relu (Activatio (None, 16, 16, 256)  0           conv4_block11_2_bn[0][0]         
__________________________________________________________________________________________________
conv4_block11_3_conv (Conv2D)   (None, 16, 16, 1024) 263168      conv4_block11_2_relu[0][0]       
__________________________________________________________________________________________________
conv4_block11_3_bn (BatchNormal (None, 16, 16, 1024) 4096        conv4_block11_3_conv[0][0]       
__________________________________________________________________________________________________
conv4_block11_add (Add)         (None, 16, 16, 1024) 0           conv4_block10_out[0][0]          
                                                                 conv4_block11_3_bn[0][0]         
__________________________________________________________________________________________________
conv4_block11_out (Activation)  (None, 16, 16, 1024) 0           conv4_block11_add[0][0]          
__________________________________________________________________________________________________
conv4_block12_1_conv (Conv2D)   (None, 16, 16, 256)  262400      conv4_block11_out[0][0]          
__________________________________________________________________________________________________
conv4_block12_1_bn (BatchNormal (None, 16, 16, 256)  1024        conv4_block12_1_conv[0][0]       
__________________________________________________________________________________________________
conv4_block12_1_relu (Activatio (None, 16, 16, 256)  0           conv4_block12_1_bn[0][0]         
__________________________________________________________________________________________________
conv4_block12_2_conv (Conv2D)   (None, 16, 16, 256)  590080      conv4_block12_1_relu[0][0]       
__________________________________________________________________________________________________
conv4_block12_2_bn (BatchNormal (None, 16, 16, 256)  1024        conv4_block12_2_conv[0][0]       
__________________________________________________________________________________________________
conv4_block12_2_relu (Activatio (None, 16, 16, 256)  0           conv4_block12_2_bn[0][0]         
__________________________________________________________________________________________________
conv4_block12_3_conv (Conv2D)   (None, 16, 16, 1024) 263168      conv4_block12_2_relu[0][0]       
__________________________________________________________________________________________________
conv4_block12_3_bn (BatchNormal (None, 16, 16, 1024) 4096        conv4_block12_3_conv[0][0]       
__________________________________________________________________________________________________
conv4_block12_add (Add)         (None, 16, 16, 1024) 0           conv4_block11_out[0][0]          
                                                                 conv4_block12_3_bn[0][0]         
__________________________________________________________________________________________________
conv4_block12_out (Activation)  (None, 16, 16, 1024) 0           conv4_block12_add[0][0]          
__________________________________________________________________________________________________
conv4_block13_1_conv (Conv2D)   (None, 16, 16, 256)  262400      conv4_block12_out[0][0]          
__________________________________________________________________________________________________
conv4_block13_1_bn (BatchNormal (None, 16, 16, 256)  1024        conv4_block13_1_conv[0][0]       
__________________________________________________________________________________________________
conv4_block13_1_relu (Activatio (None, 16, 16, 256)  0           conv4_block13_1_bn[0][0]         
__________________________________________________________________________________________________
conv4_block13_2_conv (Conv2D)   (None, 16, 16, 256)  590080      conv4_block13_1_relu[0][0]       
__________________________________________________________________________________________________
conv4_block13_2_bn (BatchNormal (None, 16, 16, 256)  1024        conv4_block13_2_conv[0][0]       
__________________________________________________________________________________________________
conv4_block13_2_relu (Activatio (None, 16, 16, 256)  0           conv4_block13_2_bn[0][0]         
__________________________________________________________________________________________________
conv4_block13_3_conv (Conv2D)   (None, 16, 16, 1024) 263168      conv4_block13_2_relu[0][0]       
__________________________________________________________________________________________________
conv4_block13_3_bn (BatchNormal (None, 16, 16, 1024) 4096        conv4_block13_3_conv[0][0]       
__________________________________________________________________________________________________
conv4_block13_add (Add)         (None, 16, 16, 1024) 0           conv4_block12_out[0][0]          
                                                                 conv4_block13_3_bn[0][0]         
__________________________________________________________________________________________________
conv4_block13_out (Activation)  (None, 16, 16, 1024) 0           conv4_block13_add[0][0]          
__________________________________________________________________________________________________
conv4_block14_1_conv (Conv2D)   (None, 16, 16, 256)  262400      conv4_block13_out[0][0]          
__________________________________________________________________________________________________
conv4_block14_1_bn (BatchNormal (None, 16, 16, 256)  1024        conv4_block14_1_conv[0][0]       
__________________________________________________________________________________________________
conv4_block14_1_relu (Activatio (None, 16, 16, 256)  0           conv4_block14_1_bn[0][0]         
__________________________________________________________________________________________________
conv4_block14_2_conv (Conv2D)   (None, 16, 16, 256)  590080      conv4_block14_1_relu[0][0]       
__________________________________________________________________________________________________
conv4_block14_2_bn (BatchNormal (None, 16, 16, 256)  1024        conv4_block14_2_conv[0][0]       
__________________________________________________________________________________________________
conv4_block14_2_relu (Activatio (None, 16, 16, 256)  0           conv4_block14_2_bn[0][0]         
__________________________________________________________________________________________________
conv4_block14_3_conv (Conv2D)   (None, 16, 16, 1024) 263168      conv4_block14_2_relu[0][0]       
__________________________________________________________________________________________________
conv4_block14_3_bn (BatchNormal (None, 16, 16, 1024) 4096        conv4_block14_3_conv[0][0]       
__________________________________________________________________________________________________
conv4_block14_add (Add)         (None, 16, 16, 1024) 0           conv4_block13_out[0][0]          
                                                                 conv4_block14_3_bn[0][0]         
__________________________________________________________________________________________________
conv4_block14_out (Activation)  (None, 16, 16, 1024) 0           conv4_block14_add[0][0]          
__________________________________________________________________________________________________
conv4_block15_1_conv (Conv2D)   (None, 16, 16, 256)  262400      conv4_block14_out[0][0]          
__________________________________________________________________________________________________
conv4_block15_1_bn (BatchNormal (None, 16, 16, 256)  1024        conv4_block15_1_conv[0][0]       
__________________________________________________________________________________________________
conv4_block15_1_relu (Activatio (None, 16, 16, 256)  0           conv4_block15_1_bn[0][0]         
__________________________________________________________________________________________________
conv4_block15_2_conv (Conv2D)   (None, 16, 16, 256)  590080      conv4_block15_1_relu[0][0]       
__________________________________________________________________________________________________
conv4_block15_2_bn (BatchNormal (None, 16, 16, 256)  1024        conv4_block15_2_conv[0][0]       
__________________________________________________________________________________________________
conv4_block15_2_relu (Activatio (None, 16, 16, 256)  0           conv4_block15_2_bn[0][0]         
__________________________________________________________________________________________________
conv4_block15_3_conv (Conv2D)   (None, 16, 16, 1024) 263168      conv4_block15_2_relu[0][0]       
__________________________________________________________________________________________________
conv4_block15_3_bn (BatchNormal (None, 16, 16, 1024) 4096        conv4_block15_3_conv[0][0]       
__________________________________________________________________________________________________
conv4_block15_add (Add)         (None, 16, 16, 1024) 0           conv4_block14_out[0][0]          
                                                                 conv4_block15_3_bn[0][0]         
__________________________________________________________________________________________________
conv4_block15_out (Activation)  (None, 16, 16, 1024) 0           conv4_block15_add[0][0]          
__________________________________________________________________________________________________
conv4_block16_1_conv (Conv2D)   (None, 16, 16, 256)  262400      conv4_block15_out[0][0]          
__________________________________________________________________________________________________
conv4_block16_1_bn (BatchNormal (None, 16, 16, 256)  1024        conv4_block16_1_conv[0][0]       
__________________________________________________________________________________________________
conv4_block16_1_relu (Activatio (None, 16, 16, 256)  0           conv4_block16_1_bn[0][0]         
__________________________________________________________________________________________________
conv4_block16_2_conv (Conv2D)   (None, 16, 16, 256)  590080      conv4_block16_1_relu[0][0]       
__________________________________________________________________________________________________
conv4_block16_2_bn (BatchNormal (None, 16, 16, 256)  1024        conv4_block16_2_conv[0][0]       
__________________________________________________________________________________________________
conv4_block16_2_relu (Activatio (None, 16, 16, 256)  0           conv4_block16_2_bn[0][0]         
__________________________________________________________________________________________________
conv4_block16_3_conv (Conv2D)   (None, 16, 16, 1024) 263168      conv4_block16_2_relu[0][0]       
__________________________________________________________________________________________________
conv4_block16_3_bn (BatchNormal (None, 16, 16, 1024) 4096        conv4_block16_3_conv[0][0]       
__________________________________________________________________________________________________
conv4_block16_add (Add)         (None, 16, 16, 1024) 0           conv4_block15_out[0][0]          
                                                                 conv4_block16_3_bn[0][0]         
__________________________________________________________________________________________________
conv4_block16_out (Activation)  (None, 16, 16, 1024) 0           conv4_block16_add[0][0]          
__________________________________________________________________________________________________
conv4_block17_1_conv (Conv2D)   (None, 16, 16, 256)  262400      conv4_block16_out[0][0]          
__________________________________________________________________________________________________
conv4_block17_1_bn (BatchNormal (None, 16, 16, 256)  1024        conv4_block17_1_conv[0][0]       
__________________________________________________________________________________________________
conv4_block17_1_relu (Activatio (None, 16, 16, 256)  0           conv4_block17_1_bn[0][0]         
__________________________________________________________________________________________________
conv4_block17_2_conv (Conv2D)   (None, 16, 16, 256)  590080      conv4_block17_1_relu[0][0]       
__________________________________________________________________________________________________
conv4_block17_2_bn (BatchNormal (None, 16, 16, 256)  1024        conv4_block17_2_conv[0][0]       
__________________________________________________________________________________________________
conv4_block17_2_relu (Activatio (None, 16, 16, 256)  0           conv4_block17_2_bn[0][0]         
__________________________________________________________________________________________________
conv4_block17_3_conv (Conv2D)   (None, 16, 16, 1024) 263168      conv4_block17_2_relu[0][0]       
__________________________________________________________________________________________________
conv4_block17_3_bn (BatchNormal (None, 16, 16, 1024) 4096        conv4_block17_3_conv[0][0]       
__________________________________________________________________________________________________
conv4_block17_add (Add)         (None, 16, 16, 1024) 0           conv4_block16_out[0][0]          
                                                                 conv4_block17_3_bn[0][0]         
__________________________________________________________________________________________________
conv4_block17_out (Activation)  (None, 16, 16, 1024) 0           conv4_block17_add[0][0]          
__________________________________________________________________________________________________
conv4_block18_1_conv (Conv2D)   (None, 16, 16, 256)  262400      conv4_block17_out[0][0]          
__________________________________________________________________________________________________
conv4_block18_1_bn (BatchNormal (None, 16, 16, 256)  1024        conv4_block18_1_conv[0][0]       
__________________________________________________________________________________________________
conv4_block18_1_relu (Activatio (None, 16, 16, 256)  0           conv4_block18_1_bn[0][0]         
__________________________________________________________________________________________________
conv4_block18_2_conv (Conv2D)   (None, 16, 16, 256)  590080      conv4_block18_1_relu[0][0]       
__________________________________________________________________________________________________
conv4_block18_2_bn (BatchNormal (None, 16, 16, 256)  1024        conv4_block18_2_conv[0][0]       
__________________________________________________________________________________________________
conv4_block18_2_relu (Activatio (None, 16, 16, 256)  0           conv4_block18_2_bn[0][0]         
__________________________________________________________________________________________________
conv4_block18_3_conv (Conv2D)   (None, 16, 16, 1024) 263168      conv4_block18_2_relu[0][0]       
__________________________________________________________________________________________________
conv4_block18_3_bn (BatchNormal (None, 16, 16, 1024) 4096        conv4_block18_3_conv[0][0]       
__________________________________________________________________________________________________
conv4_block18_add (Add)         (None, 16, 16, 1024) 0           conv4_block17_out[0][0]          
                                                                 conv4_block18_3_bn[0][0]         
__________________________________________________________________________________________________
conv4_block18_out (Activation)  (None, 16, 16, 1024) 0           conv4_block18_add[0][0]          
__________________________________________________________________________________________________
conv4_block19_1_conv (Conv2D)   (None, 16, 16, 256)  262400      conv4_block18_out[0][0]          
__________________________________________________________________________________________________
conv4_block19_1_bn (BatchNormal (None, 16, 16, 256)  1024        conv4_block19_1_conv[0][0]       
__________________________________________________________________________________________________
conv4_block19_1_relu (Activatio (None, 16, 16, 256)  0           conv4_block19_1_bn[0][0]         
__________________________________________________________________________________________________
conv4_block19_2_conv (Conv2D)   (None, 16, 16, 256)  590080      conv4_block19_1_relu[0][0]       
__________________________________________________________________________________________________
conv4_block19_2_bn (BatchNormal (None, 16, 16, 256)  1024        conv4_block19_2_conv[0][0]       
__________________________________________________________________________________________________
conv4_block19_2_relu (Activatio (None, 16, 16, 256)  0           conv4_block19_2_bn[0][0]         
__________________________________________________________________________________________________
conv4_block19_3_conv (Conv2D)   (None, 16, 16, 1024) 263168      conv4_block19_2_relu[0][0]       
__________________________________________________________________________________________________
conv4_block19_3_bn (BatchNormal (None, 16, 16, 1024) 4096        conv4_block19_3_conv[0][0]       
__________________________________________________________________________________________________
conv4_block19_add (Add)         (None, 16, 16, 1024) 0           conv4_block18_out[0][0]          
                                                                 conv4_block19_3_bn[0][0]         
__________________________________________________________________________________________________
conv4_block19_out (Activation)  (None, 16, 16, 1024) 0           conv4_block19_add[0][0]          
__________________________________________________________________________________________________
conv4_block20_1_conv (Conv2D)   (None, 16, 16, 256)  262400      conv4_block19_out[0][0]          
__________________________________________________________________________________________________
conv4_block20_1_bn (BatchNormal (None, 16, 16, 256)  1024        conv4_block20_1_conv[0][0]       
__________________________________________________________________________________________________
conv4_block20_1_relu (Activatio (None, 16, 16, 256)  0           conv4_block20_1_bn[0][0]         
__________________________________________________________________________________________________
conv4_block20_2_conv (Conv2D)   (None, 16, 16, 256)  590080      conv4_block20_1_relu[0][0]       
__________________________________________________________________________________________________
conv4_block20_2_bn (BatchNormal (None, 16, 16, 256)  1024        conv4_block20_2_conv[0][0]       
__________________________________________________________________________________________________
conv4_block20_2_relu (Activatio (None, 16, 16, 256)  0           conv4_block20_2_bn[0][0]         
__________________________________________________________________________________________________
conv4_block20_3_conv (Conv2D)   (None, 16, 16, 1024) 263168      conv4_block20_2_relu[0][0]       
__________________________________________________________________________________________________
conv4_block20_3_bn (BatchNormal (None, 16, 16, 1024) 4096        conv4_block20_3_conv[0][0]       
__________________________________________________________________________________________________
conv4_block20_add (Add)         (None, 16, 16, 1024) 0           conv4_block19_out[0][0]          
                                                                 conv4_block20_3_bn[0][0]         
__________________________________________________________________________________________________
conv4_block20_out (Activation)  (None, 16, 16, 1024) 0           conv4_block20_add[0][0]          
__________________________________________________________________________________________________
conv4_block21_1_conv (Conv2D)   (None, 16, 16, 256)  262400      conv4_block20_out[0][0]          
__________________________________________________________________________________________________
conv4_block21_1_bn (BatchNormal (None, 16, 16, 256)  1024        conv4_block21_1_conv[0][0]       
__________________________________________________________________________________________________
conv4_block21_1_relu (Activatio (None, 16, 16, 256)  0           conv4_block21_1_bn[0][0]         
__________________________________________________________________________________________________
conv4_block21_2_conv (Conv2D)   (None, 16, 16, 256)  590080      conv4_block21_1_relu[0][0]       
__________________________________________________________________________________________________
conv4_block21_2_bn (BatchNormal (None, 16, 16, 256)  1024        conv4_block21_2_conv[0][0]       
__________________________________________________________________________________________________
conv4_block21_2_relu (Activatio (None, 16, 16, 256)  0           conv4_block21_2_bn[0][0]         
__________________________________________________________________________________________________
conv4_block21_3_conv (Conv2D)   (None, 16, 16, 1024) 263168      conv4_block21_2_relu[0][0]       
__________________________________________________________________________________________________
conv4_block21_3_bn (BatchNormal (None, 16, 16, 1024) 4096        conv4_block21_3_conv[0][0]       
__________________________________________________________________________________________________
conv4_block21_add (Add)         (None, 16, 16, 1024) 0           conv4_block20_out[0][0]          
                                                                 conv4_block21_3_bn[0][0]         
__________________________________________________________________________________________________
conv4_block21_out (Activation)  (None, 16, 16, 1024) 0           conv4_block21_add[0][0]          
__________________________________________________________________________________________________
conv4_block22_1_conv (Conv2D)   (None, 16, 16, 256)  262400      conv4_block21_out[0][0]          
__________________________________________________________________________________________________
conv4_block22_1_bn (BatchNormal (None, 16, 16, 256)  1024        conv4_block22_1_conv[0][0]       
__________________________________________________________________________________________________
conv4_block22_1_relu (Activatio (None, 16, 16, 256)  0           conv4_block22_1_bn[0][0]         
__________________________________________________________________________________________________
conv4_block22_2_conv (Conv2D)   (None, 16, 16, 256)  590080      conv4_block22_1_relu[0][0]       
__________________________________________________________________________________________________
conv4_block22_2_bn (BatchNormal (None, 16, 16, 256)  1024        conv4_block22_2_conv[0][0]       
__________________________________________________________________________________________________
conv4_block22_2_relu (Activatio (None, 16, 16, 256)  0           conv4_block22_2_bn[0][0]         
__________________________________________________________________________________________________
conv4_block22_3_conv (Conv2D)   (None, 16, 16, 1024) 263168      conv4_block22_2_relu[0][0]       
__________________________________________________________________________________________________
conv4_block22_3_bn (BatchNormal (None, 16, 16, 1024) 4096        conv4_block22_3_conv[0][0]       
__________________________________________________________________________________________________
conv4_block22_add (Add)         (None, 16, 16, 1024) 0           conv4_block21_out[0][0]          
                                                                 conv4_block22_3_bn[0][0]         
__________________________________________________________________________________________________
conv4_block22_out (Activation)  (None, 16, 16, 1024) 0           conv4_block22_add[0][0]          
__________________________________________________________________________________________________
conv4_block23_1_conv (Conv2D)   (None, 16, 16, 256)  262400      conv4_block22_out[0][0]          
__________________________________________________________________________________________________
conv4_block23_1_bn (BatchNormal (None, 16, 16, 256)  1024        conv4_block23_1_conv[0][0]       
__________________________________________________________________________________________________
conv4_block23_1_relu (Activatio (None, 16, 16, 256)  0           conv4_block23_1_bn[0][0]         
__________________________________________________________________________________________________
conv4_block23_2_conv (Conv2D)   (None, 16, 16, 256)  590080      conv4_block23_1_relu[0][0]       
__________________________________________________________________________________________________
conv4_block23_2_bn (BatchNormal (None, 16, 16, 256)  1024        conv4_block23_2_conv[0][0]       
__________________________________________________________________________________________________
conv4_block23_2_relu (Activatio (None, 16, 16, 256)  0           conv4_block23_2_bn[0][0]         
__________________________________________________________________________________________________
conv4_block23_3_conv (Conv2D)   (None, 16, 16, 1024) 263168      conv4_block23_2_relu[0][0]       
__________________________________________________________________________________________________
conv4_block23_3_bn (BatchNormal (None, 16, 16, 1024) 4096        conv4_block23_3_conv[0][0]       
__________________________________________________________________________________________________
conv4_block23_add (Add)         (None, 16, 16, 1024) 0           conv4_block22_out[0][0]          
                                                                 conv4_block23_3_bn[0][0]         
__________________________________________________________________________________________________
conv4_block23_out (Activation)  (None, 16, 16, 1024) 0           conv4_block23_add[0][0]          
__________________________________________________________________________________________________
conv5_block1_1_conv (Conv2D)    (None, 8, 8, 512)    524800      conv4_block23_out[0][0]          
__________________________________________________________________________________________________
conv5_block1_1_bn (BatchNormali (None, 8, 8, 512)    2048        conv5_block1_1_conv[0][0]        
__________________________________________________________________________________________________
conv5_block1_1_relu (Activation (None, 8, 8, 512)    0           conv5_block1_1_bn[0][0]          
__________________________________________________________________________________________________
conv5_block1_2_conv (Conv2D)    (None, 8, 8, 512)    2359808     conv5_block1_1_relu[0][0]        
__________________________________________________________________________________________________
conv5_block1_2_bn (BatchNormali (None, 8, 8, 512)    2048        conv5_block1_2_conv[0][0]        
__________________________________________________________________________________________________
conv5_block1_2_relu (Activation (None, 8, 8, 512)    0           conv5_block1_2_bn[0][0]          
__________________________________________________________________________________________________
conv5_block1_0_conv (Conv2D)    (None, 8, 8, 2048)   2099200     conv4_block23_out[0][0]          
__________________________________________________________________________________________________
conv5_block1_3_conv (Conv2D)    (None, 8, 8, 2048)   1050624     conv5_block1_2_relu[0][0]        
__________________________________________________________________________________________________
conv5_block1_0_bn (BatchNormali (None, 8, 8, 2048)   8192        conv5_block1_0_conv[0][0]        
__________________________________________________________________________________________________
conv5_block1_3_bn (BatchNormali (None, 8, 8, 2048)   8192        conv5_block1_3_conv[0][0]        
__________________________________________________________________________________________________
conv5_block1_add (Add)          (None, 8, 8, 2048)   0           conv5_block1_0_bn[0][0]          
                                                                 conv5_block1_3_bn[0][0]          
__________________________________________________________________________________________________
conv5_block1_out (Activation)   (None, 8, 8, 2048)   0           conv5_block1_add[0][0]           
__________________________________________________________________________________________________
conv5_block2_1_conv (Conv2D)    (None, 8, 8, 512)    1049088     conv5_block1_out[0][0]           
__________________________________________________________________________________________________
conv5_block2_1_bn (BatchNormali (None, 8, 8, 512)    2048        conv5_block2_1_conv[0][0]        
__________________________________________________________________________________________________
conv5_block2_1_relu (Activation (None, 8, 8, 512)    0           conv5_block2_1_bn[0][0]          
__________________________________________________________________________________________________
conv5_block2_2_conv (Conv2D)    (None, 8, 8, 512)    2359808     conv5_block2_1_relu[0][0]        
__________________________________________________________________________________________________
conv5_block2_2_bn (BatchNormali (None, 8, 8, 512)    2048        conv5_block2_2_conv[0][0]        
__________________________________________________________________________________________________
conv5_block2_2_relu (Activation (None, 8, 8, 512)    0           conv5_block2_2_bn[0][0]          
__________________________________________________________________________________________________
conv5_block2_3_conv (Conv2D)    (None, 8, 8, 2048)   1050624     conv5_block2_2_relu[0][0]        
__________________________________________________________________________________________________
conv5_block2_3_bn (BatchNormali (None, 8, 8, 2048)   8192        conv5_block2_3_conv[0][0]        
__________________________________________________________________________________________________
conv5_block2_add (Add)          (None, 8, 8, 2048)   0           conv5_block1_out[0][0]           
                                                                 conv5_block2_3_bn[0][0]          
__________________________________________________________________________________________________
conv5_block2_out (Activation)   (None, 8, 8, 2048)   0           conv5_block2_add[0][0]           
__________________________________________________________________________________________________
conv5_block3_1_conv (Conv2D)    (None, 8, 8, 512)    1049088     conv5_block2_out[0][0]           
__________________________________________________________________________________________________
conv5_block3_1_bn (BatchNormali (None, 8, 8, 512)    2048        conv5_block3_1_conv[0][0]        
__________________________________________________________________________________________________
conv5_block3_1_relu (Activation (None, 8, 8, 512)    0           conv5_block3_1_bn[0][0]          
__________________________________________________________________________________________________
conv5_block3_2_conv (Conv2D)    (None, 8, 8, 512)    2359808     conv5_block3_1_relu[0][0]        
__________________________________________________________________________________________________
conv5_block3_2_bn (BatchNormali (None, 8, 8, 512)    2048        conv5_block3_2_conv[0][0]        
__________________________________________________________________________________________________
conv5_block3_2_relu (Activation (None, 8, 8, 512)    0           conv5_block3_2_bn[0][0]          
__________________________________________________________________________________________________
conv5_block3_3_conv (Conv2D)    (None, 8, 8, 2048)   1050624     conv5_block3_2_relu[0][0]        
__________________________________________________________________________________________________
conv5_block3_3_bn (BatchNormali (None, 8, 8, 2048)   8192        conv5_block3_3_conv[0][0]        
__________________________________________________________________________________________________
conv5_block3_add (Add)          (None, 8, 8, 2048)   0           conv5_block2_out[0][0]           
                                                                 conv5_block3_3_bn[0][0]          
__________________________________________________________________________________________________
conv5_block3_out (Activation)   (None, 8, 8, 2048)   0           conv5_block3_add[0][0]           
__________________________________________________________________________________________________
flatten (Flatten)               (None, 131072)       0           conv5_block3_out[0][0]           
__________________________________________________________________________________________________
fc1 (Dense)                     (None, 4096)         536875008   flatten[0][0]                    
__________________________________________________________________________________________________
fc2 (Dense)                     (None, 4096)         16781312    fc1[0][0]                        
__________________________________________________________________________________________________
predictions (Dense)             (None, 5)            20485       fc2[0][0]                        
==================================================================================================
Total params: 596,334,981
Trainable params: 596,229,637
Non-trainable params: 105,344
__________________________________________________________________________________________________
Start fitting ensemble models
Random seed for replication: 332
Length split part:  1398
…
2020-05-25 13:00:34.878902: E tensorflow/core/profiler/internal/gpu/cupti_tracer.cc:1329] function cupti_interface_->EnableCallback( 0 , subscriber_, CUPTI_CB_DOMAIN_DRIVER_API, cbid)failed with error CUPTI_ERROR_INVALID_PARAMETER
2020-05-25 13:00:34.878994: I tensorflow/core/profiler/internal/gpu/device_tracer.cc:88]  GpuTracer has collected 0 callback api events and 0 activity events.
Epoch 00021: early stopping
ResNet152
Model: "model"
__________________________________________________________________________________________________
Layer (type)                    Output Shape         Param #     Connected to                     
==================================================================================================
input_1 (InputLayer)            [(None, 256, 256, 3) 0                                            
__________________________________________________________________________________________________
conv1_pad (ZeroPadding2D)       (None, 262, 262, 3)  0           input_1[0][0]                    
__________________________________________________________________________________________________
conv1_conv (Conv2D)             (None, 128, 128, 64) 9472        conv1_pad[0][0]                  
…
conv4_block8_concat (Concatenat (None, 16, 16, 512)  0           conv4_block7_concat[0][0]        
                                                                 conv4_block8_2_conv[0][0]        
__________________________________________________________________________________________________
conv4_block9_0_bn (BatchNormali (None, 16, 16, 512)  2048        conv4_block8_concat[0][0]        
__________________________________________________________________________________________________
conv4_block9_0_relu (Activation (None, 16, 16, 512)  0           conv4_block9_0_bn[0][0]          
__________________________________________________________________________________________________
conv4_block9_1_conv (Conv2D)    (None, 16, 16, 128)  65536       conv4_block9_0_relu[0][0]        
__________________________________________________________________________________________________
conv4_block9_1_bn (BatchNormali (None, 16, 16, 128)  512         conv4_block9_1_conv[0][0]        
__________________________________________________________________________________________________
conv4_block9_1_relu (Activation (None, 16, 16, 128)  0           conv4_block9_1_bn[0][0]          
__________________________________________________________________________________________________
conv4_block9_2_conv (Conv2D)    (None, 16, 16, 32)   36864       conv4_block9_1_relu[0][0]        
__________________________________________________________________________________________________
conv4_block9_concat (Concatenat (None, 16, 16, 544)  0           conv4_block8_concat[0][0]        
                                                                 conv4_block9_2_conv[0][0]        
__________________________________________________________________________________________________
conv4_block10_0_bn (BatchNormal (None, 16, 16, 544)  2176        conv4_block9_concat[0][0]        
__________________________________________________________________________________________________
conv4_block10_0_relu (Activatio (None, 16, 16, 544)  0           conv4_block10_0_bn[0][0]         
__________________________________________________________________________________________________
conv4_block10_1_conv (Conv2D)   (None, 16, 16, 128)  69632       conv4_block10_0_relu[0][0]       
__________________________________________________________________________________________________
conv4_block10_1_bn (BatchNormal (None, 16, 16, 128)  512         conv4_block10_1_conv[0][0]       
__________________________________________________________________________________________________
conv4_block10_1_relu (Activatio (None, 16, 16, 128)  0           conv4_block10_1_bn[0][0]         
__________________________________________________________________________________________________
conv4_block10_2_conv (Conv2D)   (None, 16, 16, 32)   36864       conv4_block10_1_relu[0][0]       
__________________________________________________________________________________________________
conv4_block10_concat (Concatena (None, 16, 16, 576)  0           conv4_block9_concat[0][0]        
                                                                 conv4_block10_2_conv[0][0]       
__________________________________________________________________________________________________
conv4_block11_0_bn (BatchNormal (None, 16, 16, 576)  2304        conv4_block10_concat[0][0]       
__________________________________________________________________________________________________
conv4_block11_0_relu (Activatio (None, 16, 16, 576)  0           conv4_block11_0_bn[0][0]         
__________________________________________________________________________________________________
conv4_block11_1_conv (Conv2D)   (None, 16, 16, 128)  73728       conv4_block11_0_relu[0][0]       
__________________________________________________________________________________________________
conv4_block11_1_bn (BatchNormal (None, 16, 16, 128)  512         conv4_block11_1_conv[0][0]       
__________________________________________________________________________________________________
conv4_block11_1_relu (Activatio (None, 16, 16, 128)  0           conv4_block11_1_bn[0][0]         
__________________________________________________________________________________________________
conv4_block11_2_conv (Conv2D)   (None, 16, 16, 32)   36864       conv4_block11_1_relu[0][0]       
__________________________________________________________________________________________________
conv4_block11_concat (Concatena (None, 16, 16, 608)  0           conv4_block10_concat[0][0]       
                                                                 conv4_block11_2_conv[0][0]       
__________________________________________________________________________________________________
conv4_block12_0_bn (BatchNormal (None, 16, 16, 608)  2432        conv4_block11_concat[0][0]       
__________________________________________________________________________________________________
conv4_block12_0_relu (Activatio (None, 16, 16, 608)  0           conv4_block12_0_bn[0][0]         
__________________________________________________________________________________________________
conv4_block12_1_conv (Conv2D)   (None, 16, 16, 128)  77824       conv4_block12_0_relu[0][0]       
__________________________________________________________________________________________________
conv4_block12_1_bn (BatchNormal (None, 16, 16, 128)  512         conv4_block12_1_conv[0][0]       
__________________________________________________________________________________________________
conv4_block12_1_relu (Activatio (None, 16, 16, 128)  0           conv4_block12_1_bn[0][0]         
__________________________________________________________________________________________________
conv4_block12_2_conv (Conv2D)   (None, 16, 16, 32)   36864       conv4_block12_1_relu[0][0]       
__________________________________________________________________________________________________
conv4_block12_concat (Concatena (None, 16, 16, 640)  0           conv4_block11_concat[0][0]       
                                                                 conv4_block12_2_conv[0][0]       
__________________________________________________________________________________________________
conv4_block13_0_bn (BatchNormal (None, 16, 16, 640)  2560        conv4_block12_concat[0][0]       
__________________________________________________________________________________________________
conv4_block13_0_relu (Activatio (None, 16, 16, 640)  0           conv4_block13_0_bn[0][0]         
__________________________________________________________________________________________________
conv4_block13_1_conv (Conv2D)   (None, 16, 16, 128)  81920       conv4_block13_0_relu[0][0]       
__________________________________________________________________________________________________
conv4_block13_1_bn (BatchNormal (None, 16, 16, 128)  512         conv4_block13_1_conv[0][0]       
__________________________________________________________________________________________________
conv4_block13_1_relu (Activatio (None, 16, 16, 128)  0           conv4_block13_1_bn[0][0]         
__________________________________________________________________________________________________
conv4_block13_2_conv (Conv2D)   (None, 16, 16, 32)   36864       conv4_block13_1_relu[0][0]       
__________________________________________________________________________________________________
conv4_block13_concat (Concatena (None, 16, 16, 672)  0           conv4_block12_concat[0][0]       
                                                                 conv4_block13_2_conv[0][0]       
__________________________________________________________________________________________________
conv4_block14_0_bn (BatchNormal (None, 16, 16, 672)  2688        conv4_block13_concat[0][0]       
__________________________________________________________________________________________________
conv4_block14_0_relu (Activatio (None, 16, 16, 672)  0           conv4_block14_0_bn[0][0]         
__________________________________________________________________________________________________
conv4_block14_1_conv (Conv2D)   (None, 16, 16, 128)  86016       conv4_block14_0_relu[0][0]       
__________________________________________________________________________________________________
conv4_block14_1_bn (BatchNormal (None, 16, 16, 128)  512         conv4_block14_1_conv[0][0]       
__________________________________________________________________________________________________
conv4_block14_1_relu (Activatio (None, 16, 16, 128)  0           conv4_block14_1_bn[0][0]         
__________________________________________________________________________________________________
conv4_block14_2_conv (Conv2D)   (None, 16, 16, 32)   36864       conv4_block14_1_relu[0][0]       
__________________________________________________________________________________________________
conv4_block14_concat (Concatena (None, 16, 16, 704)  0           conv4_block13_concat[0][0]       
                                                                 conv4_block14_2_conv[0][0]       
__________________________________________________________________________________________________
conv4_block15_0_bn (BatchNormal (None, 16, 16, 704)  2816        conv4_block14_concat[0][0]       
__________________________________________________________________________________________________
conv4_block15_0_relu (Activatio (None, 16, 16, 704)  0           conv4_block15_0_bn[0][0]         
__________________________________________________________________________________________________
conv4_block15_1_conv (Conv2D)   (None, 16, 16, 128)  90112       conv4_block15_0_relu[0][0]       
__________________________________________________________________________________________________
conv4_block15_1_bn (BatchNormal (None, 16, 16, 128)  512         conv4_block15_1_conv[0][0]       
__________________________________________________________________________________________________
conv4_block15_1_relu (Activatio (None, 16, 16, 128)  0           conv4_block15_1_bn[0][0]         
__________________________________________________________________________________________________
conv4_block15_2_conv (Conv2D)   (None, 16, 16, 32)   36864       conv4_block15_1_relu[0][0]       
__________________________________________________________________________________________________
conv4_block15_concat (Concatena (None, 16, 16, 736)  0           conv4_block14_concat[0][0]       
                                                                 conv4_block15_2_conv[0][0]       
__________________________________________________________________________________________________
conv4_block16_0_bn (BatchNormal (None, 16, 16, 736)  2944        conv4_block15_concat[0][0]       
__________________________________________________________________________________________________
conv4_block16_0_relu (Activatio (None, 16, 16, 736)  0           conv4_block16_0_bn[0][0]         
__________________________________________________________________________________________________
conv4_block16_1_conv (Conv2D)   (None, 16, 16, 128)  94208       conv4_block16_0_relu[0][0]       
__________________________________________________________________________________________________
conv4_block16_1_bn (BatchNormal (None, 16, 16, 128)  512         conv4_block16_1_conv[0][0]       
__________________________________________________________________________________________________
conv4_block16_1_relu (Activatio (None, 16, 16, 128)  0           conv4_block16_1_bn[0][0]         
__________________________________________________________________________________________________
conv4_block16_2_conv (Conv2D)   (None, 16, 16, 32)   36864       conv4_block16_1_relu[0][0]       
__________________________________________________________________________________________________
conv4_block16_concat (Concatena (None, 16, 16, 768)  0           conv4_block15_concat[0][0]       
                                                                 conv4_block16_2_conv[0][0]       
__________________________________________________________________________________________________
conv4_block17_0_bn (BatchNormal (None, 16, 16, 768)  3072        conv4_block16_concat[0][0]       
__________________________________________________________________________________________________
conv4_block17_0_relu (Activatio (None, 16, 16, 768)  0           conv4_block17_0_bn[0][0]         
__________________________________________________________________________________________________
conv4_block17_1_conv (Conv2D)   (None, 16, 16, 128)  98304       conv4_block17_0_relu[0][0]       
__________________________________________________________________________________________________
conv4_block17_1_bn (BatchNormal (None, 16, 16, 128)  512         conv4_block17_1_conv[0][0]       
__________________________________________________________________________________________________
conv4_block17_1_relu (Activatio (None, 16, 16, 128)  0           conv4_block17_1_bn[0][0]         
__________________________________________________________________________________________________
conv4_block17_2_conv (Conv2D)   (None, 16, 16, 32)   36864       conv4_block17_1_relu[0][0]       
__________________________________________________________________________________________________
conv4_block17_concat (Concatena (None, 16, 16, 800)  0           conv4_block16_concat[0][0]       
                                                                 conv4_block17_2_conv[0][0]       
__________________________________________________________________________________________________
conv4_block18_0_bn (BatchNormal (None, 16, 16, 800)  3200        conv4_block17_concat[0][0]       
__________________________________________________________________________________________________
conv4_block18_0_relu (Activatio (None, 16, 16, 800)  0           conv4_block18_0_bn[0][0]         
__________________________________________________________________________________________________
conv4_block18_1_conv (Conv2D)   (None, 16, 16, 128)  102400      conv4_block18_0_relu[0][0]       
__________________________________________________________________________________________________
conv4_block18_1_bn (BatchNormal (None, 16, 16, 128)  512         conv4_block18_1_conv[0][0]       
__________________________________________________________________________________________________
conv4_block18_1_relu (Activatio (None, 16, 16, 128)  0           conv4_block18_1_bn[0][0]         
__________________________________________________________________________________________________
conv4_block18_2_conv (Conv2D)   (None, 16, 16, 32)   36864       conv4_block18_1_relu[0][0]       
__________________________________________________________________________________________________
conv4_block18_concat (Concatena (None, 16, 16, 832)  0           conv4_block17_concat[0][0]       
                                                                 conv4_block18_2_conv[0][0]       
__________________________________________________________________________________________________
conv4_block19_0_bn (BatchNormal (None, 16, 16, 832)  3328        conv4_block18_concat[0][0]       
__________________________________________________________________________________________________
conv4_block19_0_relu (Activatio (None, 16, 16, 832)  0           conv4_block19_0_bn[0][0]         
__________________________________________________________________________________________________
conv4_block19_1_conv (Conv2D)   (None, 16, 16, 128)  106496      conv4_block19_0_relu[0][0]       
__________________________________________________________________________________________________
conv4_block19_1_bn (BatchNormal (None, 16, 16, 128)  512         conv4_block19_1_conv[0][0]       
__________________________________________________________________________________________________
conv4_block19_1_relu (Activatio (None, 16, 16, 128)  0           conv4_block19_1_bn[0][0]         
__________________________________________________________________________________________________
conv4_block19_2_conv (Conv2D)   (None, 16, 16, 32)   36864       conv4_block19_1_relu[0][0]       
__________________________________________________________________________________________________
conv4_block19_concat (Concatena (None, 16, 16, 864)  0           conv4_block18_concat[0][0]       
                                                                 conv4_block19_2_conv[0][0]       
__________________________________________________________________________________________________
conv4_block20_0_bn (BatchNormal (None, 16, 16, 864)  3456        conv4_block19_concat[0][0]       
__________________________________________________________________________________________________
conv4_block20_0_relu (Activatio (None, 16, 16, 864)  0           conv4_block20_0_bn[0][0]         
__________________________________________________________________________________________________
conv4_block20_1_conv (Conv2D)   (None, 16, 16, 128)  110592      conv4_block20_0_relu[0][0]       
__________________________________________________________________________________________________
conv4_block20_1_bn (BatchNormal (None, 16, 16, 128)  512         conv4_block20_1_conv[0][0]       
__________________________________________________________________________________________________
conv4_block20_1_relu (Activatio (None, 16, 16, 128)  0           conv4_block20_1_bn[0][0]         
__________________________________________________________________________________________________
conv4_block20_2_conv (Conv2D)   (None, 16, 16, 32)   36864       conv4_block20_1_relu[0][0]       
__________________________________________________________________________________________________
conv4_block20_concat (Concatena (None, 16, 16, 896)  0           conv4_block19_concat[0][0]       
                                                                 conv4_block20_2_conv[0][0]       
__________________________________________________________________________________________________
conv4_block21_0_bn (BatchNormal (None, 16, 16, 896)  3584        conv4_block20_concat[0][0]       
__________________________________________________________________________________________________
conv4_block21_0_relu (Activatio (None, 16, 16, 896)  0           conv4_block21_0_bn[0][0]         
__________________________________________________________________________________________________
conv4_block21_1_conv (Conv2D)   (None, 16, 16, 128)  114688      conv4_block21_0_relu[0][0]       
__________________________________________________________________________________________________
conv4_block21_1_bn (BatchNormal (None, 16, 16, 128)  512         conv4_block21_1_conv[0][0]       
__________________________________________________________________________________________________
conv4_block21_1_relu (Activatio (None, 16, 16, 128)  0           conv4_block21_1_bn[0][0]         
__________________________________________________________________________________________________
conv4_block21_2_conv (Conv2D)   (None, 16, 16, 32)   36864       conv4_block21_1_relu[0][0]       
__________________________________________________________________________________________________
conv4_block21_concat (Concatena (None, 16, 16, 928)  0           conv4_block20_concat[0][0]       
                                                                 conv4_block21_2_conv[0][0]       
__________________________________________________________________________________________________
conv4_block22_0_bn (BatchNormal (None, 16, 16, 928)  3712        conv4_block21_concat[0][0]       
__________________________________________________________________________________________________
conv4_block22_0_relu (Activatio (None, 16, 16, 928)  0           conv4_block22_0_bn[0][0]         
__________________________________________________________________________________________________
conv4_block22_1_conv (Conv2D)   (None, 16, 16, 128)  118784      conv4_block22_0_relu[0][0]       
__________________________________________________________________________________________________
conv4_block22_1_bn (BatchNormal (None, 16, 16, 128)  512         conv4_block22_1_conv[0][0]       
__________________________________________________________________________________________________
conv4_block22_1_relu (Activatio (None, 16, 16, 128)  0           conv4_block22_1_bn[0][0]         
__________________________________________________________________________________________________
conv4_block22_2_conv (Conv2D)   (None, 16, 16, 32)   36864       conv4_block22_1_relu[0][0]       
__________________________________________________________________________________________________
conv4_block22_concat (Concatena (None, 16, 16, 960)  0           conv4_block21_concat[0][0]       
                                                                 conv4_block22_2_conv[0][0]       
__________________________________________________________________________________________________
conv4_block23_0_bn (BatchNormal (None, 16, 16, 960)  3840        conv4_block22_concat[0][0]       
__________________________________________________________________________________________________
conv4_block23_0_relu (Activatio (None, 16, 16, 960)  0           conv4_block23_0_bn[0][0]         
__________________________________________________________________________________________________
conv4_block23_1_conv (Conv2D)   (None, 16, 16, 128)  122880      conv4_block23_0_relu[0][0]       
__________________________________________________________________________________________________
conv4_block23_1_bn (BatchNormal (None, 16, 16, 128)  512         conv4_block23_1_conv[0][0]       
__________________________________________________________________________________________________
conv4_block23_1_relu (Activatio (None, 16, 16, 128)  0           conv4_block23_1_bn[0][0]         
__________________________________________________________________________________________________
conv4_block23_2_conv (Conv2D)   (None, 16, 16, 32)   36864       conv4_block23_1_relu[0][0]       
__________________________________________________________________________________________________
conv4_block23_concat (Concatena (None, 16, 16, 992)  0           conv4_block22_concat[0][0]       
                                                                 conv4_block23_2_conv[0][0]       
__________________________________________________________________________________________________
conv4_block24_0_bn (BatchNormal (None, 16, 16, 992)  3968        conv4_block23_concat[0][0]       
__________________________________________________________________________________________________
conv4_block24_0_relu (Activatio (None, 16, 16, 992)  0           conv4_block24_0_bn[0][0]         
__________________________________________________________________________________________________
conv4_block24_1_conv (Conv2D)   (None, 16, 16, 128)  126976      conv4_block24_0_relu[0][0]       
__________________________________________________________________________________________________
conv4_block24_1_bn (BatchNormal (None, 16, 16, 128)  512         conv4_block24_1_conv[0][0]       
__________________________________________________________________________________________________
conv4_block24_1_relu (Activatio (None, 16, 16, 128)  0           conv4_block24_1_bn[0][0]         
__________________________________________________________________________________________________
conv4_block24_2_conv (Conv2D)   (None, 16, 16, 32)   36864       conv4_block24_1_relu[0][0]       
__________________________________________________________________________________________________
conv4_block24_concat (Concatena (None, 16, 16, 1024) 0           conv4_block23_concat[0][0]       
                                                                 conv4_block24_2_conv[0][0]       
__________________________________________________________________________________________________
pool4_bn (BatchNormalization)   (None, 16, 16, 1024) 4096        conv4_block24_concat[0][0]       
__________________________________________________________________________________________________
pool4_relu (Activation)         (None, 16, 16, 1024) 0           pool4_bn[0][0]                   
__________________________________________________________________________________________________
pool4_conv (Conv2D)             (None, 16, 16, 512)  524288      pool4_relu[0][0]                 
__________________________________________________________________________________________________
pool4_pool (AveragePooling2D)   (None, 8, 8, 512)    0           pool4_conv[0][0]                 
__________________________________________________________________________________________________
conv5_block1_0_bn (BatchNormali (None, 8, 8, 512)    2048        pool4_pool[0][0]                 
__________________________________________________________________________________________________
conv5_block1_0_relu (Activation (None, 8, 8, 512)    0           conv5_block1_0_bn[0][0]          
__________________________________________________________________________________________________
conv5_block1_1_conv (Conv2D)    (None, 8, 8, 128)    65536       conv5_block1_0_relu[0][0]        
__________________________________________________________________________________________________
conv5_block1_1_bn (BatchNormali (None, 8, 8, 128)    512         conv5_block1_1_conv[0][0]        
__________________________________________________________________________________________________
conv5_block1_1_relu (Activation (None, 8, 8, 128)    0           conv5_block1_1_bn[0][0]          
__________________________________________________________________________________________________
conv5_block1_2_conv (Conv2D)    (None, 8, 8, 32)     36864       conv5_block1_1_relu[0][0]        
__________________________________________________________________________________________________
conv5_block1_concat (Concatenat (None, 8, 8, 544)    0           pool4_pool[0][0]                 
                                                                 conv5_block1_2_conv[0][0]        
__________________________________________________________________________________________________
conv5_block2_0_bn (BatchNormali (None, 8, 8, 544)    2176        conv5_block1_concat[0][0]        
__________________________________________________________________________________________________
conv5_block2_0_relu (Activation (None, 8, 8, 544)    0           conv5_block2_0_bn[0][0]          
__________________________________________________________________________________________________
conv5_block2_1_conv (Conv2D)    (None, 8, 8, 128)    69632       conv5_block2_0_relu[0][0]        
__________________________________________________________________________________________________
conv5_block2_1_bn (BatchNormali (None, 8, 8, 128)    512         conv5_block2_1_conv[0][0]        
__________________________________________________________________________________________________
conv5_block2_1_relu (Activation (None, 8, 8, 128)    0           conv5_block2_1_bn[0][0]          
__________________________________________________________________________________________________
conv5_block2_2_conv (Conv2D)    (None, 8, 8, 32)     36864       conv5_block2_1_relu[0][0]        
__________________________________________________________________________________________________
conv5_block2_concat (Concatenat (None, 8, 8, 576)    0           conv5_block1_concat[0][0]        
                                                                 conv5_block2_2_conv[0][0]        
__________________________________________________________________________________________________
conv5_block3_0_bn (BatchNormali (None, 8, 8, 576)    2304        conv5_block2_concat[0][0]        
__________________________________________________________________________________________________
conv5_block3_0_relu (Activation (None, 8, 8, 576)    0           conv5_block3_0_bn[0][0]          
__________________________________________________________________________________________________
conv5_block3_1_conv (Conv2D)    (None, 8, 8, 128)    73728       conv5_block3_0_relu[0][0]        
__________________________________________________________________________________________________
conv5_block3_1_bn (BatchNormali (None, 8, 8, 128)    512         conv5_block3_1_conv[0][0]        
__________________________________________________________________________________________________
conv5_block3_1_relu (Activation (None, 8, 8, 128)    0           conv5_block3_1_bn[0][0]          
__________________________________________________________________________________________________
conv5_block3_2_conv (Conv2D)    (None, 8, 8, 32)     36864       conv5_block3_1_relu[0][0]        
__________________________________________________________________________________________________
conv5_block3_concat (Concatenat (None, 8, 8, 608)    0           conv5_block2_concat[0][0]        
                                                                 conv5_block3_2_conv[0][0]        
__________________________________________________________________________________________________
conv5_block4_0_bn (BatchNormali (None, 8, 8, 608)    2432        conv5_block3_concat[0][0]        
__________________________________________________________________________________________________
conv5_block4_0_relu (Activation (None, 8, 8, 608)    0           conv5_block4_0_bn[0][0]          
__________________________________________________________________________________________________
conv5_block4_1_conv (Conv2D)    (None, 8, 8, 128)    77824       conv5_block4_0_relu[0][0]        
__________________________________________________________________________________________________
conv5_block4_1_bn (BatchNormali (None, 8, 8, 128)    512         conv5_block4_1_conv[0][0]        
__________________________________________________________________________________________________
conv5_block4_1_relu (Activation (None, 8, 8, 128)    0           conv5_block4_1_bn[0][0]          
__________________________________________________________________________________________________
conv5_block4_2_conv (Conv2D)    (None, 8, 8, 32)     36864       conv5_block4_1_relu[0][0]        
__________________________________________________________________________________________________
conv5_block4_concat (Concatenat (None, 8, 8, 640)    0           conv5_block3_concat[0][0]        
                                                                 conv5_block4_2_conv[0][0]        
__________________________________________________________________________________________________
conv5_block5_0_bn (BatchNormali (None, 8, 8, 640)    2560        conv5_block4_concat[0][0]        
__________________________________________________________________________________________________
conv5_block5_0_relu (Activation (None, 8, 8, 640)    0           conv5_block5_0_bn[0][0]          
__________________________________________________________________________________________________
conv5_block5_1_conv (Conv2D)    (None, 8, 8, 128)    81920       conv5_block5_0_relu[0][0]        
__________________________________________________________________________________________________
conv5_block5_1_bn (BatchNormali (None, 8, 8, 128)    512         conv5_block5_1_conv[0][0]        
__________________________________________________________________________________________________
conv5_block5_1_relu (Activation (None, 8, 8, 128)    0           conv5_block5_1_bn[0][0]          
__________________________________________________________________________________________________
conv5_block5_2_conv (Conv2D)    (None, 8, 8, 32)     36864       conv5_block5_1_relu[0][0]        
__________________________________________________________________________________________________
conv5_block5_concat (Concatenat (None, 8, 8, 672)    0           conv5_block4_concat[0][0]        
                                                                 conv5_block5_2_conv[0][0]        
__________________________________________________________________________________________________
conv5_block6_0_bn (BatchNormali (None, 8, 8, 672)    2688        conv5_block5_concat[0][0]        
__________________________________________________________________________________________________
conv5_block6_0_relu (Activation (None, 8, 8, 672)    0           conv5_block6_0_bn[0][0]          
__________________________________________________________________________________________________
conv5_block6_1_conv (Conv2D)    (None, 8, 8, 128)    86016       conv5_block6_0_relu[0][0]        
__________________________________________________________________________________________________
conv5_block6_1_bn (BatchNormali (None, 8, 8, 128)    512         conv5_block6_1_conv[0][0]        
__________________________________________________________________________________________________
conv5_block6_1_relu (Activation (None, 8, 8, 128)    0           conv5_block6_1_bn[0][0]          
__________________________________________________________________________________________________
conv5_block6_2_conv (Conv2D)    (None, 8, 8, 32)     36864       conv5_block6_1_relu[0][0]        
__________________________________________________________________________________________________
conv5_block6_concat (Concatenat (None, 8, 8, 704)    0           conv5_block5_concat[0][0]        
                                                                 conv5_block6_2_conv[0][0]        
__________________________________________________________________________________________________
conv5_block7_0_bn (BatchNormali (None, 8, 8, 704)    2816        conv5_block6_concat[0][0]        
__________________________________________________________________________________________________
conv5_block7_0_relu (Activation (None, 8, 8, 704)    0           conv5_block7_0_bn[0][0]          
__________________________________________________________________________________________________
conv5_block7_1_conv (Conv2D)    (None, 8, 8, 128)    90112       conv5_block7_0_relu[0][0]        
__________________________________________________________________________________________________
conv5_block7_1_bn (BatchNormali (None, 8, 8, 128)    512         conv5_block7_1_conv[0][0]        
__________________________________________________________________________________________________
conv5_block7_1_relu (Activation (None, 8, 8, 128)    0           conv5_block7_1_bn[0][0]          
__________________________________________________________________________________________________
conv5_block7_2_conv (Conv2D)    (None, 8, 8, 32)     36864       conv5_block7_1_relu[0][0]        
__________________________________________________________________________________________________
conv5_block7_concat (Concatenat (None, 8, 8, 736)    0           conv5_block6_concat[0][0]        
                                                                 conv5_block7_2_conv[0][0]        
__________________________________________________________________________________________________
conv5_block8_0_bn (BatchNormali (None, 8, 8, 736)    2944        conv5_block7_concat[0][0]        
__________________________________________________________________________________________________
conv5_block8_0_relu (Activation (None, 8, 8, 736)    0           conv5_block8_0_bn[0][0]          
__________________________________________________________________________________________________
conv5_block8_1_conv (Conv2D)    (None, 8, 8, 128)    94208       conv5_block8_0_relu[0][0]        
__________________________________________________________________________________________________
conv5_block8_1_bn (BatchNormali (None, 8, 8, 128)    512         conv5_block8_1_conv[0][0]        
__________________________________________________________________________________________________
conv5_block8_1_relu (Activation (None, 8, 8, 128)    0           conv5_block8_1_bn[0][0]          
__________________________________________________________________________________________________
conv5_block8_2_conv (Conv2D)    (None, 8, 8, 32)     36864       conv5_block8_1_relu[0][0]        
__________________________________________________________________________________________________
conv5_block8_concat (Concatenat (None, 8, 8, 768)    0           conv5_block7_concat[0][0]        
                                                                 conv5_block8_2_conv[0][0]        
__________________________________________________________________________________________________
conv5_block9_0_bn (BatchNormali (None, 8, 8, 768)    3072        conv5_block8_concat[0][0]        
__________________________________________________________________________________________________
conv5_block9_0_relu (Activation (None, 8, 8, 768)    0           conv5_block9_0_bn[0][0]          
__________________________________________________________________________________________________
conv5_block9_1_conv (Conv2D)    (None, 8, 8, 128)    98304       conv5_block9_0_relu[0][0]        
__________________________________________________________________________________________________
conv5_block9_1_bn (BatchNormali (None, 8, 8, 128)    512         conv5_block9_1_conv[0][0]        
__________________________________________________________________________________________________
conv5_block9_1_relu (Activation (None, 8, 8, 128)    0           conv5_block9_1_bn[0][0]          
__________________________________________________________________________________________________
conv5_block9_2_conv (Conv2D)    (None, 8, 8, 32)     36864       conv5_block9_1_relu[0][0]        
__________________________________________________________________________________________________
conv5_block9_concat (Concatenat (None, 8, 8, 800)    0           conv5_block8_concat[0][0]        
                                                                 conv5_block9_2_conv[0][0]        
__________________________________________________________________________________________________
conv5_block10_0_bn (BatchNormal (None, 8, 8, 800)    3200        conv5_block9_concat[0][0]        
__________________________________________________________________________________________________
conv5_block10_0_relu (Activatio (None, 8, 8, 800)    0           conv5_block10_0_bn[0][0]         
__________________________________________________________________________________________________
conv5_block10_1_conv (Conv2D)   (None, 8, 8, 128)    102400      conv5_block10_0_relu[0][0]       
__________________________________________________________________________________________________
conv5_block10_1_bn (BatchNormal (None, 8, 8, 128)    512         conv5_block10_1_conv[0][0]       
__________________________________________________________________________________________________
conv5_block10_1_relu (Activatio (None, 8, 8, 128)    0           conv5_block10_1_bn[0][0]         
__________________________________________________________________________________________________
conv5_block10_2_conv (Conv2D)   (None, 8, 8, 32)     36864       conv5_block10_1_relu[0][0]       
__________________________________________________________________________________________________
conv5_block10_concat (Concatena (None, 8, 8, 832)    0           conv5_block9_concat[0][0]        
                                                                 conv5_block10_2_conv[0][0]       
__________________________________________________________________________________________________
conv5_block11_0_bn (BatchNormal (None, 8, 8, 832)    3328        conv5_block10_concat[0][0]       
__________________________________________________________________________________________________
conv5_block11_0_relu (Activatio (None, 8, 8, 832)    0           conv5_block11_0_bn[0][0]         
__________________________________________________________________________________________________
conv5_block11_1_conv (Conv2D)   (None, 8, 8, 128)    106496      conv5_block11_0_relu[0][0]       
__________________________________________________________________________________________________
conv5_block11_1_bn (BatchNormal (None, 8, 8, 128)    512         conv5_block11_1_conv[0][0]       
__________________________________________________________________________________________________
conv5_block11_1_relu (Activatio (None, 8, 8, 128)    0           conv5_block11_1_bn[0][0]         
__________________________________________________________________________________________________
conv5_block11_2_conv (Conv2D)   (None, 8, 8, 32)     36864       conv5_block11_1_relu[0][0]       
__________________________________________________________________________________________________
conv5_block11_concat (Concatena (None, 8, 8, 864)    0           conv5_block10_concat[0][0]       
                                                                 conv5_block11_2_conv[0][0]       
__________________________________________________________________________________________________
conv5_block12_0_bn (BatchNormal (None, 8, 8, 864)    3456        conv5_block11_concat[0][0]       
__________________________________________________________________________________________________
conv5_block12_0_relu (Activatio (None, 8, 8, 864)    0           conv5_block12_0_bn[0][0]         
__________________________________________________________________________________________________
conv5_block12_1_conv (Conv2D)   (None, 8, 8, 128)    110592      conv5_block12_0_relu[0][0]       
__________________________________________________________________________________________________
conv5_block12_1_bn (BatchNormal (None, 8, 8, 128)    512         conv5_block12_1_conv[0][0]       
__________________________________________________________________________________________________
conv5_block12_1_relu (Activatio (None, 8, 8, 128)    0           conv5_block12_1_bn[0][0]         
__________________________________________________________________________________________________
conv5_block12_2_conv (Conv2D)   (None, 8, 8, 32)     36864       conv5_block12_1_relu[0][0]       
__________________________________________________________________________________________________
conv5_block12_concat (Concatena (None, 8, 8, 896)    0           conv5_block11_concat[0][0]       
                                                                 conv5_block12_2_conv[0][0]       
__________________________________________________________________________________________________
conv5_block13_0_bn (BatchNormal (None, 8, 8, 896)    3584        conv5_block12_concat[0][0]       
__________________________________________________________________________________________________
conv5_block13_0_relu (Activatio (None, 8, 8, 896)    0           conv5_block13_0_bn[0][0]         
__________________________________________________________________________________________________
conv5_block13_1_conv (Conv2D)   (None, 8, 8, 128)    114688      conv5_block13_0_relu[0][0]       
__________________________________________________________________________________________________
conv5_block13_1_bn (BatchNormal (None, 8, 8, 128)    512         conv5_block13_1_conv[0][0]       
__________________________________________________________________________________________________
conv5_block13_1_relu (Activatio (None, 8, 8, 128)    0           conv5_block13_1_bn[0][0]         
__________________________________________________________________________________________________
conv5_block13_2_conv (Conv2D)   (None, 8, 8, 32)     36864       conv5_block13_1_relu[0][0]       
__________________________________________________________________________________________________
conv5_block13_concat (Concatena (None, 8, 8, 928)    0           conv5_block12_concat[0][0]       
                                                                 conv5_block13_2_conv[0][0]       
__________________________________________________________________________________________________
conv5_block14_0_bn (BatchNormal (None, 8, 8, 928)    3712        conv5_block13_concat[0][0]       
__________________________________________________________________________________________________
conv5_block14_0_relu (Activatio (None, 8, 8, 928)    0           conv5_block14_0_bn[0][0]         
__________________________________________________________________________________________________
conv5_block14_1_conv (Conv2D)   (None, 8, 8, 128)    118784      conv5_block14_0_relu[0][0]       
__________________________________________________________________________________________________
conv5_block14_1_bn (BatchNormal (None, 8, 8, 128)    512         conv5_block14_1_conv[0][0]       
__________________________________________________________________________________________________
conv5_block14_1_relu (Activatio (None, 8, 8, 128)    0           conv5_block14_1_bn[0][0]         
__________________________________________________________________________________________________
conv5_block14_2_conv (Conv2D)   (None, 8, 8, 32)     36864       conv5_block14_1_relu[0][0]       
__________________________________________________________________________________________________
conv5_block14_concat (Concatena (None, 8, 8, 960)    0           conv5_block13_concat[0][0]       
                                                                 conv5_block14_2_conv[0][0]       
__________________________________________________________________________________________________
conv5_block15_0_bn (BatchNormal (None, 8, 8, 960)    3840        conv5_block14_concat[0][0]       
__________________________________________________________________________________________________
conv5_block15_0_relu (Activatio (None, 8, 8, 960)    0           conv5_block15_0_bn[0][0]         
__________________________________________________________________________________________________
conv5_block15_1_conv (Conv2D)   (None, 8, 8, 128)    122880      conv5_block15_0_relu[0][0]       
__________________________________________________________________________________________________
conv5_block15_1_bn (BatchNormal (None, 8, 8, 128)    512         conv5_block15_1_conv[0][0]       
__________________________________________________________________________________________________
conv5_block15_1_relu (Activatio (None, 8, 8, 128)    0           conv5_block15_1_bn[0][0]         
__________________________________________________________________________________________________
conv5_block15_2_conv (Conv2D)   (None, 8, 8, 32)     36864       conv5_block15_1_relu[0][0]       
__________________________________________________________________________________________________
conv5_block15_concat (Concatena (None, 8, 8, 992)    0           conv5_block14_concat[0][0]       
                                                                 conv5_block15_2_conv[0][0]       
__________________________________________________________________________________________________
conv5_block16_0_bn (BatchNormal (None, 8, 8, 992)    3968        conv5_block15_concat[0][0]       
__________________________________________________________________________________________________
conv5_block16_0_relu (Activatio (None, 8, 8, 992)    0           conv5_block16_0_bn[0][0]         
__________________________________________________________________________________________________
conv5_block16_1_conv (Conv2D)   (None, 8, 8, 128)    126976      conv5_block16_0_relu[0][0]       
__________________________________________________________________________________________________
conv5_block16_1_bn (BatchNormal (None, 8, 8, 128)    512         conv5_block16_1_conv[0][0]       
__________________________________________________________________________________________________
conv5_block16_1_relu (Activatio (None, 8, 8, 128)    0           conv5_block16_1_bn[0][0]         
__________________________________________________________________________________________________
conv5_block16_2_conv (Conv2D)   (None, 8, 8, 32)     36864       conv5_block16_1_relu[0][0]       
__________________________________________________________________________________________________
conv5_block16_concat (Concatena (None, 8, 8, 1024)   0           conv5_block15_concat[0][0]       
                                                                 conv5_block16_2_conv[0][0]       
__________________________________________________________________________________________________
bn (BatchNormalization)         (None, 8, 8, 1024)   4096        conv5_block16_concat[0][0]       
__________________________________________________________________________________________________
relu (Activation)               (None, 8, 8, 1024)   0           bn[0][0]                         
__________________________________________________________________________________________________
flatten (Flatten)               (None, 65536)        0           relu[0][0]                       
__________________________________________________________________________________________________
fc1 (Dense)                     (None, 4096)         268439552   flatten[0][0]                    
__________________________________________________________________________________________________
fc2 (Dense)                     (None, 4096)         16781312    fc1[0][0]                        
__________________________________________________________________________________________________
predictions (Dense)             (None, 5)            20485       fc2[0][0]                        
==================================================================================================
Total params: 292,278,853
Trainable params: 292,195,205
Non-trainable params: 83,648
__________________________________________________________________________________________________
Start fitting ensemble models
Random seed for replication: 375
Length split part:  1398
…
