…
        mcdo = True, es_patience = 5, train_val_split = 0.9, Dropoutrates: [0.05, 0.1, 0.15, 0.2, 0.25, 0.3, 0.5, 0.5], MIN_DELTA = 0.005, Early_monitor = val_accuracy
x_train shape: (50000, 32, 32, 3)
50000 train samples
10000 test samples
Model: "model"
_________________________________________________________________
Layer (type)                 Output Shape              Param #   
=================================================================
input_1 (InputLayer)         [(None, 32, 32, 3)]       0         
_________________________________________________________________
block1_conv1 (Conv2D)        (None, 32, 32, 64)        1792      
_________________________________________________________________
block1_conv2 (Conv2D)        (None, 32, 32, 64)        36928     
_________________________________________________________________
block1_pool (MaxPooling2D)   (None, 16, 16, 64)        0         
_________________________________________________________________
block2_conv1 (Conv2D)        (None, 16, 16, 128)       73856     
_________________________________________________________________
block2_conv2 (Conv2D)        (None, 16, 16, 128)       147584    
_________________________________________________________________
block2_pool (MaxPooling2D)   (None, 8, 8, 128)         0         
_________________________________________________________________
block3_conv1 (Conv2D)        (None, 8, 8, 256)         295168    
_________________________________________________________________
block3_conv2 (Conv2D)        (None, 8, 8, 256)         590080    
_________________________________________________________________
block3_conv3 (Conv2D)        (None, 8, 8, 256)         590080    
_________________________________________________________________
block3_pool (MaxPooling2D)   (None, 4, 4, 256)         0         
_________________________________________________________________
block4_conv1 (Conv2D)        (None, 4, 4, 512)         1180160   
_________________________________________________________________
block4_conv2 (Conv2D)        (None, 4, 4, 512)         2359808   
_________________________________________________________________
block4_conv3 (Conv2D)        (None, 4, 4, 512)         2359808   
_________________________________________________________________
block4_pool (MaxPooling2D)   (None, 2, 2, 512)         0         
_________________________________________________________________
block5_conv1 (Conv2D)        (None, 2, 2, 512)         2359808   
_________________________________________________________________
block5_conv2 (Conv2D)        (None, 2, 2, 512)         2359808   
_________________________________________________________________
block5_conv3 (Conv2D)        (None, 2, 2, 512)         2359808   
_________________________________________________________________
block5_pool (MaxPooling2D)   (None, 1, 1, 512)         0         
_________________________________________________________________
flatten (Flatten)            (None, 512)               0         
_________________________________________________________________
concrete_dropout (ConcreteDr (None, 1024)              525313    
_________________________________________________________________
concrete_dropout_1 (Concrete (None, 1024)              1049601   
_________________________________________________________________
concrete_dropout_2 (Concrete (None, 1024)              1049601   
_________________________________________________________________
concrete_dropout_3 (Concrete (None, 10)                10251     
=================================================================
Total params: 17,349,454
Trainable params: 17,349,454
Non-trainable params: 0
_________________________________________________________________
Start fitting monte carlo dropout model
Train for 1266 steps, validate for 141 steps
Epoch 1/10
1266/1266 - 22s - loss: 7.8466 - accuracy: 0.0994 - val_loss: 8.4421 - val_accuracy: 0.1022
…
