…
        mcdo = True, es_patience = 50, train_val_split = 0.33, Dropoutrates: [0.05, 0.1, 0.15, 0.2, 0.2, 0.2, 0.25, 0.25], MIN_DELTA = 0.005, Early_monitor = val_accuracy
x_train shape: (4193, 256, 256, 3)
4193 train samples
158 test samples
Model: "model_5"
_________________________________________________________________
Layer (type)                 Output Shape              Param #   
=================================================================
input_1 (InputLayer)         [(None, 256, 256, 3)]     0         
_________________________________________________________________
block1_conv1 (Conv2D)        (None, 256, 256, 64)      1792      
_________________________________________________________________
block1_conv2 (Conv2D)        (None, 256, 256, 64)      36928     
_________________________________________________________________
block1_pool (MaxPooling2D)   (None, 128, 128, 64)      0         
_________________________________________________________________
dropout (Dropout)            (None, 128, 128, 64)      0         
_________________________________________________________________
block2_conv1 (Conv2D)        (None, 128, 128, 128)     73856     
_________________________________________________________________
block2_conv2 (Conv2D)        (None, 128, 128, 128)     147584    
_________________________________________________________________
block2_pool (MaxPooling2D)   (None, 64, 64, 128)       0         
_________________________________________________________________
dropout_1 (Dropout)          (None, 64, 64, 128)       0         
_________________________________________________________________
block3_conv1 (Conv2D)        (None, 64, 64, 256)       295168    
_________________________________________________________________
block3_conv2 (Conv2D)        (None, 64, 64, 256)       590080    
_________________________________________________________________
block3_conv3 (Conv2D)        (None, 64, 64, 256)       590080    
_________________________________________________________________
block3_pool (MaxPooling2D)   (None, 32, 32, 256)       0         
_________________________________________________________________
dropout_2 (Dropout)          (None, 32, 32, 256)       0         
_________________________________________________________________
block4_conv1 (Conv2D)        (None, 32, 32, 512)       1180160   
_________________________________________________________________
block4_conv2 (Conv2D)        (None, 32, 32, 512)       2359808   
_________________________________________________________________
block4_conv3 (Conv2D)        (None, 32, 32, 512)       2359808   
_________________________________________________________________
block4_pool (MaxPooling2D)   (None, 16, 16, 512)       0         
_________________________________________________________________
dropout_3 (Dropout)          (None, 16, 16, 512)       0         
_________________________________________________________________
block5_conv1 (Conv2D)        (None, 16, 16, 512)       2359808   
_________________________________________________________________
block5_conv2 (Conv2D)        (None, 16, 16, 512)       2359808   
_________________________________________________________________
block5_conv3 (Conv2D)        (None, 16, 16, 512)       2359808   
_________________________________________________________________
block5_pool (MaxPooling2D)   (None, 8, 8, 512)         0         
_________________________________________________________________
dropout_4 (Dropout)          (None, 8, 8, 512)         0         
_________________________________________________________________
flatten (Flatten)            (None, 32768)             0         
_________________________________________________________________
fc1 (Dense)                  (None, 4096)              134221824 
_________________________________________________________________
dropout_5 (Dropout)          (None, 4096)              0         
_________________________________________________________________
fc2 (Dense)                  (None, 4096)              16781312  
_________________________________________________________________
dropout_6 (Dropout)          (None, 4096)              0         
_________________________________________________________________
predictions (Dense)          (None, 5)                 20485     
=================================================================
Total params: 165,738,309
Trainable params: 165,738,309
Non-trainable params: 0
_________________________________________________________________
Start fitting monte carlo dropout model
Train for 66 steps, validate for 6 steps
Epoch 1/500
66/66 - 42s - loss: 1.6417 - accuracy: 0.2528 - val_loss: 1.1991 - val_accuracy: 0.5504
Epoch 2/500
…
